Assets/StreamingAssets/meet/segm_lite_v509_128x128_float16_quant.tflite (tflite, 432144 bytes, 109 tensors)

model/conv2d_1/BiasAdd/ReadVariableOp/resource f2 [16]
0	0xbca5	-1.161
1	0xa8d1	-0.03763
2	0x4245	3.135
3	0x3bdb	0.982
4	0x3d4d	1.325
5	0x3ad4	0.8535
6	0x3007	0.1259
7	0xc3f3	-3.975
8	0x366c	0.4014
9	0xbaee	-0.866
10	0x3d3d	1.31
11	0x38d4	0.6035
12	0x3efc	1.746
13	0x3ae1	0.86
14	0x3ee6	1.725
15	0x3bef	0.9917

model/conv2d_17/BiasAdd/ReadVariableOp/resource f2 [128]
0	0xb7ef	-0.4958
1	0x331b	0.222
2	0x32bc	0.2104
3	0xa01b	-0.00802
4	0x2feb	0.1237
5	0xb896	-0.573
6	0x2ce2	0.0763
7	0xb658	-0.3965
8	0xb66a	-0.401
9	0x3402	0.2505
10	0xb9ef	-0.7417
11	0xb09b	-0.1439
12	0xb874	-0.5566
13	0xb0d5	-0.151
14	0xbbee	-0.991
15	0x3025	0.1295
16	0x384a	0.536
17	0xad7c	-0.0857
18	0xb492	-0.2856
19	0x131a	0.000867
20	0x3096	0.1433
21	0xb710	-0.4414
22	0x2829	0.0325
23	0xb1dc	-0.1831
24	0xb08a	-0.1418
25	0xad32	-0.0812
26	0x2049	0.00837
27	0x32da	0.2141
28	0xb44d	-0.2688
29	0xb829	-0.52
30	0xb8b4	-0.588
31	0xa935	-0.04068
32	0xb71b	-0.444
33	0x3375	0.233
34	0xb980	-0.6875
35	0xb25b	-0.1986
36	0x32a6	0.2078
37	0xb82d	-0.522
38	0xb191	-0.174
39	0x2c1a	0.0641
40	0x2cf7	0.0776
41	0xbc12	-1.018
42	0xb132	-0.1624
43	0x3040	0.1328
44	0x2f11	0.1104
45	0x30e9	0.1534
46	0xae68	-0.1001
47	0xac9e	-0.07214
48	0xa85d	-0.0341
49	0x29a2	0.044
50	0xab26	-0.05585
51	0x9e3e	-0.006096
52	0x293d	0.04092
53	0x2c44	0.06665
54	0xb449	-0.2678
55	0x323e	0.1951
56	0x2e2d	0.0965
57	0xa05c	-0.008514
58	0xb75e	-0.4604
59	0xb7ef	-0.4958
60	0xaec8	-0.10596
61	0xb4a1	-0.2893
62	0xb623	-0.3835
63	0x3077	0.1395
64	0xae01	-0.0938
65	0xb352	-0.2288
66	0x309c	0.144
67	0x31d8	0.1826
68	0x339e	0.238
69	0xb5e3	-0.368
70	0x2e26	0.09607
71	0x36f8	0.4355
72	0x3300	0.2188
73	0xabaf	-0.06003
74	0x2e54	0.0989
75	0xb662	-0.399
76	0xb5ea	-0.3696
77	0xb0a3	-0.1449
78	0x2a1f	0.04782
79	0xa6d7	-0.02672
80	0x2151	0.01038
81	0xb896	-0.573
82	0xad3d	-0.08185
83	0x3139	0.1632
84	0xb47e	-0.2808
85	0xb462	-0.274
86	0xb56c	-0.3389
87	0x320d	0.1891
88	0x25ff	0.02342
89	0xa90c	-0.03943
90	0x2b5f	0.0576
91	0xbc39	-1.056
92	0xb4f6	-0.31
93	0xb055	-0.1354
94	0x2902	0.03912
95	0xb4d3	-0.3015
96	0x31aa	0.177
97	0xb49d	-0.2883
98	0xb7c2	-0.4849
99	0x2c21	0.0645
100	0xb5c0	-0.3594
101	0xb022	-0.1292
102	0xb0be	-0.1482
103	0xaed8	-0.10693
104	0xb8cf	-0.601
105	0xb6d8	-0.4277
106	0xadf8	-0.09326
107	0xb175	-0.1705
108	0x2e7e	0.10144
109	0x2d2f	0.081
110	0xac00	-0.0625
111	0xafaa	-0.11975
112	0xb1c8	-0.1807
113	0xb3e4	-0.2466
114	0x3764	0.462
115	0x24fd	0.01949
116	0x3401	0.2502
117	0x3464	0.2744
118	0x3446	0.267
119	0x27dc	0.0307
120	0xbbc7	-0.972
121	0x30fb	0.1556
122	0xb55c	-0.335
123	0xa8f2	-0.03864
124	0xaffc	-0.12476
125	0xb4f6	-0.31
126	0xb03f	-0.1327
127	0xa8ec	-0.03845

model/conv2d_18/BiasAdd/ReadVariableOp/resource f2 [128]
0	0x2c72	0.06946
1	0xba16	-0.7607
2	0xba61	-0.7974
3	0xbbb5	-0.9634
4	0xb951	-0.6646
5	0xb889	-0.567
6	0xb991	-0.696
7	0x2fca	0.1217
8	0xb9ae	-0.71
9	0xba5d	-0.7954
10	0xb9ae	-0.71
11	0xb71a	-0.4438
12	0x9881	-0.0022
13	0xb7d2	-0.4888
14	0xbae3	-0.861
15	0xb91b	-0.638
16	0xb836	-0.5264
17	0xb954	-0.666
18	0xb983	-0.689
19	0xb45f	-0.2732
20	0xb732	-0.4497
21	0xb1aa	-0.177
22	0xb892	-0.5713
23	0xb7e2	-0.4927
24	0xb836	-0.5264
25	0xb9d1	-0.727
26	0xbcb4	-1.176
27	0xba2a	-0.7705
28	0xb7e1	-0.4924
29	0xb975	-0.682
30	0x36ce	0.4253
31	0xb6ed	-0.4329
32	0xb812	-0.509
33	0xb982	-0.6885
34	0xb083	-0.141
35	0xb41a	-0.2563
36	0xb8eb	-0.6147
37	0xb965	-0.6743
38	0xb9d7	-0.73
39	0xba4c	-0.787
40	0xb916	-0.6357
41	0x32b8	0.21
42	0xb9b9	-0.7153
43	0xb945	-0.6587
44	0xb83e	-0.5303
45	0xb8b5	-0.5884
46	0xb59f	-0.3513
47	0xb9cc	-0.7246
48	0xbb9e	-0.952
49	0xb13f	-0.164
50	0xb8cd	-0.6
51	0xb7bd	-0.4836
52	0xb4b4	-0.294
53	0xb88d	-0.569
54	0xb8fc	-0.623
55	0xb9c0	-0.7188
56	0x2946	0.0412
57	0xb985	-0.69
58	0xb00d	-0.1266
59	0xb843	-0.5327
60	0xb927	-0.644
61	0xb727	-0.447
62	0xb5e4	-0.3682
63	0xb6af	-0.4177
64	0xba98	-0.824
65	0xbae2	-0.8604
66	0xb9a5	-0.7056
67	0xbae6	-0.8623
68	0xbabb	-0.8413
69	0xb593	-0.3484
70	0xbb7b	-0.935
71	0xb9bd	-0.7173
72	0xb90f	-0.6323
73	0xb7a3	-0.4773
74	0xba1e	-0.7646
75	0x302b	0.1302
76	0xb98d	-0.694
77	0xb92d	-0.647
78	0x2df5	0.0931
79	0xb9f6	-0.745
80	0xbaa2	-0.829
81	0xb3d6	-0.2449
82	0xb896	-0.573
83	0xb9c0	-0.7188
84	0xb625	-0.384
85	0xb92e	-0.6475
86	0xa520	-0.02002
87	0xb91e	-0.6396
88	0xb80e	-0.507
89	0xbb96	-0.948
90	0xba14	-0.76
91	0xb5c2	-0.3599
92	0xb4e3	-0.3054
93	0xb5fa	-0.3735
94	0xb8ca	-0.5986
95	0xb8ee	-0.616
96	0xb77d	-0.468
97	0xb24c	-0.1968
98	0xb49a	-0.2876
99	0xbaaa	-0.833
100	0xb888	-0.5664
101	0xb8b9	-0.5903
102	0xb9dd	-0.733
103	0xb6af	-0.4177
104	0xb549	-0.3303
105	0xb7fd	-0.4993
106	0xb981	-0.688
107	0xbc5e	-1.092
108	0xba4e	-0.788
109	0xb8c0	-0.5938
110	0xb78e	-0.4722
111	0xba47	-0.7847
112	0xb6ab	-0.4167
113	0xb864	-0.549
114	0xbb3a	-0.9033
115	0xb9f7	-0.7456
116	0xb8ed	-0.6157
117	0xb7be	-0.484
118	0xb5a9	-0.3538
119	0xb9b7	-0.7144
120	0xafae	-0.12
121	0xbb2d	-0.897
122	0xb1a5	-0.1764
123	0xba63	-0.7983
124	0xb8da	-0.6064
125	0xb878	-0.5586
126	0xbaaf	-0.8354
127	0xb85a	-0.544

model/conv2d_20/BiasAdd/ReadVariableOp/resource f2 [24]
0	0x38af	0.5854
1	0xb87d	-0.561
2	0xb73e	-0.4526
3	0xb50b	-0.3152
4	0x35dd	0.3665
5	0x3cf0	1.234
6	0x2dd8	0.0913
7	0xb6df	-0.4294
8	0xb983	-0.689
9	0xaede	-0.1073
10	0x35f7	0.3728
11	0xb27f	-0.203
12	0x2c3a	0.06604
13	0xba00	-0.75
14	0xb227	-0.1923
15	0x3c9a	1.15
16	0xa639	-0.0243
17	0xb44e	-0.269
18	0xb94d	-0.6626
19	0x34d0	0.3008
20	0xb818	-0.5117
21	0x2824	0.03235
22	0xb82f	-0.523
23	0x357e	0.3433

model/conv2d_24/BiasAdd/ReadVariableOp/resource f2 [16]
0	0x3263	0.1996
1	0x3401	0.2502
2	0xa27d	-0.01267
3	0x3633	0.3875
4	0x3167	0.1688
5	0x3950	0.664
6	0xa309	-0.01374
7	0xb41e	-0.2573
8	0xb111	-0.1583
9	0x28f3	0.03867
10	0x3831	0.524
11	0x34a5	0.2903
12	0x33f0	0.248
13	0x3806	0.503
14	0x38ef	0.6167
15	0xba1e	-0.7646

model/conv2d_28/BiasAdd/ReadVariableOp/resource f2 [16]
0	0x2faa	0.11975
1	0xb02d	-0.1305
2	0x386e	0.5537
3	0x359f	0.3513
4	0x38c0	0.5938
5	0xae3c	-0.0974
6	0x3918	0.6367
7	0x3ca6	1.162
8	0xae5a	-0.09924
9	0x3784	0.4697
10	0x36f7	0.4353
11	0xb2f8	-0.2178
12	0x35fb	0.3738
13	0x37f3	0.4968
14	0x39d3	0.728
15	0x2ef3	0.1086

model/conv2d_3/BiasAdd/ReadVariableOp/resource f2 [72]
0	0x3515	0.3176
1	0x3d2a	1.291
2	0xaeae	-0.1044
3	0x3ceb	1.2295
4	0x3d6b	1.3545
5	0x3f1e	1.779
6	0x3ea5	1.661
7	0x39f9	0.7466
8	0x3cdc	1.215
9	0x3bfa	0.997
10	0xba06	-0.753
11	0x3cbb	1.183
12	0x3a57	0.7925
13	0xb20d	-0.1891
14	0xaa53	-0.0494
15	0x3c6d	1.106
16	0x3f49	1.821
17	0x38f5	0.6196
18	0x3c12	1.018
19	0x3dd9	1.462
20	0x3e0e	1.514
21	0x3399	0.2374
22	0x3548	0.33
23	0xb2fe	-0.2185
24	0x3cfd	1.247
25	0x4143	2.63
26	0x3e2e	1.545
27	0x3ddf	1.468
28	0x370c	0.4404
29	0x3c3d	1.06
30	0xb57b	-0.3425
31	0x3d3e	1.311
32	0x3ccd	1.2
33	0x3ca7	1.163
34	0x3cc7	1.194
35	0x3c76	1.115
36	0xba42	-0.782
37	0x3c2c	1.043
38	0x3472	0.2778
39	0x3d1b	1.276
40	0x2bd3	0.06113
41	0x3d0c	1.262
42	0x3d10	1.266
43	0x3ce8	1.227
44	0x3b1c	0.8887
45	0x3d46	1.318
46	0x3b25	0.893
47	0x3dc5	1.442
48	0x3c5f	1.093
49	0xbad2	-0.8525
50	0xbd0e	-1.264
51	0x39e5	0.737
52	0x3a9d	0.8267
53	0x3d02	1.252
54	0x3d69	1.353
55	0xb432	-0.2622
56	0x3ce2	1.221
57	0x3ca3	1.159
58	0x3e1e	1.529
59	0xb3a9	-0.2394
60	0xb316	-0.2214
61	0x3df9	1.493
62	0x3d6b	1.3545
63	0x3d4d	1.325
64	0x3b05	0.8774
65	0x3cda	1.213
66	0x3cee	1.232
67	0x3864	0.549
68	0x3ce8	1.227
69	0x3f98	1.898
70	0x401d	2.057
71	0x35c8	0.3613

model/conv2d_5/BiasAdd/ReadVariableOp/resource f2 [88]
0	0x3c0b	1.011
1	0x3c01	1.001
2	0x3b4f	0.9136
3	0xb49b	-0.2878
4	0x3ad6	0.8545
5	0x4039	2.111
6	0x3789	0.471
7	0x3746	0.4546
8	0xb472	-0.2778
9	0x30e1	0.1525
10	0x3b68	0.926
11	0x36ef	0.4333
12	0x3cf7	1.241
13	0x3ca0	1.156
14	0x3c79	1.118
15	0x3b0c	0.881
16	0x3d50	1.328
17	0x3ee7	1.726
18	0x3bda	0.9814
19	0x3c57	1.085
20	0x3ccd	1.2
21	0xad5f	-0.0839
22	0x3c6c	1.105
23	0xb88e	-0.5693
24	0x367d	0.4055
25	0x3a0c	0.756
26	0x394e	0.663
27	0x3ca6	1.162
28	0x3a7e	0.8115
29	0x3d72	1.361
30	0x3b90	0.9453
31	0x341e	0.2573
32	0x3d1b	1.276
33	0x34a2	0.2896
34	0xb388	-0.2354
35	0x349d	0.2883
36	0x3867	0.5503
37	0xb4f0	-0.3086
38	0xb88f	-0.57
39	0x3914	0.635
40	0x3cd5	1.208
41	0x3c0e	1.014
42	0x3cfa	1.244
43	0x3c71	1.11
44	0x3956	0.667
45	0x38b6	0.589
46	0x3c52	1.08
47	0xb6f0	-0.4336
48	0x3821	0.516
49	0x3c99	1.149
50	0x34a5	0.2903
51	0x3c28	1.039
52	0x2421	0.01613
53	0x30ad	0.1461
54	0x3964	0.674
55	0xb259	-0.1984
56	0x3499	0.2874
57	0x3c1e	1.029
58	0x39ea	0.7393
59	0x3ce6	1.225
60	0x39a8	0.707
61	0x3c31	1.048
62	0x3752	0.4575
63	0x3683	0.407
64	0x3e05	1.505
65	0x3ac1	0.844
66	0x3ba0	0.953
67	0x3c52	1.08
68	0x3b60	0.922
69	0xb940	-0.6562
70	0x38ac	0.584
71	0x2bae	0.06
72	0xb956	-0.667
73	0x3927	0.644
74	0x3499	0.2874
75	0x3c94	1.145
76	0x3a99	0.8247
77	0x3ce8	1.227
78	0x3b1b	0.888
79	0x3a38	0.7773
80	0x3c00	1.0
81	0xb245	-0.1959
82	0x3b43	0.9077
83	0x3c70	1.109
84	0xb0cd	-0.15
85	0x3aad	0.8345
86	0x38ed	0.6157
87	0x2aae	0.0522

model/dense/BiasAdd/ReadVariableOp/resource f2 [16]
0	0xaf49	-0.11383
1	0xaaf3	-0.0543
2	0xad08	-0.0786
3	0x16f7	0.0017
4	0xb084	-0.1411
5	0xa7a0	-0.02979
6	0x2ba7	0.05978
7	0xb376	-0.2332
8	0xacc4	-0.07446
9	0xa88a	-0.03546
10	0x33e1	0.2462
11	0xaccc	-0.07495
12	0xa478	-0.01746
13	0xb023	-0.1293
14	0x3332	0.2249
15	0xb501	-0.3127

model/dense_1/BiasAdd/ReadVariableOp/resource f2 [16]
0	0x3c96	1.146
1	0x3160	0.168
2	0x3cae	1.17
3	0x3374	0.2329
4	0x4053	2.162
5	0xad20	-0.0801
6	0x2d7b	0.08563
7	0xbc34	-1.051
8	0xb8bf	-0.5933
9	0xb7b1	-0.4807
10	0xb814	-0.51
11	0xbe22	-1.533
12	0x3010	0.127
13	0xbb9d	-0.9517
14	0xb5ae	-0.355
15	0xb074	-0.1392

model/dense_10/BiasAdd/ReadVariableOp/resource f2 [72]
0	0xb129	-0.1613
1	0xb64f	-0.3943
2	0xacce	-0.0751
3	0xaef8	-0.1089
4	0xb4e8	-0.3066
5	0xb030	-0.1309
6	0xb471	-0.2776
7	0x260a	0.02359
8	0xb0ec	-0.1538
9	0x2c37	0.06586
10	0xb408	-0.252
11	0xaefe	-0.10925
12	0xb43b	-0.2644
13	0xaf8a	-0.1178
14	0x2c8c	0.07104
15	0xb4f5	-0.3098
16	0x311f	0.16
17	0xb026	-0.1296
18	0x3659	0.3967
19	0xb1f4	-0.186
20	0xb16d	-0.1696
21	0xb682	-0.4067
22	0xb3c6	-0.2429
23	0xb04d	-0.1344
24	0x3224	0.1919
25	0x333c	0.2261
26	0xb471	-0.2776
27	0xaeed	-0.1082
28	0x3057	0.1356
29	0xb1ef	-0.1854
30	0xb0ba	-0.1477
31	0xa120	-0.01001
32	0xb23d	-0.195
33	0x2d7f	0.0859
34	0xb093	-0.143
35	0xb4c9	-0.299
36	0x34d8	0.3027
37	0xa9e3	-0.046
38	0xb425	-0.259
39	0xb17c	-0.1714
40	0xb3df	-0.246
41	0xb226	-0.1921
42	0xb09f	-0.1444
43	0x33f0	0.248
44	0x9c60	-0.004272
45	0xb1d2	-0.1819
46	0xb474	-0.2783
47	0xa13e	-0.01024
48	0xb437	-0.2634
49	0xb691	-0.4104
50	0xb571	-0.34
51	0x3011	0.1271
52	0xb6f6	-0.435
53	0xb6b0	-0.418
54	0x3228	0.1924
55	0xb48b	-0.284
56	0xb344	-0.227
57	0x21f3	0.01162
58	0xb480	-0.2812
59	0xb263	-0.1996
60	0xb229	-0.1925
61	0xa958	-0.04175
62	0xb383	-0.2347
63	0xb267	-0.2001
64	0x239e	0.01488
65	0x2da5	0.0882
66	0xb5b1	-0.3557
67	0xb594	-0.3486
68	0xb4c3	-0.2976
69	0xb202	-0.1877
70	0x2637	0.02428
71	0xad82	-0.08606

model/dense_11/BiasAdd/ReadVariableOp/resource f2 [72]
0	0xb71a	-0.4438
1	0xa553	-0.0208
2	0x384a	0.536
3	0xb88f	-0.57
4	0x3aa9	0.8325
5	0xb36d	-0.232
6	0x3145	0.1647
7	0xb0f5	-0.1549
8	0xb4ad	-0.2922
9	0xb131	-0.1622
10	0x38d9	0.606
11	0x3423	0.2585
12	0x3864	0.549
13	0x3673	0.403
14	0x39c5	0.721
15	0xb742	-0.4536
16	0x315e	0.1677
17	0x32a2	0.2073
18	0x38f3	0.6187
19	0x3238	0.1943
20	0x36b6	0.4194
21	0x36cc	0.4248
22	0xb495	-0.2864
23	0x332e	0.2244
24	0x3511	0.3167
25	0x39e3	0.736
26	0x3790	0.4727
27	0x35ef	0.3708
28	0x373f	0.453
29	0x3a91	0.821
30	0xb24f	-0.1971
31	0x2cbe	0.0741
32	0xb95f	-0.6714
33	0x35b8	0.3574
34	0x3691	0.4104
35	0x3d17	1.272
36	0x35d9	0.3655
37	0xb478	-0.2793
38	0x365b	0.3972
39	0x3457	0.2712
40	0x32f4	0.2173
41	0x34dc	0.3037
42	0x35f7	0.3728
43	0xb042	-0.133
44	0x31ee	0.1853
45	0xb5b6	-0.357
46	0x35e1	0.3674
47	0x3493	0.286
48	0x3936	0.6514
49	0x331d	0.2223
50	0x3425	0.259
51	0xb85d	-0.5454
52	0x3502	0.313
53	0x3d1b	1.276
54	0x3647	0.3923
55	0xb778	-0.4668
56	0xb740	-0.4531
57	0x383a	0.5283
58	0x38f9	0.6216
59	0x38da	0.6064
60	0xb3bd	-0.2418
61	0x33c2	0.2424
62	0x3259	0.1984
63	0x3578	0.3418
64	0x3a62	0.798
65	0x35ac	0.3545
66	0xb92f	-0.648
67	0x30ff	0.1561
68	0x39e3	0.736
69	0x3261	0.1993
70	0x3931	0.649
71	0xb420	-0.2578

model/dense_2/BiasAdd/ReadVariableOp/resource f2 [96]
0	0xb4a7	-0.2908
1	0xb117	-0.159
2	0xafcf	-0.122
3	0xac05	-0.0628
4	0xb157	-0.1669
5	0xb563	-0.3367
6	0xb38b	-0.2357
7	0xada3	-0.0881
8	0x34d5	0.302
9	0xadc2	-0.08997
10	0xb0c8	-0.1494
11	0xb0c6	-0.1492
12	0xb178	-0.1709
13	0xad22	-0.0802
14	0xa7be	-0.03024
15	0x8d03	-0.000306
16	0xac06	-0.06287
17	0xaf4c	-0.114
18	0xad11	-0.07916
19	0xae7e	-0.10144
20	0xb328	-0.2236
21	0xb3e8	-0.2471
22	0x2930	0.04053
23	0xadd5	-0.0911
24	0xb035	-0.1315
25	0xb266	-0.2
26	0xafa0	-0.11914
27	0xaff1	-0.1241
28	0x2d65	0.0843
29	0xadea	-0.0924
30	0xb35b	-0.2299
31	0xaeac	-0.10425
32	0xb325	-0.2233
33	0xb42c	-0.2607
34	0xb0b0	-0.1465
35	0xab8f	-0.05905
36	0xb2bf	-0.2108
37	0x3110	0.1582
38	0xb06f	-0.1385
39	0x2b2a	0.05597
40	0xafdb	-0.12274
41	0xb1ff	-0.1874
42	0xaff1	-0.1241
43	0xb44b	-0.2683
44	0xad51	-0.08307
45	0xac8b	-0.071
46	0xb0c1	-0.1486
47	0xad42	-0.08215
48	0xb382	-0.2346
49	0xae2e	-0.09656
50	0xb505	-0.3137
51	0xaf48	-0.1138
52	0x3392	0.2366
53	0x3038	0.1318
54	0xb249	-0.1964
55	0x315e	0.1677
56	0x2ec0	0.10547
57	0xad9f	-0.0878
58	0xaf6d	-0.116
59	0xb3d3	-0.2445
60	0xb22c	-0.1929
61	0xae37	-0.0971
62	0xb457	-0.2712
63	0xb0e7	-0.1532
64	0xaf5c	-0.115
65	0x319f	0.1757
66	0xb165	-0.1686
67	0x2d54	0.08325
68	0xb040	-0.1328
69	0x34e6	0.3062
70	0x389c	0.576
71	0xaa7b	-0.05063
72	0xae3c	-0.0974
73	0xaf54	-0.1145
74	0xb05a	-0.136
75	0xae7f	-0.1015
76	0xaf8a	-0.1178
77	0xb164	-0.1685
78	0xae09	-0.0943
79	0x2ff9	0.1246
80	0xb2dc	-0.2144
81	0xb516	-0.3179
82	0xb018	-0.1279
83	0xa761	-0.02882
84	0xb2a3	-0.2074
85	0xad8c	-0.0867
86	0xaf82	-0.1173
87	0xb0f3	-0.1547
88	0xafa6	-0.1195
89	0xad44	-0.0823
90	0xb076	-0.1394
91	0xaf8c	-0.1179
92	0xae70	-0.1006
93	0xb1dd	-0.1832
94	0xb196	-0.1746
95	0xb094	-0.1431

model/dense_3/BiasAdd/ReadVariableOp/resource f2 [96]
0	0x3946	0.659
1	0x3910	0.633
2	0x39fa	0.747
3	0x2ecf	0.1064
4	0x2974	0.0426
5	0xb18e	-0.1736
6	0x3e56	1.584
7	0x39d7	0.73
8	0x3d9c	1.402
9	0x379e	0.476
10	0xae2c	-0.09644
11	0x3498	0.287
12	0x3d01	1.251
13	0x3aa1	0.8286
14	0x3801	0.5005
15	0xad9e	-0.08777
16	0xbac4	-0.8457
17	0x3453	0.2703
18	0x3abc	0.842
19	0x2caa	0.0729
20	0x2dbe	0.0897
21	0x32ba	0.2102
22	0x3709	0.4397
23	0x3b9c	0.951
24	0x36b8	0.42
25	0x3af7	0.8706
26	0x36bc	0.421
27	0x3a4f	0.7886
28	0x35b8	0.3574
29	0x335b	0.2299
30	0x317d	0.1715
31	0x3379	0.2335
32	0x35c0	0.3594
33	0xb597	-0.3494
34	0x3806	0.503
35	0xbcfc	-1.246
36	0xb5bc	-0.3584
37	0x38d6	0.6045
38	0x3d90	1.391
39	0x30a4	0.145
40	0x3b3a	0.9033
41	0xad5e	-0.08386
42	0xae32	-0.0968
43	0x3273	0.2015
44	0xb8d1	-0.602
45	0x37cc	0.4873
46	0x320a	0.1887
47	0x360f	0.3787
48	0x3631	0.387
49	0x3c2f	1.046
50	0x2f52	0.1144
51	0x3b82	0.9385
52	0x3a58	0.793
53	0x3568	0.338
54	0x2e30	0.0967
55	0x364b	0.3933
56	0x36bc	0.421
57	0x35a1	0.3518
58	0x3558	0.334
59	0x3c07	1.007
60	0x38cb	0.599
61	0x32ad	0.2086
62	0x3ce4	1.223
63	0x3a2e	0.7725
64	0xb91a	-0.6377
65	0x39de	0.7334
66	0x35e7	0.369
67	0x2bf4	0.06213
68	0x3ae2	0.8604
69	0x3a35	0.776
70	0x3b15	0.8853
71	0x3bf5	0.9946
72	0x39ce	0.7256
73	0x2d13	0.0793
74	0x365d	0.3977
75	0x35fd	0.3743
76	0x3eee	1.732
77	0x3979	0.684
78	0x337d	0.234
79	0x3b8d	0.944
80	0x3afa	0.872
81	0x3826	0.5186
82	0x3b75	0.932
83	0x3c2a	1.041
84	0x3408	0.252
85	0xb0e2	-0.1526
86	0x3c03	1.003
87	0x3480	0.2812
88	0x3e2f	1.546
89	0x31d0	0.1816
90	0x3a2e	0.7725
91	0x3a18	0.7617
92	0x33d0	0.2441
93	0x37ae	0.48
94	0x36e7	0.4314
95	0x2824	0.03235

model/dense_4/BiasAdd/ReadVariableOp/resource f2 [128]
0	0xb753	-0.4578
1	0x303b	0.1322
2	0xb731	-0.4495
3	0xb42e	-0.2612
4	0xb561	-0.3362
5	0xa42e	-0.01633
6	0xb970	-0.6797
7	0xb5d2	-0.3638
8	0xba51	-0.7896
9	0xb497	-0.2869
10	0xb820	-0.5156
11	0xb534	-0.3252
12	0xb6ea	-0.4321
13	0xb5b8	-0.3574
14	0xb8f7	-0.6206
15	0xb18b	-0.1732
16	0xb84e	-0.538
17	0xb4d0	-0.3008
18	0xb856	-0.542
19	0xaebb	-0.10516
20	0x30f3	0.1547
21	0xb7cd	-0.4875
22	0xb725	-0.4465
23	0xb736	-0.4507
24	0xb4a5	-0.2903
25	0xb3a3	-0.2386
26	0xac9a	-0.0719
27	0xb506	-0.314
28	0xb64e	-0.394
29	0xb51f	-0.32
30	0xadff	-0.0937
31	0xb6e9	-0.432
32	0xb62c	-0.3857
33	0xba40	-0.7812
34	0xb7ee	-0.4956
35	0xb796	-0.474
36	0xb5e0	-0.3672
37	0xb535	-0.3254
38	0xb683	-0.407
39	0xb5d9	-0.3655
40	0xb717	-0.443
41	0xb46b	-0.2761
42	0xb221	-0.1915
43	0x20f3	0.00967
44	0xb2e1	-0.215
45	0xa2b3	-0.013084
46	0xb62a	-0.3853
47	0xb4e0	-0.3047
48	0xb6f8	-0.4355
49	0x2c6b	0.06903
50	0xb842	-0.532
51	0xb85d	-0.5454
52	0x29d8	0.04565
53	0xb833	-0.525
54	0xba98	-0.824
55	0xb5ff	-0.3748
56	0xb4eb	-0.3074
57	0xb6de	-0.4292
58	0xb069	-0.1378
59	0xb6fe	-0.437
60	0xb4ad	-0.2922
61	0xb6fe	-0.437
62	0xb4ca	-0.2993
63	0xb8b9	-0.5903
64	0xb953	-0.6655
65	0xb5b4	-0.3564
66	0xb3e9	-0.2472
67	0xb43e	-0.2651
68	0xb554	-0.333
69	0xaec1	-0.1055
70	0xb4c0	-0.2969
71	0xb173	-0.1703
72	0xb818	-0.5117
73	0xb7a9	-0.4788
74	0xb08e	-0.1423
75	0xb617	-0.3806
76	0xafcc	-0.1218
77	0xb7be	-0.484
78	0xb533	-0.325
79	0x3689	0.4084
80	0xacdd	-0.076
81	0xb217	-0.1903
82	0xaf12	-0.1105
83	0xb6aa	-0.4165
84	0xb47d	-0.2805
85	0xb2a3	-0.2074
86	0xb9cc	-0.7246
87	0xb868	-0.551
88	0xb486	-0.2827
89	0xb3cc	-0.2437
90	0xb645	-0.3918
91	0xb86a	-0.552
92	0xb5dd	-0.3665
93	0xb3f4	-0.2485
94	0xb73f	-0.453
95	0xb5ef	-0.3708
96	0x3862	0.548
97	0xb7d2	-0.4888
98	0x38a7	0.5815
99	0xb611	-0.3792
100	0xb878	-0.5586
101	0xbaea	-0.8643
102	0xb4a4	-0.29
103	0x2ee8	0.1079
104	0x3331	0.2247
105	0xb4c2	-0.2974
106	0xb6cf	-0.4255
107	0xb8ac	-0.584
108	0xb83a	-0.5283
109	0xb886	-0.5654
110	0xb170	-0.1699
111	0x21dd	0.01145
112	0xb84d	-0.5376
113	0xb912	-0.634
114	0xada1	-0.08795
115	0xb59b	-0.3503
116	0xb8b0	-0.586
117	0x24cd	0.01875
118	0xb85f	-0.5464
119	0xb5ee	-0.3706
120	0xb9a7	-0.7065
121	0xb7b8	-0.4824
122	0xb597	-0.3494
123	0xb847	-0.5347
124	0xb403	-0.2507
125	0xb586	-0.3452
126	0x3279	0.2023
127	0xb74a	-0.4556

model/dense_5/BiasAdd/ReadVariableOp/resource f2 [128]
0	0x3adb	0.857
1	0x3c05	1.005
2	0x3a7a	0.8096
3	0x358a	0.3462
4	0x3865	0.5493
5	0x39e4	0.7363
6	0x2a1e	0.0478
7	0x349a	0.2876
8	0x3a18	0.7617
9	0x38d7	0.605
10	0x32e0	0.2148
11	0xb4bd	-0.2961
12	0x369d	0.4133
13	0xa8a0	-0.03613
14	0xb5b5	-0.3567
15	0x38ba	0.591
16	0x9c9e	-0.00451
17	0x3658	0.3965
18	0x384a	0.536
19	0x3805	0.5024
20	0x3c91	1.142
21	0x33dc	0.2456
22	0x32f7	0.2177
23	0x3662	0.399
24	0x3809	0.5044
25	0x352a	0.3228
26	0x3047	0.1337
27	0x3bad	0.9595
28	0x3a07	0.7534
29	0x31ad	0.1774
30	0xb20d	-0.1891
31	0xa442	-0.01663
32	0x34e5	0.306
33	0x39e7	0.738
34	0xa2fa	-0.013626
35	0x3357	0.2294
36	0xb607	-0.3767
37	0x32a2	0.2073
38	0x3bf7	0.9956
39	0x3ac9	0.848
40	0x3d61	1.345
41	0xafa4	-0.1194
42	0x38b0	0.586
43	0xaf7b	-0.1169
44	0x361b	0.3816
45	0x35fc	0.374
46	0x3cf9	1.243
47	0x35bd	0.3586
48	0x3c92	1.143
49	0x3d13	1.269
50	0x39dd	0.733
51	0xb586	-0.3452
52	0x3c61	1.095
53	0x37dd	0.4915
54	0x2af6	0.05438
55	0x3995	0.6978
56	0xb830	-0.5234
57	0x308e	0.1423
58	0x366f	0.402
59	0xb3ae	-0.24
60	0x3323	0.223
61	0x32a2	0.2073
62	0x360e	0.3784
63	0x388b	0.568
64	0x3cde	1.217
65	0x35f5	0.3723
66	0xb825	-0.518
67	0x3001	0.1251
68	0xb290	-0.2051
69	0x33a4	0.2388
70	0x39fd	0.7485
71	0x2f82	0.1173
72	0xb6f4	-0.4346
73	0x394f	0.6636
74	0x3575	0.341
75	0x34fb	0.3113
76	0x2cf3	0.07733
77	0x38ee	0.616
78	0x3367	0.2313
79	0x35b4	0.3564
80	0x36be	0.4214
81	0xa08b	-0.00887
82	0x35c2	0.3599
83	0xb67a	-0.4048
84	0x2c35	0.06573
85	0x3850	0.539
86	0x3763	0.4617
87	0x3760	0.461
88	0x3238	0.1943
89	0x3a85	0.815
90	0x3c54	1.082
91	0x3b18	0.8867
92	0x345b	0.2722
93	0x3b75	0.932
94	0x35d7	0.365
95	0x3c12	1.018
96	0x3885	0.565
97	0x3ceb	1.2295
98	0x3daa	1.416
99	0x3b7d	0.936
100	0x38c9	0.598
101	0x2bf7	0.06223
102	0x32f0	0.2168
103	0x3a83	0.814
104	0x3ca2	1.158
105	0xb4f7	-0.3103
106	0xacfd	-0.07794
107	0xa4c2	-0.01859
108	0x370b	0.4402
109	0x36ad	0.4172
110	0x3aa9	0.8325
111	0x3956	0.667
112	0x342d	0.261
113	0x3917	0.636
114	0x39dd	0.733
115	0xaca6	-0.07263
116	0x378f	0.4724
117	0x3087	0.1415
118	0x398f	0.695
119	0x3b67	0.9253
120	0x385d	0.5454
121	0x3c3d	1.06
122	0xb2fb	-0.2181
123	0x3c53	1.081
124	0x3bcb	0.974
125	0x3b69	0.9263
126	0xb109	-0.1573
127	0x3adc	0.8574

model/dense_6/BiasAdd/ReadVariableOp/resource f2 [128]
0	0xb6e7	-0.4314
1	0xb66a	-0.401
2	0xb60c	-0.378
3	0xb5ec	-0.37
4	0xb84c	-0.537
5	0xb96b	-0.6772
6	0xb8e2	-0.6104
7	0xb809	-0.5044
8	0xb677	-0.404
9	0xb336	-0.2253
10	0xb6ff	-0.4373
11	0xb4b4	-0.294
12	0xb2c1	-0.211
13	0xb6fd	-0.4368
14	0xb469	-0.2756
15	0xaeec	-0.10815
16	0xb466	-0.275
17	0xb881	-0.563
18	0xb382	-0.2346
19	0x3363	0.2308
20	0xb6d9	-0.428
21	0xb7bc	-0.4834
22	0xb8bf	-0.5933
23	0xb882	-0.5635
24	0xaa5e	-0.04974
25	0xb849	-0.5356
26	0xba13	-0.7593
27	0xb82c	-0.5215
28	0xb85f	-0.5464
29	0xb0ef	-0.1542
30	0xb08b	-0.142
31	0xb534	-0.3252
32	0xb4dc	-0.3037
33	0xb4d7	-0.3025
34	0xa304	-0.0137
35	0xb658	-0.3965
36	0xb5d7	-0.365
37	0xb448	-0.2676
38	0xae88	-0.10205
39	0xb50a	-0.315
40	0xb761	-0.4612
41	0xb8b4	-0.588
42	0xb8a6	-0.581
43	0xb809	-0.5044
44	0xb2d8	-0.2139
45	0x357b	0.3425
46	0xb8db	-0.607
47	0xb935	-0.651
48	0xb511	-0.3167
49	0xb98f	-0.695
50	0xb3dc	-0.2456
51	0xb41c	-0.2568
52	0xb6c4	-0.4229
53	0xb8d1	-0.602
54	0xb563	-0.3367
55	0xb297	-0.2059
56	0xb89e	-0.577
57	0x2083	0.00881
58	0xaf0e	-0.1102
59	0xadf1	-0.09283
60	0xb5cb	-0.362
61	0xb4f3	-0.3093
62	0xb6a5	-0.4153
63	0xb8da	-0.6064
64	0xb5e2	-0.3677
65	0xb63c	-0.3896
66	0xb5ea	-0.3696
67	0xb60b	-0.3777
68	0xadf6	-0.09314
69	0xb91f	-0.64
70	0xb638	-0.3887
71	0x2ee4	0.10767
72	0xb532	-0.3247
73	0xb8de	-0.6084
74	0xb740	-0.4531
75	0x2baf	0.06003
76	0xb80e	-0.507
77	0xadaf	-0.0888
78	0xb4c2	-0.2974
79	0xb7c7	-0.486
80	0xb851	-0.5396
81	0xb873	-0.556
82	0x2aa0	0.05176
83	0xb238	-0.1943
84	0xaf3a	-0.1129
85	0xaa57	-0.04953
86	0xb749	-0.4553
87	0xb56f	-0.3396
88	0xbab5	-0.8384
89	0xb51e	-0.3198
90	0xb5b5	-0.3567
91	0xb80f	-0.5073
92	0xb692	-0.4106
93	0xb932	-0.6494
94	0xb3bb	-0.2416
95	0xb8d8	-0.6055
96	0x2cea	0.0768
97	0xb6fd	-0.4368
98	0xb14c	-0.1655
99	0xb846	-0.534
100	0xad49	-0.0826
101	0x3046	0.1335
102	0xb9de	-0.7334
103	0xb4e4	-0.3057
104	0xb930	-0.6484
105	0xb871	-0.555
106	0xb4a9	-0.2913
107	0x2d04	0.07837
108	0xae76	-0.10095
109	0x2e43	0.09784
110	0xb336	-0.2253
111	0xb94c	-0.662
112	0xb866	-0.55
113	0xb86e	-0.5537
114	0x9fd1	-0.007633
115	0xb61e	-0.3823
116	0xb688	-0.4082
117	0xb49d	-0.2883
118	0xb4f7	-0.3103
119	0xb920	-0.6406
120	0xb9d0	-0.7266
121	0xb78e	-0.4722
122	0xb544	-0.329
123	0xb5db	-0.366
124	0xb8a7	-0.5815
125	0xb5fc	-0.374
126	0x3404	0.251
127	0xb04b	-0.1342

model/dense_7/BiasAdd/ReadVariableOp/resource f2 [128]
0	0x2a45	0.04898
1	0xa7cf	-0.0305
2	0x3469	0.2756
3	0x33af	0.2401
4	0x2d62	0.0841
5	0x3a14	0.76
6	0xb1ea	-0.1848
7	0x362b	0.3855
8	0x36d2	0.4263
9	0x36aa	0.4165
10	0x2efe	0.10925
11	0xb210	-0.1895
12	0xb9f6	-0.745
13	0x3cf6	1.24
14	0x36a2	0.4146
15	0x37b9	0.4827
16	0x25b8	0.02234
17	0x2eea	0.10803
18	0x391d	0.639
19	0xb5cf	-0.363
20	0xae6f	-0.1005
21	0x354a	0.3306
22	0x1b4b	0.003561
23	0xb2bb	-0.2103
24	0x34f4	0.3096
25	0xaca6	-0.07263
26	0x32ac	0.2085
27	0x38ca	0.5986
28	0xb54b	-0.3308
29	0x3a67	0.8003
30	0x39e4	0.7363
31	0x3a32	0.7744
32	0xa98c	-0.04333
33	0x3646	0.392
34	0xb248	-0.1963
35	0x3a6c	0.8027
36	0xb710	-0.4414
37	0x38eb	0.6147
38	0x327e	0.2029
39	0x374e	0.4565
40	0xb876	-0.5576
41	0x36b4	0.419
42	0x330f	0.2206
43	0xb8fc	-0.623
44	0xaf4b	-0.11395
45	0x1db6	0.005577
46	0x3355	0.2291
47	0x3139	0.1632
48	0x35b0	0.3555
49	0xbbce	-0.9756
50	0xaccc	-0.07495
51	0xb664	-0.3994
52	0xaecf	-0.1064
53	0x38a6	0.581
54	0xa337	-0.01409
55	0xbb98	-0.949
56	0x2fa4	0.1194
57	0xb08c	-0.1421
58	0x34c3	0.2976
59	0x30a1	0.1447
60	0x3389	0.2355
61	0x30b1	0.1466
62	0x3e2f	1.546
63	0x3d0a	1.26
64	0x359b	0.3503
65	0xb8eb	-0.6147
66	0x274f	0.02855
67	0x35ca	0.3618
68	0x39db	0.732
69	0xada1	-0.08795
70	0x3b45	0.9087
71	0x3259	0.1984
72	0x23c7	0.01519
73	0x3d30	1.297
74	0x3565	0.3372
75	0xb0e4	-0.1528
76	0x3c9a	1.15
77	0x3aef	0.8667
78	0x32bd	0.2106
79	0xb667	-0.4001
80	0x9237	-0.0007586
81	0x3588	0.3457
82	0x3249	0.1964
83	0xa82d	-0.03262
84	0x3d2b	1.292
85	0xa5e3	-0.023
86	0x3aae	0.835
87	0x38ce	0.6006
88	0x382b	0.521
89	0xaa2e	-0.04828
90	0x3cd6	1.209
91	0xb7b0	-0.4805
92	0xbb43	-0.9077
93	0x2b5c	0.0575
94	0x9e21	-0.005985
95	0x3680	0.4062
96	0x3575	0.341
97	0xb03b	-0.1322
98	0x3840	0.5312
99	0x37cc	0.4873
100	0x3104	0.1567
101	0xa548	-0.02063
102	0x362b	0.3855
103	0x38da	0.6064
104	0x38d0	0.6016
105	0x38bc	0.592
106	0x2e09	0.0943
107	0x3171	0.17
108	0x3615	0.3801
109	0x3469	0.2756
110	0x2ddb	0.0915
111	0x34d4	0.3018
112	0x37fa	0.4985
113	0xb67b	-0.405
114	0x2ee9	0.108
115	0x37c4	0.4854
116	0x321b	0.1908
117	0x3c6b	1.1045
118	0x3c55	1.083
119	0x361e	0.3823
120	0x38b3	0.5874
121	0xb8f2	-0.618
122	0xac93	-0.0715
123	0x345d	0.2727
124	0x35ce	0.3628
125	0x291c	0.03992
126	0x2fe4	0.1233
127	0x3810	0.508

model/dense_8/BiasAdd/ReadVariableOp/resource f2 [96]
0	0xad5d	-0.0838
1	0xb73d	-0.4524
2	0xb3db	-0.2455
3	0xb6b4	-0.419
4	0xb574	-0.3408
5	0xb36e	-0.2322
6	0xb5c3	-0.36
7	0xb4e9	-0.307
8	0xb5f4	-0.372
9	0xb564	-0.337
10	0xb536	-0.3257
11	0xb441	-0.2659
12	0xb89c	-0.576
13	0xb64b	-0.3933
14	0xafa4	-0.1194
15	0xad8b	-0.0866
16	0xb0a2	-0.1448
17	0xb80b	-0.5054
18	0xb484	-0.2822
19	0xb535	-0.3254
20	0xb69d	-0.4133
21	0xb542	-0.3286
22	0x32fa	0.218
23	0xb8de	-0.6084
24	0xb2b6	-0.2097
25	0xb62d	-0.386
26	0xb063	-0.1371
27	0xb10b	-0.1576
28	0xb4a5	-0.2903
29	0xb31a	-0.2219
30	0x2847	0.03342
31	0xb4ac	-0.292
32	0xb53f	-0.328
33	0xb53d	-0.3274
34	0xaeb9	-0.10504
35	0xaae8	-0.05396
36	0xb514	-0.3174
37	0xb80d	-0.5063
38	0xacb6	-0.0736
39	0xa734	-0.02814
40	0xb54b	-0.3308
41	0xb459	-0.2717
42	0xb478	-0.2793
43	0xb463	-0.2742
44	0xb752	-0.4575
45	0xad67	-0.0844
46	0xb413	-0.2546
47	0xba37	-0.777
48	0xac2c	-0.0652
49	0xb42b	-0.2605
50	0xb6f7	-0.4353
51	0xb6b2	-0.4185
52	0xb736	-0.4507
53	0xb86b	-0.5522
54	0xaba8	-0.0598
55	0xb187	-0.1727
56	0xae74	-0.1008
57	0xad6c	-0.0847
58	0xb3a0	-0.2383
59	0x3050	0.1348
60	0xb827	-0.519
61	0x29ee	0.04633
62	0xb71f	-0.445
63	0xb4c3	-0.2976
64	0xb300	-0.2188
65	0xb6c0	-0.4219
66	0x2727	0.02794
67	0x97c3	-0.001895
68	0x28e1	0.03812
69	0xb681	-0.4065
70	0xb184	-0.1724
71	0xb562	-0.3364
72	0xb75a	-0.4595
73	0xb82d	-0.522
74	0x37d8	0.4902
75	0xb40a	-0.2524
76	0xb68c	-0.4092
77	0xb191	-0.174
78	0xb840	-0.5312
79	0xb55b	-0.3347
80	0xb10a	-0.1575
81	0x313f	0.164
82	0x3135	0.1627
83	0xb020	-0.1289
84	0xb089	-0.1417
85	0xb4b2	-0.2935
86	0xac51	-0.06744
87	0xb8ee	-0.616
88	0xb936	-0.6514
89	0xb661	-0.3987
90	0xb4c6	-0.2983
91	0xb65f	-0.3982
92	0xb515	-0.3176
93	0xb36d	-0.232
94	0xb11e	-0.1599
95	0xae84	-0.1018

model/dense_9/BiasAdd/ReadVariableOp/resource f2 [96]
0	0xb41e	-0.2573
1	0xb4da	-0.3032
2	0xb053	-0.1351
3	0xab17	-0.0554
4	0x3490	0.2852
5	0x2e9e	0.1034
6	0xb82b	-0.521
7	0x3653	0.3953
8	0xb4c8	-0.2988
9	0x328b	0.2045
10	0xab3c	-0.05652
11	0x2c2e	0.0653
12	0xb903	-0.6265
13	0x3774	0.4658
14	0x3a7e	0.8115
15	0xb6dc	-0.4287
16	0xb39f	-0.2382
17	0x24c4	0.01862
18	0x388e	0.5693
19	0xb701	-0.4377
20	0xb816	-0.5107
21	0x3309	0.2198
22	0xae0d	-0.09454
23	0x3665	0.3997
24	0xad0b	-0.0788
25	0xb91a	-0.6377
26	0x3418	0.2559
27	0xb952	-0.665
28	0xb670	-0.4023
29	0xb8f7	-0.6206
30	0x36c0	0.4219
31	0x2e48	0.09814
32	0x3743	0.4539
33	0x3521	0.3206
34	0xae79	-0.10114
35	0x3895	0.5728
36	0x3b27	0.894
37	0xb7e1	-0.4924
38	0x3632	0.3872
39	0x3c42	1.064
40	0x368b	0.409
41	0x3b78	0.9336
42	0xb111	-0.1583
43	0xacf6	-0.0775
44	0x3027	0.1298
45	0x36f6	0.435
46	0x394d	0.6626
47	0x3a24	0.7676
48	0x3928	0.6445
49	0x3388	0.2354
50	0xa511	-0.01979
51	0xb5cc	-0.3623
52	0x3558	0.334
53	0x2dde	0.0917
54	0x2a6a	0.0501
55	0x3a2e	0.7725
56	0x38b5	0.5884
57	0x2fd7	0.1225
58	0x2fa2	0.11926
59	0xb000	-0.125
60	0x2c94	0.07153
61	0x39f7	0.7456
62	0x3703	0.4382
63	0xb018	-0.1279
64	0x36a1	0.4143
65	0xb61c	-0.3818
66	0xb1ed	-0.1852
67	0x3a08	0.754
68	0xb2ee	-0.2166
69	0x3c66	1.1
70	0x316a	0.1692
71	0x39ca	0.7236
72	0x3825	0.518
73	0x380a	0.505
74	0xb4af	-0.2927
75	0x3cd8	1.211
76	0x36fe	0.437
77	0x38db	0.607
78	0xb4d1	-0.301
79	0xb4b6	-0.2944
80	0xae15	-0.09503
81	0x34ff	0.3123
82	0x33f2	0.2483
83	0x3823	0.517
84	0x3286	0.2039
85	0xb407	-0.2517
86	0xb128	-0.1611
87	0x90eb	-0.0006003
88	0x3222	0.1917
89	0xb4e0	-0.3047
90	0xb1a0	-0.1758
91	0xa082	-0.008804
92	0x2c9e	0.07214
93	0xb76d	-0.464
94	0xb037	-0.1317
95	0x38f4	0.619

model/depthwise_conv2d/BiasAdd/ReadVariableOp/resource f2 [16]
0	0x3bbc	0.967
1	0xa14d	-0.01035
2	0x9e86	-0.00637
3	0x3354	0.229
4	0x22d9	0.013374
5	0x42e3	3.443
6	0x415f	2.686
7	0xa589	-0.02162
8	0xa74f	-0.02855
9	0x390d	0.6313
10	0x2e5b	0.0993
11	0x3ded	1.481
12	0x3e4b	1.573
13	0x36c7	0.4236
14	0x3e4c	1.574
15	0x3834	0.5254

model/depthwise_conv2d_1/BiasAdd/ReadVariableOp/resource f2 [72]
0	0x26c7	0.02647
1	0xb2db	-0.2142
2	0x3fcc	1.949
3	0xa9bc	-0.0448
4	0x339d	0.2379
5	0x3b66	0.925
6	0xb016	-0.1277
7	0xa934	-0.04065
8	0x4378	3.734
9	0xb01d	-0.1285
10	0x35da	0.3657
11	0xb703	-0.4382
12	0x40a5	2.322
13	0x3c49	1.071
14	0xb04d	-0.1344
15	0xb001	-0.1251
16	0x3432	0.2622
17	0x4423	4.137
18	0xa285	-0.01273
19	0xad60	-0.084
20	0xb6b2	-0.4185
21	0x425f	3.186
22	0x3f28	1.789
23	0xb865	-0.5493
24	0x2e31	0.09674
25	0xb90e	-0.632
26	0xb342	-0.2268
27	0xb2d2	-0.2131
28	0x3f87	1.882
29	0x2c16	0.06384
30	0xacc4	-0.07446
31	0x2dd3	0.091
32	0x3ec3	1.69
33	0xb609	-0.3772
34	0xac31	-0.0655
35	0xb43e	-0.2651
36	0x3fd2	1.955
37	0x2cda	0.0758
38	0x38af	0.5854
39	0x41ad	2.838
40	0x29fd	0.04678
41	0xb470	-0.2773
42	0xaf86	-0.11755
43	0x3044	0.1333
44	0x33a5	0.2389
45	0x3089	0.1417
46	0xacf1	-0.0772
47	0xaa70	-0.0503
48	0x40d9	2.424
49	0xbc58	-1.086
50	0x296a	0.0423
51	0xa867	-0.0344
52	0xaa04	-0.047
53	0xa5c8	-0.02258
54	0x34c9	0.299
55	0xab8f	-0.05905
56	0xaca5	-0.0726
57	0xb5b5	-0.3567
58	0xae6b	-0.1003
59	0x9de2	-0.005745
60	0xa070	-0.00867
61	0x2c1f	0.0644
62	0xb45f	-0.2732
63	0x2c88	0.0708
64	0x9a9a	-0.003223
65	0xb4c5	-0.298
66	0xaf5d	-0.11505
67	0x43d5	3.916
68	0xaa58	-0.04956
69	0x4126	2.574
70	0xaad0	-0.05322
71	0x2c92	0.0714

model/depthwise_conv2d_10/BiasAdd/ReadVariableOp/resource f2 [16]
0	0xbf0b	-1.761
1	0xb0ad	-0.1461
2	0xbd88	-1.383
3	0x3217	0.1903
4	0xb103	-0.1566
5	0xc09f	-2.31
6	0xb487	-0.283
7	0xb80b	-0.5054
8	0xb4a1	-0.2893
9	0xcc43	-17.05
10	0xbfb0	-1.922
11	0xbd05	-1.255
12	0x35c9	0.3616
13	0xb1b2	-0.178
14	0xba21	-0.766
15	0xb131	-0.1622

model/depthwise_conv2d_2/BiasAdd/ReadVariableOp/resource f2 [88]
0	0x1bd6	0.003826
1	0x3e22	1.533
2	0xb548	-0.33
3	0xb813	-0.5093
4	0x2d40	0.08203
5	0x1ca1	0.00452
6	0xb266	-0.2
7	0x3ea7	1.663
8	0xb8ba	-0.591
9	0x3ce3	1.222
10	0x410c	2.523
11	0x3a4f	0.7886
12	0x29a8	0.0442
13	0x3f8b	1.886
14	0x3752	0.4575
15	0x288d	0.03555
16	0xb5b8	-0.3574
17	0xaad1	-0.05325
18	0xb04b	-0.1342
19	0xa47e	-0.01755
20	0xb30e	-0.2205
21	0xbf53	-1.831
22	0xb9e3	-0.736
23	0x3661	0.3987
24	0xb9d7	-0.73
25	0x3e44	1.566
26	0x4117	2.545
27	0x2af8	0.05444
28	0x40c9	2.393
29	0x382f	0.523
30	0x3fe7	1.976
31	0xb7ae	-0.48
32	0xad8c	-0.0867
33	0x3c92	1.143
34	0xba31	-0.774
35	0x3c9e	1.154
36	0xb8d0	-0.6016
37	0xa595	-0.0218
38	0xb48b	-0.284
39	0x21be	0.011215
40	0x3ddf	1.468
41	0xafc9	-0.12164
42	0x9293	-0.0008025
43	0x2721	0.02785
44	0xb29b	-0.2064
45	0x3b97	0.9487
46	0x408f	2.28
47	0x2d64	0.0842
48	0xb8c8	-0.5977
49	0xc682	-6.508
50	0xbf4b	-1.823
51	0xb494	-0.2861
52	0x3c56	1.084
53	0xbbec	-0.99
54	0x3969	0.6763
55	0x9fa2	-0.007454
56	0xc05d	-2.182
57	0xad17	-0.0795
58	0xb902	-0.626
59	0xb920	-0.6406
60	0x9dc2	-0.005623
61	0x2ff1	0.1241
62	0xbd71	-1.36
63	0x40e6	2.45
64	0x406e	2.215
65	0x2fd6	0.12244
66	0x3d9b	1.401
67	0x2fe3	0.1232
68	0x3f8a	1.885
69	0xb952	-0.665
70	0xa8e9	-0.03836
71	0x2f88	0.1177
72	0x2bf3	0.0621
73	0x39ee	0.741
74	0xa8a7	-0.03635
75	0x3cc5	1.192
76	0xb7aa	-0.479
77	0xadc0	-0.08984
78	0x3012	0.1272
79	0x3c8b	1.136
80	0xae22	-0.0958
81	0x3fc3	1.94
82	0x2dc4	0.0901
83	0x3df2	1.486
84	0xb878	-0.5586
85	0x316b	0.1693
86	0xa74a	-0.02847
87	0x4259	3.174

model/depthwise_conv2d_8/BiasAdd/ReadVariableOp/resource f2 [24]
0	0x2f6d	0.116
1	0xb992	-0.6963
2	0x25c8	0.02258
3	0xb584	-0.3447
4	0x3a8a	0.8174
5	0x259e	0.02194
6	0xbc0f	-1.015
7	0xbbeb	-0.9897
8	0xbb40	-0.9062
9	0xb38a	-0.2356
10	0xbb21	-0.891
11	0xbabc	-0.842
12	0xb43b	-0.2644
13	0xb865	-0.5493
14	0xa703	-0.02739
15	0xbb0e	-0.882
16	0xb64e	-0.394
17	0x2084	0.00882
18	0x3280	0.2031
19	0xb0ad	-0.1461
20	0xb7fb	-0.4988
21	0xb895	-0.5728
22	0xbb3d	-0.905
23	0xbab5	-0.8384

model/depthwise_conv2d_9/BiasAdd/ReadVariableOp/resource f2 [16]
0	0xb8f7	-0.6206
1	0xb642	-0.391
2	0xb121	-0.1603
3	0xb5c1	-0.3596
4	0x3122	0.1604
5	0xb3b5	-0.2408
6	0x2db2	0.089
7	0xb7b4	-0.4814
8	0x30e0	0.1523
9	0xbb64	-0.924
10	0xb892	-0.5713
11	0xb4b0	-0.293
12	0xbd58	-1.336
13	0xaf4d	-0.1141
14	0xadf4	-0.093
15	0x2841	0.03323

model/dense/Tensordot/MatMul f2 [16, 16]
0	0xb89b	-0.5757
1	0x3023	0.1293
2	0x33d1	0.2443
3	0x3494	0.2861
4	0xab46	-0.05682
5	0x30e0	0.1523
6	0xbc83	-1.128
7	0xb8d8	-0.6055
8	0xaf0a	-0.11
9	0x39d6	0.7295
10	0x295a	0.0418
11	0x361f	0.3826
12	0xa9d2	-0.04547
13	0xa853	-0.03378
14	0x3c48	1.07
15	0x300b	0.1263
16	0xb8e0	-0.6094
17	0xb564	-0.337
18	0xad16	-0.07947
19	0x9de0	-0.005737
20	0xadeb	-0.09247
21	0xb3fb	-0.2494
22	0x9e47	-0.00613
23	0xb697	-0.4119
24	0xb419	-0.256
25	0xa51e	-0.01999
26	0x280f	0.0317
27	0x2c2b	0.0651
28	0xb37c	-0.2339
29	0xb824	-0.5176
30	0xb86d	-0.553
31	0x358d	0.347
32	0xb71f	-0.445
33	0xb654	-0.3955
34	0x3095	0.1432
35	0xb52d	-0.3235
36	0xb5b2	-0.356
37	0x3155	0.1666
38	0xb2ac	-0.2085
39	0xa4fb	-0.01945
40	0xab8a	-0.0589
41	0xb74d	-0.4563
42	0x33da	0.2454
43	0x320d	0.1891
44	0xb443	-0.2664
45	0xb5f2	-0.3716
46	0xb5d8	-0.3652
47	0xb057	-0.1356
48	0xb48f	-0.285
49	0x2bf3	0.0621
50	0x344a	0.268
51	0x2178	0.01068
52	0x366b	0.4011
53	0x3abd	0.8423
54	0x2a9d	0.05167
55	0xb1aa	-0.177
56	0x35d8	0.3652
57	0xb286	-0.2039
58	0xb885	-0.565
59	0xb67e	-0.4058
60	0x3702	0.438
61	0x2cb2	0.07336
62	0x2f3f	0.1132
63	0xab09	-0.05496
64	0xb6c2	-0.4224
65	0x1f5f	0.0072
66	0xb69c	-0.413
67	0xb5f6	-0.3726
68	0xb4bc	-0.296
69	0xb109	-0.1573
70	0xb356	-0.2292
71	0xb2b7	-0.2098
72	0xb85d	-0.5454
73	0x2e37	0.0971
74	0xb34d	-0.2281
75	0x3176	0.1707
76	0xb5d6	-0.3647
77	0xb04a	-0.134
78	0x2c7b	0.07
79	0x34fb	0.3113
80	0x35c5	0.3606
81	0x2a34	0.04846
82	0x3bf0	0.992
83	0xb8bf	-0.5933
84	0x32d3	0.2133
85	0xb16d	-0.1696
86	0x37d9	0.4905
87	0x2fb7	0.12054
88	0x2fd5	0.1224
89	0xb7c2	-0.4849
90	0x316a	0.1692
91	0xb903	-0.6265
92	0xb286	-0.2039
93	0xb037	-0.1317
94	0x3b7d	0.936
95	0xb601	-0.3752
96	0x3b42	0.907
97	0xb01d	-0.1285
98	0xacb3	-0.0734
99	0xb58b	-0.3464
100	0x347d	0.2805
101	0x337c	0.2339
102	0x2e0b	0.0944
103	0x38c2	0.5947
104	0xb983	-0.689
105	0xbb7a	-0.9346
106	0x34be	0.2964
107	0xb762	-0.4614
108	0x385c	0.545
109	0xb635	-0.388
110	0xb23b	-0.1947
111	0xb327	-0.2235
112	0x3046	0.1335
113	0xb614	-0.38
114	0xb640	-0.3906
115	0xafb0	-0.1201
116	0x340e	0.2534
117	0x2aaf	0.05222
118	0xb80b	-0.5054
119	0x313d	0.1637
120	0x3260	0.1992
121	0xb2e0	-0.2148
122	0xaa38	-0.04858
123	0xa3f1	-0.01551
124	0x2fa9	0.1197
125	0xb69c	-0.413
126	0xb5be	-0.359
127	0xb3db	-0.2455
128	0xbbe7	-0.988
129	0x3c69	1.103
130	0x3852	0.54
131	0x35d4	0.3643
132	0x36b6	0.4194
133	0xb18c	-0.1733
134	0x392d	0.647
135	0x3881	0.563
136	0x3c49	1.071
137	0xba36	-0.7764
138	0x32f6	0.2175
139	0xb8e7	-0.613
140	0xb7f4	-0.497
141	0x37af	0.4802
142	0xb401	-0.2502
143	0x388b	0.568
144	0x2ebf	0.1054
145	0xb318	-0.2217
146	0xb5eb	-0.3699
147	0x3036	0.1316
148	0x34a6	0.2905
149	0xb366	-0.2312
150	0xb56a	-0.3384
151	0x1e6e	0.00628
152	0xac7c	-0.07007
153	0xb47e	-0.2808
154	0xb079	-0.1398
155	0x3290	0.2051
156	0xb203	-0.1879
157	0xb3d1	-0.2443
158	0xb691	-0.4104
159	0xb6cb	-0.4246
160	0x1291	0.0008016
161	0xb008	-0.126
162	0x34e6	0.3062
163	0x34a3	0.2898
164	0xadd7	-0.09125
165	0xa4e3	-0.01909
166	0xb4a7	-0.2908
167	0xb99e	-0.702
168	0x329d	0.2067
169	0xb308	-0.2197
170	0x3715	0.4426
171	0xba0e	-0.757
172	0x393c	0.6543
173	0x3071	0.1388
174	0x2827	0.03244
175	0x33c8	0.2432
176	0xb4d6	-0.3022
177	0xb292	-0.2053
178	0xb43a	-0.2642
179	0x35d9	0.3655
180	0x3453	0.2703
181	0xb0f8	-0.1553
182	0xb6cd	-0.425
183	0xa19c	-0.010956
184	0xb361	-0.2306
185	0xb110	-0.1582
186	0x31fb	0.1869
187	0xb511	-0.3167
188	0xb135	-0.1627
189	0x2ceb	0.07684
190	0xabf5	-0.06216
191	0xb680	-0.4062
192	0xb5e5	-0.3684
193	0x35fc	0.374
194	0xa888	-0.0354
195	0xb605	-0.3762
196	0xb290	-0.2051
197	0xacc6	-0.0746
198	0xb6f1	-0.4338
199	0xb41f	-0.2576
200	0xb378	-0.2334
201	0xb638	-0.3887
202	0xb61c	-0.3818
203	0xa41c	-0.01605
204	0x2fce	0.12195
205	0xb3ce	-0.2439
206	0xb590	-0.3477
207	0x2135	0.01017
208	0xb5c6	-0.3608
209	0xb13d	-0.1637
210	0xb391	-0.2365
211	0xafa8	-0.1196
212	0x3473	0.278
213	0xb7a9	-0.4788
214	0xb4e5	-0.306
215	0xb0f9	-0.1554
216	0xb5dc	-0.3662
217	0xb02f	-0.1307
218	0x2c5b	0.06805
219	0xb510	-0.3164
220	0x310f	0.1581
221	0x3314	0.2212
222	0x34ec	0.3076
223	0xb457	-0.2712
224	0x3c66	1.1
225	0xba70	-0.8047
226	0x327f	0.203
227	0xb99a	-0.7
228	0x34f9	0.3108
229	0x3675	0.4036
230	0xaede	-0.1073
231	0xbb3c	-0.9043
232	0xbc28	-1.039
233	0xb422	-0.2583
234	0x3042	0.133
235	0x381b	0.513
236	0x35b1	0.3557
237	0xb803	-0.5015
238	0xaff5	-0.1243
239	0xb71b	-0.444
240	0xb6d8	-0.4277
241	0xb08e	-0.1423
242	0x308e	0.1423
243	0xb8b1	-0.5864
244	0xb856	-0.542
245	0xb916	-0.6357
246	0xb7c7	-0.486
247	0xb61a	-0.3813
248	0xb933	-0.65
249	0xa4ac	-0.01825
250	0xb9e9	-0.739
251	0xaf29	-0.1119
252	0xb8a8	-0.582
253	0xabba	-0.06036
254	0xb379	-0.2335
255	0x2982	0.04303

model/dense_1/Tensordot/MatMul f2 [16, 16]
0	0xac7a	-0.06995
1	0x388c	0.5684
2	0x35e7	0.369
3	0x2dfa	0.0934
4	0xb69c	-0.413
5	0x2de7	0.0922
6	0x2e68	0.1001
7	0x2ff7	0.12445
8	0xb347	-0.2274
9	0xa849	-0.03348
10	0x2b37	0.05637
11	0x3498	0.287
12	0x3236	0.1941
13	0xb3d1	-0.2443
14	0x37f4	0.497
15	0x32aa	0.2083
16	0xb43a	-0.2642
17	0xadc7	-0.0903
18	0xb502	-0.313
19	0xaf5c	-0.115
20	0x325c	0.1987
21	0x24f0	0.01929
22	0x3215	0.1901
23	0x1cb0	0.004578
24	0xb154	-0.1665
25	0x3632	0.3872
26	0x35fb	0.3738
27	0xb54b	-0.3308
28	0xa066	-0.00859
29	0x33cd	0.2438
30	0x349f	0.2888
31	0xab7b	-0.05844
32	0xbd06	-1.256
33	0x36d9	0.428
34	0xb0ae	-0.1462
35	0xb2fe	-0.2185
36	0x33f3	0.2484
37	0xb9ca	-0.7236
38	0xa92c	-0.0404
39	0x358c	0.3467
40	0xafad	-0.11993
41	0xb3c9	-0.2433
42	0xb4cd	-0.3
43	0xb520	-0.3203
44	0x2dc0	0.08984
45	0x29d8	0.04565
46	0x34c3	0.2976
47	0xabcb	-0.06088
48	0xb4c2	-0.2974
49	0xa9e7	-0.0461
50	0xb1c2	-0.1799
51	0x2c45	0.0667
52	0x3900	0.625
53	0x3313	0.2211
54	0x34c0	0.2969
55	0x360f	0.3787
56	0xb7e2	-0.4927
57	0x3328	0.2236
58	0x2844	0.03333
59	0xad46	-0.0824
60	0xb1d9	-0.1827
61	0xae97	-0.10297
62	0x38ca	0.5986
63	0x34c4	0.2979
64	0x3023	0.1293
65	0x3101	0.1564
66	0xb2c4	-0.2114
67	0x3780	0.4688
68	0x3124	0.1606
69	0xb42c	-0.2607
70	0xa1f4	-0.01163
71	0x28cd	0.0375
72	0x34df	0.3044
73	0xb62b	-0.3855
74	0x33b7	0.2411
75	0x32ab	0.2084
76	0x34fd	0.3118
77	0xac34	-0.0657
78	0x34eb	0.3074
79	0x3840	0.5312
80	0xb446	-0.267
81	0x32f8	0.2178
82	0xb411	-0.2542
83	0xb8cc	-0.5996
84	0xb0fc	-0.1558
85	0x3740	0.4531
86	0x336c	0.2319
87	0xaa81	-0.0508
88	0xb83f	-0.531
89	0xb53e	-0.3276
90	0x3162	0.1682
91	0xb747	-0.4548
92	0x2551	0.02077
93	0x31bc	0.1792
94	0x3466	0.275
95	0xa6ab	-0.02605
96	0x3cbf	1.187
97	0x3064	0.1372
98	0xb383	-0.2347
99	0xb4b6	-0.2944
100	0xb65b	-0.3972
101	0xbd01	-1.251
102	0x30ee	0.154
103	0x209a	0.00899
104	0xbdea	-1.479
105	0xb024	-0.1294
106	0x2d8f	0.08685
107	0x361a	0.3813
108	0xb6e6	-0.4312
109	0xb06f	-0.1385
110	0xb6bd	-0.4211
111	0xabe5	-0.06168
112	0x2ce8	0.07666
113	0x356b	0.3386
114	0x2f78	0.1167
115	0x37fc	0.499
116	0x210b	0.00985
117	0xb6b9	-0.4202
118	0x2f92	0.1183
119	0xb117	-0.159
120	0xb5bd	-0.3586
121	0x1712	0.001726
122	0x39b4	0.713
123	0x367f	0.406
124	0xb432	-0.2622
125	0x30a5	0.1451
126	0xae8d	-0.10236
127	0xb93c	-0.6543
128	0xb01e	-0.1287
129	0x3810	0.508
130	0xb24c	-0.1968
131	0xb370	-0.2324
132	0xaf82	-0.1173
133	0x37e7	0.494
134	0x372e	0.4487
135	0xad8a	-0.08655
136	0xb858	-0.543
137	0x3127	0.161
138	0xb574	-0.3408
139	0xa6fd	-0.0273
140	0xaf35	-0.1126
141	0x355c	0.335
142	0x35b5	0.3567
143	0xafd1	-0.12213
144	0xb63d	-0.39
145	0x9d6e	-0.005302
146	0xb113	-0.1586
147	0x340e	0.2534
148	0x9d09	-0.004917
149	0x10fe	0.0006094
150	0x361d	0.382
151	0x34a7	0.2908
152	0xb487	-0.283
153	0x35a1	0.3518
154	0x357c	0.3428
155	0x2df7	0.0932
156	0xaeff	-0.1093
157	0x99ec	-0.002892
158	0x363d	0.39
159	0xb46c	-0.2764
160	0xb343	-0.2269
161	0x32f8	0.2178
162	0x3520	0.3203
163	0x37cb	0.487
164	0x2554	0.02081
165	0x33a2	0.2385
166	0x3258	0.1982
167	0xb268	-0.2002
168	0xb7c5	-0.4856
169	0x25b1	0.02223
170	0xb397	-0.2372
171	0x2eda	0.10706
172	0xb56a	-0.3384
173	0xadde	-0.0917
174	0x34bf	0.2966
175	0x2ed8	0.10693
176	0x388b	0.568
177	0xb427	-0.2595
178	0xb349	-0.2277
179	0x3811	0.5083
180	0x1c2d	0.004078
181	0xb90b	-0.6304
182	0x347b	0.28
183	0x2e41	0.0977
184	0xbaa7	-0.8315
185	0xaf68	-0.1157
186	0x3c55	1.083
187	0x2f2f	0.11224
188	0x285f	0.03415
189	0xb462	-0.274
190	0x2b5c	0.0575
191	0xb212	-0.1897
192	0xb612	-0.3794
193	0x2737	0.02818
194	0xad69	-0.08453
195	0xafd2	-0.1222
196	0x37a7	0.4783
197	0x3538	0.3262
198	0xb493	-0.286
199	0xb51f	-0.32
200	0x27f1	0.03102
201	0x2adb	0.05356
202	0xa919	-0.03983
203	0xb2a7	-0.2079
204	0x3412	0.2544
205	0xb00f	-0.1268
206	0x380a	0.505
207	0xb1dd	-0.1832
208	0xb314	-0.2212
209	0xaccc	-0.07495
210	0x306c	0.1382
211	0xae76	-0.10095
212	0x9f75	-0.007282
213	0x3550	0.332
214	0x364a	0.393
215	0x37c2	0.4849
216	0xb72d	-0.4485
217	0xb0a4	-0.145
218	0xb07e	-0.1404
219	0x31c2	0.1799
220	0xb243	-0.1957
221	0x28a7	0.03635
222	0x3419	0.256
223	0x2d65	0.0843
224	0xb97f	-0.687
225	0x2420	0.01611
226	0xb13e	-0.1638
227	0xa8e3	-0.03818
228	0xb019	-0.128
229	0x3457	0.2712
230	0x3311	0.2208
231	0x31c6	0.1804
232	0x3b0b	0.8804
233	0x27be	0.03024
234	0x34df	0.3044
235	0x35f7	0.3728
236	0xb460	-0.2734
237	0xb473	-0.278
238	0x307c	0.1401
239	0xb179	-0.171
240	0xb335	-0.2252
241	0xb1a6	-0.1765
242	0x33b9	0.2413
243	0x2824	0.03235
244	0xad21	-0.08014
245	0x352e	0.3237
246	0x34cb	0.2996
247	0xb28f	-0.205
248	0xb78d	-0.472
249	0x35d2	0.3638
250	0xaf00	-0.1094
251	0xb44b	-0.2683
252	0xad61	-0.08405
253	0xb3ff	-0.2499
254	0x355d	0.3352
255	0x3287	0.204

model/dense_10/Tensordot/MatMul f2 [72, 72]
0	0xac3c	-0.06616
1	0x2c3c	0.06616
2	0x2a5e	0.04974
3	0x31a8	0.1768
4	0xb16f	-0.1698
5	0xb18a	-0.1731
6	0x2857	0.0339
7	0xb4e7	-0.3064
8	0xa7a5	-0.02986
9	0x981e	-0.00201
10	0xa5b0	-0.02222
11	0xb1a7	-0.1766
12	0x2ee9	0.108
13	0xb39a	-0.2375
14	0x2700	0.02734
15	0x2ad4	0.05334
16	0xa843	-0.0333
17	0xb46f	-0.277
18	0xb356	-0.2292
19	0xb083	-0.141
20	0xb495	-0.2864
21	0xb3b8	-0.2412
22	0xb497	-0.2869
23	0x28a5	0.0363
24	0xad79	-0.0855
25	0xb15a	-0.1672
26	0xb3af	-0.2401
27	0xb474	-0.2783
28	0xa917	-0.03976
29	0xb128	-0.1611
30	0x229b	0.0129
31	0x30bc	0.148
32	0xb012	-0.1272
33	0xb32c	-0.2241
34	0xb09c	-0.144
35	0xa579	-0.02138
36	0x2d84	0.0862
37	0x2cda	0.0758
38	0xb0d8	-0.1514
39	0xb27c	-0.2026
40	0xafb6	-0.1205
41	0x2e3b	0.09735
42	0xb1dd	-0.1832
43	0x2ef8	0.1089
44	0x3049	0.1339
45	0xaea3	-0.1037
46	0xa8c6	-0.0373
47	0x2f14	0.1106
48	0xb103	-0.1566
49	0x22fe	0.01366
50	0x2b8a	0.0589
51	0xac91	-0.07135
52	0xae7f	-0.1015
53	0xaf68	-0.1157
54	0x9577	-0.001334
55	0xb08e	-0.1423
56	0xb333	-0.225
57	0xb4d6	-0.3022
58	0xaf54	-0.1145
59	0xac55	-0.0677
60	0xb251	-0.1974
61	0x301b	0.1283
62	0x2d64	0.0842
63	0xad27	-0.0805
64	0xb274	-0.2017
65	0xb413	-0.2546
66	0xa947	-0.04123
67	0x2f0b	0.11005
68	0x23e0	0.01538
69	0xb163	-0.1683
70	0xa5a5	-0.02205
71	0xae5d	-0.0994
72	0x3ed7	1.71
73	0x39dc	0.7324
74	0xb93d	-0.655
75	0x384c	0.537
76	0x31b8	0.1787
77	0x353e	0.3276
78	0xafa3	-0.1193
79	0x9872	-0.00217
80	0xb811	-0.5083
81	0xb435	-0.263
82	0x318b	0.1732
83	0xb05e	-0.1365
84	0xb83e	-0.5303
85	0xb633	-0.3875
86	0xb31a	-0.2219
87	0xb5b6	-0.357
88	0xb291	-0.2052
89	0xb789	-0.471
90	0xb558	-0.334
91	0x2d79	0.0855
92	0xb3f6	-0.2488
93	0xb4b5	-0.2942
94	0xb541	-0.3284
95	0xba0a	-0.755
96	0xafc8	-0.1216
97	0xb665	-0.3997
98	0xb942	-0.657
99	0x3a84	0.8145
100	0xa5c7	-0.02257
101	0x25f8	0.02332
102	0xb94d	-0.6626
103	0x2db9	0.0894
104	0x3853	0.5405
105	0xb45d	-0.2727
106	0xbc2a	-1.041
107	0x328b	0.2045
108	0xaa3a	-0.04865
109	0xbd88	-1.383
110	0x3abf	0.8433
111	0x28fa	0.03888
112	0x332e	0.2244
113	0xb611	-0.3792
114	0xb4ca	-0.2993
115	0xb880	-0.5625
116	0x3c13	1.019
117	0x37c8	0.4863
118	0x3c85	1.13
119	0x3c94	1.145
120	0xb624	-0.3838
121	0xb12a	-0.1614
122	0xb498	-0.287
123	0xbc91	-1.142
124	0xb129	-0.1613
125	0xb9f0	-0.742
126	0x3810	0.508
127	0x3a38	0.7773
128	0x3123	0.1605
129	0xb877	-0.558
130	0xacbf	-0.07416
131	0xb4de	-0.3042
132	0x3b9d	0.9517
133	0x36c6	0.4233
134	0xb268	-0.2002
135	0xbddc	-1.465
136	0xb7e9	-0.4944
137	0x39b9	0.7153
138	0x3514	0.3174
139	0x35c0	0.3594
140	0x330c	0.2202
141	0xbaff	-0.8745
142	0x2b59	0.0574
143	0xb356	-0.2292
144	0xb6e6	-0.4312
145	0xb98a	-0.6924
146	0xb919	-0.637
147	0x3321	0.2228
148	0x3748	0.455
149	0x39d2	0.7275
150	0x2fd8	0.12256
151	0x364e	0.394
152	0x3a1b	0.763
153	0xaf3b	-0.113
154	0x3748	0.455
155	0x30ef	0.1542
156	0xc180	-2.75
157	0x3afd	0.8735
158	0xaf6f	-0.11615
159	0xb668	-0.4004
160	0x35c9	0.3616
161	0x3529	0.3225
162	0xbb6c	-0.9277
163	0x3640	0.3906
164	0x3530	0.3242
165	0xb082	-0.1409
166	0xb10d	-0.1578
167	0x2b29	0.05594
168	0xb84a	-0.536
169	0x30ba	0.1477
170	0xb2e7	-0.2157
171	0xbb6c	-0.9277
172	0xb916	-0.6357
173	0xba66	-0.8
174	0xb9cb	-0.724
175	0xb293	-0.2054
176	0xb12a	-0.1614
177	0xbddf	-1.468
178	0xb3c5	-0.2428
179	0x37d7	0.49
180	0x3aef	0.8667
181	0xaeed	-0.1082
182	0x396b	0.6772
183	0xbe8e	-1.639
184	0x325d	0.1989
185	0xbeb0	-1.672
186	0x282e	0.03265
187	0x2eea	0.10803
188	0xb0d7	-0.1512
189	0xac1a	-0.0641
190	0xbbb2	-0.962
191	0x347f	0.281
192	0xb65d	-0.3977
193	0x3539	0.3264
194	0xb4e7	-0.3064
195	0xb96f	-0.679
196	0xb9c6	-0.7217
197	0xb68f	-0.41
198	0xba8e	-0.8193
199	0x3848	0.535
200	0xb41c	-0.2568
201	0x3880	0.5625
202	0xadba	-0.0895
203	0x39e4	0.7363
204	0xb9c0	-0.7188
205	0xba43	-0.7827
206	0x2ccd	0.075
207	0xb1b4	-0.1782
208	0xc041	-2.127
209	0xb06e	-0.1384
210	0xac6a	-0.069
211	0x3c16	1.021
212	0xbcd2	-1.205
213	0xb522	-0.3208
214	0x3436	0.2632
215	0x339a	0.2375
216	0x2c2f	0.06537
217	0x2fdb	0.12274
218	0x2cab	0.07294
219	0x2e96	0.1029
220	0x25af	0.0222
221	0xaf2b	-0.112
222	0xad7d	-0.08575
223	0x2df5	0.0931
224	0xb0e9	-0.1534
225	0x2e14	0.095
226	0xb036	-0.1316
227	0xb4c0	-0.2969
228	0xa9c6	-0.0451
229	0x2059	0.00849
230	0xb134	-0.1626
231	0xb099	-0.1437
232	0x2410	0.01587
233	0x1e5c	0.00621
234	0xb410	-0.254
235	0xa5a8	-0.0221
236	0xb4bf	-0.2966
237	0xb36b	-0.2318
238	0xae2d	-0.0965
239	0x1920	0.002502
240	0xb0dc	-0.1519
241	0xac7e	-0.0702
242	0xb034	-0.1313
243	0xad47	-0.08246
244	0x2aaf	0.05222
245	0xadf1	-0.09283
246	0xaeb6	-0.10486
247	0x2f05	0.1097
248	0xaed2	-0.10657
249	0xaac0	-0.05273
250	0xa996	-0.04364
251	0x24cf	0.01878
252	0x2dd0	0.0908
253	0x2ad0	0.05322
254	0xb33f	-0.2264
255	0xb23f	-0.1952

model/dense_11/Tensordot/MatMul f2 [72, 72]
0	0x2dfe	0.0936
1	0x36e8	0.4316
2	0xb7f8	-0.498
3	0xb046	-0.1335
4	0x3235	0.194
5	0x3514	0.3174
6	0xb39f	-0.2382
7	0xb834	-0.5254
8	0xbed2	-1.705
9	0xaef5	-0.1087
10	0x3813	0.5093
11	0xb46c	-0.2764
12	0x3771	0.465
13	0xb257	-0.1981
14	0x377e	0.4683
15	0xae9b	-0.1032
16	0x3254	0.1978
17	0x304e	0.1345
18	0xb997	-0.6987
19	0xac8c	-0.07104
20	0x30b7	0.1473
21	0x268f	0.02562
22	0xb49c	-0.288
23	0xb0ec	-0.1538
24	0x3882	0.5635
25	0xb9ae	-0.71
26	0x326e	0.2009
27	0xb4a9	-0.2913
28	0x3950	0.664
29	0xb29a	-0.2063
30	0x3200	0.1875
31	0xbce4	-1.223
32	0x316d	0.1696
33	0xaa8f	-0.05124
34	0x2ada	0.05353
35	0xb54a	-0.3306
36	0xa989	-0.04324
37	0xb931	-0.649
38	0x291f	0.04
39	0xbd00	-1.25
40	0xb842	-0.532
41	0x2802	0.0313
42	0x2c7b	0.07
43	0xbc2e	-1.045
44	0xbc58	-1.086
45	0x1dee	0.00579
46	0x3072	0.1389
47	0x2690	0.02563
48	0x230b	0.013756
49	0x36d0	0.4258
50	0xb0ef	-0.1542
51	0x374d	0.4563
52	0xb413	-0.2546
53	0x31dd	0.1832
54	0x37ac	0.4795
55	0xbe3d	-1.56
56	0xb341	-0.2267
57	0xbbed	-0.9907
58	0xb441	-0.2659
59	0x2e0c	0.0945
60	0x2ba0	0.05957
61	0x35ae	0.355
62	0xbbf1	-0.9927
63	0xb406	-0.2515
64	0x365b	0.3972
65	0x3314	0.2212
66	0x39e6	0.7373
67	0xb3cb	-0.2435
68	0xb18e	-0.1736
69	0x2f13	0.11053
70	0xbcbe	-1.186
71	0xbc40	-1.0625
72	0xa1f5	-0.011635
73	0xb50d	-0.3157
74	0xaf1f	-0.11127
75	0x2ed4	0.1067
76	0x2c93	0.0715
77	0xb580	-0.3438
78	0xb377	-0.2333
79	0x2f8a	0.1178
80	0xba79	-0.809
81	0xb96f	-0.679
82	0x3789	0.471
83	0x24de	0.01901
84	0xae34	-0.0969
85	0xa871	-0.0347
86	0xacef	-0.0771
87	0xaa01	-0.0469
88	0xba7a	-0.8096
89	0xaa59	-0.0496
90	0xb8c4	-0.5957
91	0xa11c	-0.00998
92	0xb63d	-0.39
93	0xa01a	-0.00801
94	0xb1eb	-0.1849
95	0x2e91	0.1026
96	0xbc8e	-1.139
97	0xb48a	-0.2837
98	0x2b7a	0.0584
99	0xab28	-0.0559
100	0x2bcf	0.061
101	0x2adc	0.0536
102	0xb2f3	-0.2172
103	0x3a71	0.805
104	0x301c	0.1284
105	0xbc43	-1.065
106	0x2501	0.01955
107	0xa769	-0.02895
108	0x37df	0.492
109	0x38a9	0.5825
110	0x3471	0.2776
111	0x38f2	0.618
112	0x3109	0.1573
113	0x30ac	0.146
114	0xae01	-0.0938
115	0xbebf	-1.687
116	0xb81b	-0.513
117	0x3cb2	1.174
118	0x9e53	-0.006176
119	0x325c	0.1987
120	0x3066	0.1375
121	0xb5b5	-0.3567
122	0xaf1b	-0.111
123	0x287f	0.03513
124	0xb0d1	-0.1505
125	0xb8b2	-0.587
126	0xba53	-0.7905
127	0xbc04	-1.004
128	0xbca1	-1.157
129	0xba3c	-0.7793
130	0x3165	0.1686
131	0xb842	-0.532
132	0x240e	0.01584
133	0x3bc4	0.9707
134	0x39e1	0.735
135	0x2772	0.02908
136	0xae12	-0.09485
137	0x2869	0.03445
138	0x327d	0.2028
139	0x3369	0.2316
140	0x3156	0.1667
141	0xab74	-0.05823
142	0x3331	0.2247
143	0xb8f1	-0.6177
144	0xb47f	-0.281
145	0x3033	0.1312
146	0xbcf7	-1.241
147	0xb212	-0.1897
148	0xa5e3	-0.023
149	0x3dac	1.418
150	0x3607	0.3767
151	0xb0c4	-0.1489
152	0xad4f	-0.08295
153	0x3ab2	0.837
154	0xb7f9	-0.4983
155	0xb37e	-0.2341
156	0x2f74	0.11646
157	0xaf88	-0.1177
158	0x3cf7	1.241
159	0xb3b8	-0.2412
160	0x362a	0.3853
161	0xa7ec	-0.03094
162	0x2da9	0.08844
163	0x2f6c	0.11597
164	0x2a34	0.04846
165	0xb444	-0.2666
166	0xb1b9	-0.1788
167	0x2d45	0.08234
168	0xb179	-0.171
169	0xb9bb	-0.7163
170	0xadf1	-0.09283
171	0x9844	-0.002083
172	0xa57d	-0.02144
173	0xb0f1	-0.1544
174	0x3de5	1.474
175	0xac25	-0.06476
176	0xaf67	-0.11566
177	0x2be0	0.06152
178	0xafe1	-0.1231
179	0xb407	-0.2517
180	0x333d	0.2262
181	0x31c3	0.18
182	0xad48	-0.0825
183	0xb883	-0.564
184	0xbc08	-1.008
185	0x31f4	0.186
186	0x29da	0.04572
187	0x32bc	0.2104
188	0xb653	-0.3953
189	0xbd95	-1.3955
190	0xa5dc	-0.02289
191	0xb8b2	-0.587
192	0x311e	0.1599
193	0x225b	0.01241
194	0x9fa0	-0.007446
195	0x2639	0.0243
196	0xa52e	-0.02023
197	0xab42	-0.0567
198	0x32d7	0.2137
199	0xb94f	-0.6636
200	0xbd82	-1.377
201	0xb7f8	-0.498
202	0x306e	0.1384
203	0xac4e	-0.06726
204	0xa5b9	-0.02235
205	0x375f	0.4607
206	0x36be	0.4214
207	0x308f	0.1425
208	0x368e	0.4097
209	0xbde8	-1.477
210	0x367a	0.4048
211	0x306c	0.1382
212	0xb353	-0.2289
213	0x2f61	0.1153
214	0xb4c4	-0.2979
215	0x3354	0.229
216	0xb0ed	-0.1539
217	0x3a3c	0.7793
218	0x2a06	0.04706
219	0x27eb	0.03093
220	0x2e88	0.10205
221	0x3526	0.3218
222	0x3180	0.1719
223	0x3012	0.1272
224	0xbd06	-1.256
225	0xb3e5	-0.2467
226	0x36e2	0.4302
227	0x32f1	0.2169
228	0x3010	0.127
229	0x2603	0.02348
230	0x35c9	0.3616
231	0xb0b8	-0.1475
232	0x3854	0.541
233	0xa84e	-0.03363
234	0xb90c	-0.631
235	0x2c85	0.0706
236	0xb6f3	-0.4343
237	0x38aa	0.583
238	0x36a2	0.4146
239	0x2b83	0.0587
240	0x22b7	0.013115
241	0x2ea7	0.10394
242	0x2bd7	0.06125
243	0xb186	-0.1726
244	0x2dca	0.09045
245	0x2ccb	0.0749
246	0x3a94	0.8223
247	0x39fd	0.7485
248	0xb4da	-0.3032
249	0xb0b2	-0.1467
250	0x2d87	0.08636
251	0x38e0	0.6094
252	0xb87d	-0.561
253	0xa4e0	-0.01904
254	0x2ef9	0.10895
255	0xb7de	-0.4917
