Assets/StreamingAssets/segm_full_v491.tflite (tflite, 407472 bytes, 109 tensors)

conv2d/Kernel f2 [16, 3, 3, 3]
0	0xbd9b	-1.401
1	0xbc99	-1.149
2	0xbdbd	-1.435
3	0x3eaf	1.671
4	0x410c	2.523
5	0x4080	2.25
6	0xbb55	-0.9165
7	0xbce2	-1.221
8	0xbd43	-1.315
9	0xba2a	-0.7705
10	0xb228	-0.1924
11	0xb8b2	-0.587
12	0x423a	3.113
13	0x43da	3.926
14	0x4446	4.273
15	0xbdc5	-1.442
16	0xbf4b	-1.823
17	0xbe4e	-1.576
18	0x2ea9	0.10406
19	0x201b	0.00802
20	0xb3ed	-0.2477
21	0x3ca8	1.164
22	0x3a23	0.767
23	0x3c0f	1.015
24	0xbe71	-1.61
25	0xc153	-2.662
26	0xc166	-2.7
27	0xb4f0	-0.3086
28	0x3861	0.5474
29	0xb393	-0.2367
30	0xb6b8	-0.42
31	0x3962	0.673
32	0xb9c8	-0.7227
33	0x3073	0.139
34	0x3415	0.2551
35	0xb74b	-0.4558
36	0xb64d	-0.3938
37	0x3d2d	1.294
38	0xb760	-0.461
39	0xb4be	-0.2964
40	0x3e22	1.533
41	0xbc6e	-1.107
42	0xb302	-0.219
43	0x3a6c	0.8027
44	0xb906	-0.628
45	0xb8a7	-0.5815
46	0x3c34	1.051
47	0xb50b	-0.3152
48	0xb5ba	-0.358
49	0x3c30	1.047
50	0xb7f8	-0.498
51	0xb6f1	-0.4338
52	0x3890	0.5703
53	0xb699	-0.4124
54	0x3594	0.3486
55	0x35eb	0.3699
56	0x33ff	0.2499
57	0xae7a	-0.1012
58	0xb8f1	-0.6177
59	0xb23e	-0.1951
60	0xb6e0	-0.4297
61	0xb963	-0.6733
62	0xb233	-0.1937
63	0x3494	0.2861
64	0xae65	-0.0999
65	0xb133	-0.1625
66	0x2a5f	0.04977
67	0xbc26	-1.037
68	0xb94e	-0.663
69	0xb432	-0.2622
70	0xb893	-0.572
71	0xb317	-0.2216
72	0xacb5	-0.07355
73	0xb756	-0.4585
74	0xb8a1	-0.5786
75	0x33d9	0.2452
76	0xacbc	-0.074
77	0xb1f4	-0.186
78	0x3445	0.2668
79	0x34f4	0.3096
80	0x3426	0.2593
81	0x3e81	1.626
82	0x3e48	1.57
83	0x3e10	1.516
84	0xb479	-0.2795
85	0xb34b	-0.2279
86	0xb547	-0.3298
87	0xbd49	-1.321
88	0xbcf5	-1.239
89	0xbcfa	-1.244
90	0x41fa	2.988
91	0x4187	2.764
92	0x4180	2.75
93	0xba2c	-0.7715
94	0xb8ae	-0.585
95	0xba13	-0.7593
96	0xc10e	-2.527
97	0xc076	-2.23
98	0xc041	-2.127
99	0x3ef5	1.739
100	0x3e33	1.55
101	0x3f2f	1.796
102	0xba1d	-0.764
103	0xb864	-0.549
104	0xb6a2	-0.4146
105	0xbcea	-1.229
106	0xbc23	-1.034
107	0xb992	-0.6963
108	0xbf67	-1.851
109	0xc006	-2.012
110	0xbf7f	-1.874
111	0xc4f5	-4.957
112	0xc48f	-4.56
113	0xc4a0	-4.625
114	0xc07c	-2.242
115	0xbebc	-1.684
116	0xbfc4	-1.941
117	0x3638	0.3887
118	0x34b2	0.2935
119	0x3633	0.3875
120	0xb571	-0.34
121	0x310a	0.1575
122	0x3467	0.2751
123	0xb5fb	-0.3738
124	0xa73e	-0.02829
125	0x2fcf	0.122
126	0x3e39	1.556
127	0x3cbc	1.184
128	0x3cef	1.233
129	0x44aa	4.664
130	0x4458	4.344
131	0x446b	4.418
132	0x4097	2.295
133	0x4055	2.166
134	0x4089	2.268
135	0xb607	-0.3767
136	0x3172	0.1702
137	0x2fef	0.12396
138	0xafc6	-0.12146
139	0x3a2b	0.771
140	0x38c5	0.596
141	0xb721	-0.4456
142	0x2943	0.0411
143	0x2a96	0.05145
144	0xb879	-0.559
145	0x330a	0.22
146	0x3115	0.1588
147	0xb4d9	-0.303
148	0x3d03	1.253
149	0x3b4d	0.9126
150	0xb636	-0.3882
151	0x387b	0.56
152	0x3817	0.511
153	0xb70a	-0.44
154	0xb32d	-0.2242
155	0xaf54	-0.1145
156	0xb367	-0.2313
157	0x3554	0.333
158	0x35b5	0.3567
159	0xb5c6	-0.3608
160	0x2fb7	0.12054
161	0x3260	0.1992
162	0xc27b	-3.24
163	0xc167	-2.701
164	0xc2b4	-3.352
165	0x4348	3.64
166	0x43ff	3.998
167	0x43c8	3.89
168	0xba3d	-0.78
169	0xbce3	-1.222
170	0xbc63	-1.097
171	0xc2f5	-3.479
172	0xc162	-2.691
173	0xc26e	-3.215
174	0x4568	5.406
175	0x459d	5.613
176	0x4654	6.33
177	0xbe03	-1.503
178	0xc091	-2.283
179	0xbf0a	-1.76
180	0xbc20	-1.031
181	0xb983	-0.689
182	0xbb93	-0.947
183	0x4097	2.295
184	0x3f8b	1.886
185	0x40a5	2.322
186	0xbd2b	-1.292
187	0xc06c	-2.21
188	0xc064	-2.195
189	0x3692	0.4106
190	0x3085	0.1412
191	0x38f3	0.6187
192	0xbb53	-0.9155
193	0xbcd5	-1.208
194	0xaf52	-0.1144
195	0x344a	0.268
196	0x2dcc	0.0906
197	0x3848	0.535
198	0x3476	0.2788
199	0xb5ab	-0.3542
200	0x3b3a	0.9033
201	0xaba4	-0.0597
202	0xbc4c	-1.074
203	0x3d97	1.397
204	0xaa80	-0.05078
205	0xb89a	-0.575
206	0x36b2	0.4185
207	0xb419	-0.256
208	0xb82e	-0.5225
209	0x3026	0.1296
210	0x3c2c	1.043
211	0x3407	0.2517
212	0x3e2b	1.542
213	0x360c	0.378
214	0xae59	-0.0992
215	0x334c	0.228
216	0x95ca	-0.001413
217	0x300c	0.1265
218	0x362b	0.3855
219	0xb64b	-0.3933
220	0x348a	0.2837
221	0x3a10	0.758
222	0xb3e1	-0.2462
223	0x2480	0.01758
224	0x3460	0.2734
225	0xba8f	-0.82
226	0xb332	-0.2249
227	0x3524	0.3213
228	0xbef3	-1.737
229	0xb5a1	-0.3518
230	0x392d	0.647
231	0xba4c	-0.787
232	0xb461	-0.2737
233	0x3052	0.135
234	0xb8a9	-0.5825
235	0xae9b	-0.1032
236	0x2616	0.02377
237	0xbb62	-0.923
238	0xb500	-0.3125
239	0x2d8e	0.0868
240	0xb05b	-0.1361
241	0xac0a	-0.0631
242	0x23a0	0.01489
243	0xa9aa	-0.04425
244	0x2e4a	0.09827
245	0xb107	-0.1571
246	0x2cb9	0.0738
247	0x33ce	0.2439
248	0xb7a3	-0.4773
249	0x311b	0.1595
250	0x3426	0.2593
251	0xb10e	-0.158
252	0xb14e	-0.1658
253	0x2820	0.03223
254	0xb776	-0.4663
255	0xacde	-0.07605

conv2d/Bias f2 [16]
0	0xb4b8	-0.295
1	0x334f	0.2284
2	0x401e	2.059
3	0x3c57	1.085
4	0x38ce	0.6006
5	0xba25	-0.768
6	0xb78f	-0.4724
7	0xb93b	-0.654
8	0x41c8	2.89
9	0x4101	2.502
10	0xbb9f	-0.9526
11	0xbc90	-1.141
12	0x3c22	1.033
13	0x4064	2.195
14	0x40bf	2.373
15	0x36fd	0.4368

conv2d_1/Kernel f2 [16, 1, 1, 16]
0	0x2a09	0.04715
1	0x1ee0	0.006714
2	0x2c97	0.0717
3	0x2f67	0.11566
4	0x2de8	0.0923
5	0xac9e	-0.07214
6	0xada1	-0.08795
7	0x28bc	0.037
8	0xa6f1	-0.02711
9	0xa864	-0.0343
10	0x9ea0	-0.00647
11	0xa853	-0.03378
12	0xaa0b	-0.0472
13	0xa2f5	-0.01359
14	0x231a	0.01387
15	0xacbe	-0.0741
16	0xaa41	-0.04886
17	0x2ba5	0.05972
18	0x30b3	0.1469
19	0x3647	0.3923
20	0x3314	0.2212
21	0xafdd	-0.12286
22	0xb07e	-0.1404
23	0x2a06	0.04706
24	0x295f	0.04196
25	0xafd5	-0.1224
26	0xa9d7	-0.04562
27	0x9788	-0.001839
28	0xbec0	-1.6875
29	0xa7c4	-0.03033
30	0x2806	0.03143
31	0xb806	-0.503
32	0x29db	0.04575
33	0x2fc0	0.1211
34	0x3b3e	0.9053
35	0x31fe	0.1873
36	0x32bf	0.2108
37	0x30f3	0.1547
38	0x29a9	0.04422
39	0x3752	0.4575
40	0x3a29	0.77
41	0x3b32	0.8994
42	0x3852	0.54
43	0xa761	-0.02882
44	0x303f	0.1327
45	0x3255	0.1979
46	0xb554	-0.333
47	0x2f7f	0.1171
48	0xac7b	-0.07
49	0xb160	-0.168
50	0x341d	0.257
51	0x1fea	0.00773
52	0xa3bd	-0.015114
53	0xb8a1	-0.5786
54	0xa8c3	-0.0372
55	0x3485	0.2825
56	0xb536	-0.3257
57	0xb2e2	-0.2151
58	0xaefe	-0.10925
59	0x3909	0.6294
60	0xa3fb	-0.01559
61	0x398d	0.694
62	0xba4b	-0.7866
63	0x2410	0.01587
64	0x9fb4	-0.007523
65	0x2293	0.01284
66	0xabf6	-0.0622
67	0x2665	0.02498
68	0xa069	-0.00861
69	0x2fc1	0.12115
70	0x2370	0.01453
71	0x2d76	0.0853
72	0xaefa	-0.109
73	0xb2e2	-0.2151
74	0x2f5b	0.1149
75	0x28f9	0.03885
76	0x2030	0.00818
77	0xa873	-0.03476
78	0x1fc3	0.00758
79	0x2552	0.02078
80	0x98fa	-0.00243
81	0x2922	0.0401
82	0x345b	0.2722
83	0x9b10	-0.003448
84	0x2794	0.0296
85	0xaf14	-0.1106
86	0x2ad3	0.0533
87	0x2962	0.04205
88	0x2894	0.03577
89	0x313c	0.1636
90	0x2eb4	0.10474
91	0x24da	0.01895
92	0x2407	0.01573
93	0x217d	0.01072
94	0x2865	0.03433
95	0x20dc	0.00949
96	0x2e09	0.0943
97	0xa14f	-0.01037
98	0x34cd	0.3
99	0xa335	-0.01408
100	0xaa74	-0.0504
101	0xae87	-0.102
102	0xadb1	-0.0889
103	0xae7e	-0.10144
104	0xb4e6	-0.3062
105	0x3639	0.389
106	0x368d	0.4094
107	0x32a3	0.2074
108	0x9fd2	-0.007637
109	0x2dcf	0.09076
110	0xb88c	-0.5684
111	0xa809	-0.03152
112	0x29ac	0.0443
113	0x2ccc	0.07495
114	0x2bca	0.06085
115	0x2bae	0.06
116	0x2a98	0.0515
117	0x3113	0.1586
118	0x2ca4	0.0725
119	0x312c	0.1616
120	0x21f1	0.011604
121	0xaae2	-0.05377
122	0x3440	0.2656
123	0x2fd9	0.1226
124	0x2802	0.0313
125	0x1b82	0.003666
126	0x29e8	0.04614
127	0xa82f	-0.03268
128	0x341b	0.2566
129	0xbd87	-1.382
130	0xaf4d	-0.1141
131	0xa955	-0.04166
132	0x29f9	0.04666
133	0x332e	0.2244
134	0xa934	-0.04065
135	0xb390	-0.2363
136	0x3a9b	0.8257
137	0xb0c0	-0.1484
138	0x345f	0.2732
139	0xb13b	-0.1635
140	0x9920	-0.002502
141	0xb943	-0.6577
142	0x3d90	1.391
143	0x185d	0.00213
144	0x9c9b	-0.004498
145	0x1de3	0.00575
146	0x2518	0.0199
147	0x2a83	0.05087
148	0x2863	0.03427
149	0x1e0a	0.005898
150	0x29b0	0.04443
151	0x2871	0.0347
152	0x1c5b	0.004253
153	0x1e39	0.006077
154	0xa1d8	-0.01141
155	0x9857	-0.00212
156	0xa8f5	-0.03873
157	0xa244	-0.01224
158	0x9dd2	-0.005684
159	0xa8e7	-0.0383
160	0x2ffa	0.12463
161	0xad49	-0.0826
162	0xb2cb	-0.2123
163	0xb54e	-0.3315
164	0xba55	-0.7915
165	0x3316	0.2214
166	0xad73	-0.08514
167	0xab7b	-0.05844
168	0x2e8f	0.1025
169	0x2e66	0.1
170	0xab7a	-0.0584
171	0xa119	-0.00996
172	0x3c01	1.001
173	0x287c	0.03503
174	0xadc9	-0.0904
175	0x28ab	0.03647
176	0xa5e7	-0.02306
177	0xa415	-0.01595
178	0xaa45	-0.04898
179	0xb082	-0.1409
180	0xac94	-0.07153
181	0x265b	0.02483
182	0x2783	0.02934
183	0xa6a5	-0.02596
184	0x271c	0.02777
185	0x2d8f	0.08685
186	0x2c3a	0.06604
187	0x240c	0.01581
188	0x2c17	0.0639
189	0x27c3	0.03032
190	0x20e4	0.00955
191	0x2cf7	0.0776
192	0xa26a	-0.01253
193	0x0d6a	0.0003304
194	0xaf52	-0.1144
195	0x9cd3	-0.00471
196	0xa575	-0.02132
197	0x2ddf	0.09174
198	0x9ebf	-0.006588
199	0x2b39	0.05643
200	0xb090	-0.1426
201	0xaf7b	-0.1169
202	0x304d	0.1344
203	0x281b	0.03207
204	0x20d2	0.009415
205	0x9f61	-0.007206
206	0x26da	0.02676
207	0xa022	-0.00807
208	0x2c06	0.06287
209	0xb1fa	-0.1868
210	0xb277	-0.202
211	0xacca	-0.0748
212	0x180f	0.001982
213	0x2593	0.02177
214	0x3195	0.1744
215	0x3a78	0.8086
216	0x3703	0.4382
217	0xb147	-0.1649
218	0xb7c9	-0.4866
219	0xb156	-0.1667
220	0x9c22	-0.004036
221	0x3405	0.2512
222	0x3a5d	0.7954
223	0xab95	-0.05923
224	0x3088	0.1416
225	0xba5c	-0.795
226	0x327e	0.2029
227	0xa950	-0.0415
228	0x9bde	-0.003841
229	0xb00e	-0.1267
230	0x9bcf	-0.003813
231	0x3924	0.6426
232	0x380c	0.506
233	0xb808	-0.504
234	0xab24	-0.0558
235	0xae13	-0.0949
236	0xa8b2	-0.03668
237	0x374e	0.4565
238	0x3874	0.5566
239	0x9c68	-0.004303
240	0x2e80	0.10156
241	0x15a1	0.001374
242	0x2909	0.03934
243	0x356b	0.3386
244	0xb35f	-0.2303
245	0x12fe	0.0008535
246	0x2bf8	0.06226
247	0x200a	0.00789
248	0x2a9f	0.05173
249	0xa873	-0.03476
250	0xa3c9	-0.015205
251	0x9850	-0.002106
252	0x363b	0.3894
253	0xa430	-0.01636
254	0xa7a4	-0.02985
255	0xb89b	-0.5757

conv2d_1/Bias f2 [16]
0	0x3d15	1.2705
1	0x418e	2.777
2	0xc48e	-4.555
3	0x40c7	2.389
4	0x3c82	1.127
5	0x39b6	0.714
6	0x3c0d	1.013
7	0x317e	0.1716
8	0xc020	-2.062
9	0x3e5b	1.589
10	0xa8fc	-0.03894
11	0x38d9	0.606
12	0x3c35	1.052
13	0x3942	0.657
14	0xa86c	-0.03455
15	0xb418	-0.2559

depthwise_conv2d/Kernel f2 [1, 3, 3, 16]
0	0x340b	0.2527
1	0x271e	0.0278
2	0x345e	0.273
3	0x2b37	0.05637
4	0x3cde	1.217
5	0x340e	0.2534
6	0xa9e6	-0.04608
7	0xa1a8	-0.01105
8	0x2ce1	0.07623
9	0xbbc3	-0.97
10	0xa8b1	-0.03665
11	0x3150	0.166
12	0xbc59	-1.087
13	0xad83	-0.0861
14	0x2a5e	0.04974
15	0xaab5	-0.0524
16	0xb351	-0.2286
17	0x295c	0.04187
18	0x3902	0.626
19	0x2cdf	0.0761
20	0xaaec	-0.05408
21	0x35bf	0.3591
22	0xabec	-0.0619
23	0xb15d	-0.1676
24	0x2e2a	0.0963
25	0x402e	2.09
26	0xacd3	-0.0754
27	0x3926	0.6436
28	0xbdee	-1.482
29	0xb01a	-0.1282
30	0x2c50	0.0674
31	0xadff	-0.0937
32	0xb7b5	-0.4817
33	0x2429	0.01625
34	0x32eb	0.2162
35	0x286b	0.03452
36	0xbce5	-1.224
37	0x2a96	0.05145
38	0xa645	-0.02449
39	0xb009	-0.1261
40	0x2af7	0.0544
41	0xa2bd	-0.01316
42	0xa8f6	-0.03876
43	0xba85	-0.815
44	0xaa7c	-0.05066
45	0xaa13	-0.04745
46	0x2765	0.02888
47	0xac0d	-0.0633
48	0x2f60	0.11523
49	0x2912	0.0396
50	0x38f0	0.617
51	0x2d06	0.0785
52	0x3ff1	1.985
53	0x35e3	0.368
54	0xab8c	-0.05896
55	0xa9de	-0.04584
56	0x2ec1	0.1055
57	0xc012	-2.035
58	0xac21	-0.0645
59	0xb91b	-0.638
60	0xb982	-0.6885
61	0xaff3	-0.1242
62	0x2c3f	0.06635
63	0xad46	-0.0824
64	0x383a	0.5283
65	0x2bff	0.06247
66	0x3a4d	0.7876
67	0x2ed1	0.1065
68	0xb2d2	-0.2131
69	0x388b	0.568
70	0xad9b	-0.0876
71	0xaed5	-0.10675
72	0x3054	0.1353
73	0x3e4b	1.573
74	0xaefd	-0.1092
75	0x3dad	1.419
76	0x301b	0.1283
77	0xb1ad	-0.1774
78	0x2de9	0.09235
79	0xb0a3	-0.1449
80	0xbaf2	-0.868
81	0x2823	0.03232
82	0x3134	0.1626
83	0x29af	0.0444
84	0xbefa	-1.744
85	0x310f	0.1581
86	0xa853	-0.03378
87	0xaa0d	-0.04727
88	0x2b87	0.0588
89	0x3dcf	1.452
90	0xaafd	-0.0546
91	0xb875	-0.557
92	0x3a4f	0.7886
93	0xac07	-0.0629
94	0x286c	0.03455
95	0xaf37	-0.11273
96	0xb244	-0.1958
97	0x248c	0.01776
98	0x344c	0.2686
99	0x2799	0.02968
100	0x381f	0.515
101	0x2d3f	0.082
102	0xa5dc	-0.02289
103	0xa929	-0.0403
104	0x29a7	0.04416
105	0xb850	-0.539
106	0xa909	-0.03934
107	0xb82c	-0.5215
108	0x3331	0.2247
109	0xa8bc	-0.037
110	0x249c	0.018
111	0xa913	-0.03964
112	0x3738	0.4512
113	0x2906	0.03925
114	0x2bf7	0.06223
115	0x2981	0.043
116	0xb46b	-0.2761
117	0x31a5	0.1764
118	0xa8f7	-0.0388
119	0x2b2c	0.05603
120	0x2af7	0.0544
121	0xb6db	-0.4285
122	0xac78	-0.0698
123	0x370e	0.441
124	0x3dde	1.467
125	0xaaaa	-0.05206
126	0x2772	0.02908
127	0xae49	-0.0982
128	0xb40f	-0.2537
129	0x2548	0.02063
130	0xb7f8	-0.498
131	0x21f6	0.01164
132	0xb1d1	-0.1818
133	0x2cca	0.0748
134	0xa036	-0.008224
135	0x29fe	0.0468
136	0x23ab	0.01498
137	0x3b2a	0.8955
138	0xa732	-0.0281
139	0x31b6	0.1785
140	0x39df	0.734
141	0xa3a8	-0.01495
142	0x14c0	0.00116
143	0xaadc	-0.0536

depthwise_conv2d/Bias f2 [16]
0	0x3b5b	0.9194
1	0x266d	0.0251
2	0x9ab4	-0.003273
3	0x381b	0.513
4	0x3479	0.2795
5	0xbcff	-1.249
6	0x3db3	1.425
7	0x3e88	1.633
8	0x9dbb	-0.005596
9	0xc284	-3.258
10	0x3bbf	0.9683
11	0xb419	-0.256
12	0x32ec	0.2163
13	0x4096	2.293
14	0x23a5	0.01493
15	0x397e	0.6865

dense/Kernel f2 [16, 16]
0	0x3276	0.2019
1	0xb3ed	-0.2477
2	0x39e7	0.738
3	0x3910	0.633
4	0x3353	0.2289
5	0x2e61	0.0997
6	0xb275	-0.2018
7	0x3256	0.198
8	0x3963	0.6733
9	0x3166	0.1687
10	0xaa83	-0.05087
11	0xaa6f	-0.05026
12	0x30f0	0.1543
13	0xb160	-0.168
14	0xbb58	-0.918
15	0xb043	-0.1332
16	0x317e	0.1716
17	0xa720	-0.02783
18	0xad29	-0.0806
19	0x2cf2	0.0773
20	0xb223	-0.1918
21	0xb786	-0.4702
22	0xb43c	-0.2646
23	0x32b0	0.209
24	0xb774	-0.4658
25	0xb071	-0.1388
26	0xb4ca	-0.2993
27	0xb82b	-0.521
28	0xb7b0	-0.4805
29	0x3256	0.198
30	0x31d0	0.1816
31	0xb7d6	-0.4897
32	0x9a31	-0.003023
33	0xafcf	-0.122
34	0x3646	0.392
35	0xb5a1	-0.3518
36	0xb50a	-0.315
37	0xb345	-0.2272
38	0xb802	-0.501
39	0x2e01	0.0938
40	0xb053	-0.1351
41	0xb762	-0.4614
42	0xb66c	-0.4014
43	0xb857	-0.5425
44	0xae1a	-0.09534
45	0xb146	-0.1648
46	0xb54f	-0.3318
47	0x3348	0.2275
48	0x2f6b	0.1159
49	0xb0ad	-0.1461
50	0xb6a3	-0.4148
51	0xb27f	-0.203
52	0xac0d	-0.0633
53	0x34c7	0.2986
54	0xba81	-0.813
55	0xb4b8	-0.295
56	0x37c1	0.4846
57	0xb818	-0.5117
58	0x37a7	0.4783
59	0x3115	0.1588
60	0xb4ec	-0.3076
61	0x3c8e	1.139
62	0x34b5	0.2942
63	0x37ae	0.48
64	0x320b	0.1888
65	0xb671	-0.4026
66	0xb57f	-0.3435
67	0xb651	-0.3948
68	0xb463	-0.2742
69	0x345f	0.2732
70	0xb5c7	-0.361
71	0xb6e8	-0.4316
72	0x1fbc	0.007553
73	0x241b	0.01604
74	0x30f1	0.1544
75	0xb65f	-0.3982
76	0x35cd	0.3625
77	0xb07d	-0.1403
78	0xa4da	-0.01895
79	0xa6ea	-0.02701
80	0x3440	0.2656
81	0x2de1	0.09186
82	0x26ae	0.0261
83	0xbece	-1.701
84	0x3410	0.254
85	0x2df5	0.0931
86	0x374b	0.4558
87	0x3309	0.2198
88	0xb9f7	-0.7456
89	0x24be	0.01852
90	0x2ed7	0.1069
91	0x2596	0.02182
92	0x2a93	0.05136
93	0x3723	0.446
94	0x3c71	1.11
95	0xae22	-0.0958
96	0xb5c1	-0.3596
97	0x3095	0.1432
98	0xb1e7	-0.1844
99	0x2e73	0.10077
100	0xac4f	-0.0673
101	0xb707	-0.4392
102	0x30f0	0.1543
103	0xb30c	-0.2202
104	0xb2d9	-0.214
105	0x3036	0.1316
106	0x272b	0.028
107	0xb077	-0.1395
108	0xb458	-0.2715
109	0x1e57	0.00619
110	0x9a08	-0.002945
111	0xb71a	-0.4438
112	0xb9ea	-0.7393
113	0xb423	-0.2585
114	0xab75	-0.05826
115	0x3427	0.2595
116	0xb668	-0.4004
117	0xb00b	-0.1263
118	0xb3ea	-0.2473
119	0x3dd4	1.457
120	0x3061	0.1368
121	0x311b	0.1595
122	0x340c	0.253
123	0xb272	-0.2014
124	0xac2f	-0.06537
125	0xaa04	-0.047
126	0x28aa	0.03644
127	0x35aa	0.354
128	0xb1a6	-0.1765
129	0xb10e	-0.158
130	0xc02d	-2.088
131	0xb897	-0.5737
132	0xb865	-0.5493
133	0xb316	-0.2214
134	0x3a28	0.7695
135	0x35b5	0.3567
136	0x3566	0.3374
137	0xb807	-0.5034
138	0x158d	0.001355
139	0xb444	-0.2666
140	0x2cff	0.07806
141	0xbabd	-0.8423
142	0x3250	0.1973
143	0xb121	-0.1603
144	0x9fe7	-0.007717
145	0xb5af	-0.3552
146	0x28de	0.03802
147	0x3900	0.625
148	0xb17d	-0.1715
149	0xa051	-0.00843
150	0x3709	0.4397
151	0xace1	-0.07623
152	0x31bf	0.1796
153	0x2c21	0.0645
154	0x344b	0.2683
155	0x3122	0.1604
156	0xac55	-0.0677
157	0xbc9d	-1.153
158	0xb1d2	-0.1819
159	0xac13	-0.06366
160	0xaf40	-0.1133
161	0xb03a	-0.1321
162	0x381c	0.5137
163	0xba96	-0.823
164	0xb330	-0.2246
165	0x30c4	0.1489
166	0x3174	0.1704
167	0xb11b	-0.1595
168	0xb671	-0.4026
169	0xb1ce	-0.1814
170	0xb47f	-0.281
171	0x306c	0.1382
172	0x378f	0.4724
173	0x39db	0.732
174	0x3ca9	1.165
175	0x32b7	0.2098
176	0xac0a	-0.0631
177	0xb4fd	-0.3118
178	0xb2c9	-0.212
179	0x31e4	0.1841
180	0xb2fc	-0.2183
181	0xa2d4	-0.013336
182	0xb229	-0.1925
183	0xb6e3	-0.4304
184	0xb499	-0.2874
185	0xad6c	-0.0847
186	0xb572	-0.3403
187	0xaa6c	-0.05017
188	0x3433	0.2625
189	0xb61b	-0.3816
190	0xb240	-0.1953
191	0x2964	0.0421
192	0xa930	-0.04053
193	0x35da	0.3657
194	0x2c0a	0.0631
195	0x3a19	0.762
196	0x32c7	0.2118
197	0x2502	0.01956
198	0xb81e	-0.5146
199	0xb5b3	-0.3562
200	0x30d1	0.1505
201	0xb0b5	-0.1471
202	0xb4cc	-0.2998
203	0x24e2	0.01907
204	0xa8cb	-0.03745
205	0xb14c	-0.1655
206	0x33df	0.246
207	0x3388	0.2354
208	0xbcd0	-1.203
209	0xbc61	-1.095
210	0x3236	0.1941
211	0x31c1	0.1798
212	0x2f41	0.11334
213	0xaf68	-0.1157
214	0x381c	0.5137
215	0x216a	0.010574
216	0x2fd2	0.1222
217	0xbe45	-1.567
218	0x3c25	1.036
219	0xc09d	-2.307
220	0x36ce	0.4253
221	0x8fd8	-0.0004787
222	0xb594	-0.3486
223	0x3856	0.542
224	0x352c	0.3232
225	0x319d	0.1754
226	0xc4d0	-4.812
227	0x3454	0.2705
228	0xb5c4	-0.3604
229	0xba9e	-0.827
230	0x3826	0.5186
231	0xaf40	-0.1133
232	0x2f0e	0.1102
233	0xb37d	-0.234
234	0x3708	0.4395
235	0x30d0	0.1504
236	0x3083	0.141
237	0x2d5e	0.08386
238	0xb3c1	-0.2423
239	0x2d65	0.0843
240	0xaf3d	-0.1131
241	0xb835	-0.526
242	0xb444	-0.2666
243	0xb5d0	-0.3633
244	0x34c5	0.298
245	0xaf43	-0.11346
246	0x3856	0.542
247	0x3630	0.3867
248	0xbd51	-1.329
249	0x33b7	0.2411
250	0x394f	0.6636
251	0xb54d	-0.3313
252	0xb43e	-0.2651
253	0x3666	0.4
254	0x3769	0.4631
255	0xad9a	-0.0875

dense/Bias f2 [16]
0	0x2aef	0.05417
1	0xaf26	-0.1117
2	0xa8fa	-0.03888
3	0x39da	0.7314
4	0xaf68	-0.1157
5	0x347d	0.2805
6	0xad2d	-0.0809
7	0xba37	-0.777
8	0x325a	0.1985
9	0xb264	-0.1997
10	0x33c8	0.2432
11	0xa841	-0.03323
12	0x355c	0.335
13	0x30e7	0.1532
14	0x2e0b	0.0944
15	0xaf64	-0.1155

dense_1/Kernel f2 [16, 16]
0	0xb57f	-0.3435
1	0x2c3b	0.0661
2	0x366b	0.4011
3	0x29bb	0.04477
4	0xaff2	-0.12415
5	0x23f6	0.01555
6	0x93a6	-0.0009336
7	0x3894	0.5723
8	0x1557	0.001304
9	0x9ba9	-0.00374
10	0xa9fe	-0.0468
11	0x2fff	0.12494
12	0xacb5	-0.07355
13	0x3695	0.4114
14	0x2e05	0.09406
15	0xa66b	-0.02507
16	0x36ec	0.4326
17	0xad61	-0.08405
18	0x37e9	0.4944
19	0x3938	0.6523
20	0x33e6	0.2468
21	0x3472	0.2778
22	0x28b6	0.0368
23	0x3a72	0.8057
24	0xb301	-0.2189
25	0x39fb	0.7476
26	0xb405	-0.2512
27	0x305b	0.1361
28	0xada6	-0.08826
29	0x3cce	1.201
30	0x39fc	0.748
31	0x3bc0	0.9688
32	0x3325	0.2233
33	0x3633	0.3875
34	0x286f	0.03464
35	0xb435	-0.263
36	0x2ac6	0.05292
37	0xa9ef	-0.04636
38	0x3738	0.4512
39	0x3902	0.626
40	0x3124	0.1606
41	0xb51d	-0.3196
42	0x3325	0.2233
43	0x3461	0.2737
44	0xb589	-0.346
45	0xaeac	-0.10425
46	0x2d69	0.08453
47	0xb9cc	-0.7246
48	0xb523	-0.321
49	0xb0ad	-0.1461
50	0x301d	0.1285
51	0x3827	0.519
52	0xb44a	-0.268
53	0x3dde	1.467
54	0xb71c	-0.4443
55	0xb45b	-0.2722
56	0x3182	0.1721
57	0xbb85	-0.94
58	0x3a3c	0.7793
59	0xaff3	-0.1242
60	0xb943	-0.6577
61	0xaad6	-0.0534
62	0x2255	0.01237
63	0xa802	-0.0313
64	0xb216	-0.1902
65	0xb45b	-0.2722
66	0x3625	0.384
67	0x291c	0.03992
68	0x31fc	0.187
69	0xa80a	-0.03156
70	0x31c2	0.1799
71	0x36af	0.4177
72	0x1d75	0.00533
73	0x2548	0.02063
74	0x2c3c	0.06616
75	0x3457	0.2712
76	0xa99b	-0.0438
77	0x377b	0.4675
78	0x2ef3	0.1086
79	0xae4e	-0.0985
80	0xb856	-0.542
81	0xb447	-0.2673
82	0xa750	-0.02856
83	0x30fa	0.1555
84	0x2c25	0.06476
85	0xa8b7	-0.03683
86	0xb44a	-0.268
87	0xad5e	-0.08386
88	0x3232	0.1936
89	0x291a	0.03986
90	0xb588	-0.3457
91	0xaf27	-0.11176
92	0x2ba5	0.05972
93	0x9c60	-0.004272
94	0x3c66	1.1
95	0x2ddd	0.0916
96	0x348a	0.2837
97	0x3408	0.252
98	0xae68	-0.1001
99	0x2c33	0.0656
100	0x36a0	0.414
101	0xa815	-0.0319
102	0xb176	-0.1707
103	0x2e21	0.09576
104	0xb508	-0.3145
105	0xa542	-0.02054
106	0xb340	-0.2266
107	0x3441	0.2659
108	0x36a2	0.4146
109	0x223b	0.01217
110	0x3010	0.127
111	0x3835	0.526
112	0x2740	0.02832
113	0xb01b	-0.1283
114	0x32be	0.2107
115	0x2a93	0.05136
116	0xb4e1	-0.305
117	0x995f	-0.002623
118	0xb4f0	-0.3086
119	0xbc90	-1.141
120	0x252b	0.02019
121	0xa4b1	-0.01833
122	0x29a2	0.044
123	0xb6f3	-0.4343
124	0x352f	0.324
125	0x2895	0.0358
126	0xac80	-0.0703
127	0xb0ca	-0.1497
128	0xb613	-0.3796
129	0x3682	0.4067
130	0x367a	0.4048
131	0xba23	-0.767
132	0xb2bd	-0.2106
133	0xb67f	-0.406
134	0xb4ad	-0.2922
135	0xb1a9	-0.1769
136	0x33b9	0.2413
137	0xb197	-0.1747
138	0x2da6	0.08826
139	0xb419	-0.256
140	0xb53f	-0.328
141	0xa214	-0.01187
142	0xb0a1	-0.1447
143	0xb136	-0.1628
144	0xb50e	-0.316
145	0x1882	0.002201
146	0x36d1	0.426
147	0x29b3	0.04453
148	0x3025	0.1295
149	0xa905	-0.0392
150	0xaf3d	-0.1131
151	0x380e	0.507
152	0x22b4	0.01309
153	0xac90	-0.0713
154	0x211e	0.009995
155	0xb29f	-0.2069
156	0xac47	-0.06683
157	0x3a40	0.7812
158	0x3088	0.1416
159	0xab8e	-0.05902
160	0xb08b	-0.142
161	0x2a43	0.04892
162	0x3750	0.457
163	0x2a35	0.0485
164	0x23e0	0.01538
165	0xaafe	-0.05463
166	0x3571	0.34
167	0x38e1	0.61
168	0xa342	-0.014175
169	0xa162	-0.01051
170	0x9ad8	-0.003342
171	0xb121	-0.1603
172	0xace4	-0.0764
173	0x324e	0.197
174	0x36ca	0.4243
175	0x3120	0.1602
176	0xb13a	-0.1633
177	0x3133	0.1625
178	0xb72d	-0.4485
179	0xa2d3	-0.01333
180	0x31b2	0.178
181	0x26c4	0.02643
182	0x2e96	0.1029
183	0x34df	0.3044
184	0xa024	-0.00809
185	0xab71	-0.05814
186	0xa9e1	-0.04593
187	0xb221	-0.1915
188	0xaad3	-0.0533
189	0x39b5	0.7134
190	0xa3ba	-0.01509
191	0x2939	0.0408
192	0xb60a	-0.3774
193	0x2ff0	0.124
194	0x3781	0.469
195	0x2e7c	0.1013
196	0xb48b	-0.284
197	0x3054	0.1353
198	0xb409	-0.2522
199	0x3940	0.6562
200	0x2553	0.0208
201	0x2b22	0.05573
202	0xb127	-0.161
203	0xb15e	-0.1677
204	0xae32	-0.0968
205	0x3c09	1.009
206	0x34bc	0.296
207	0xa88c	-0.03552
208	0xb90e	-0.632
209	0x351d	0.3196
210	0xae12	-0.09485
211	0xbdcf	-1.452
212	0x3555	0.3333
213	0x2fa4	0.1194
214	0xadec	-0.0925
215	0xab9a	-0.0594
216	0x374a	0.4556
217	0xae85	-0.10187
218	0x3511	0.3167
219	0x338d	0.236
220	0xbba3	-0.9546
221	0x311d	0.1598
222	0xac26	-0.0648
223	0x370a	0.44
224	0x3b47	0.9097
225	0x1a06	0.002941
226	0xa956	-0.0417
227	0xb921	-0.641
228	0x3111	0.1583
229	0xbe28	-1.539
230	0x380c	0.506
231	0x359d	0.3508
232	0x2edb	0.1071
233	0x3693	0.411
234	0xbe7e	-1.623
235	0x1c33	0.0041
236	0xb171	-0.17
237	0x3475	0.2786
238	0x3105	0.1569
239	0xac80	-0.0703
240	0xb1ba	-0.179
241	0xaacb	-0.05307
242	0xb02b	-0.1302
243	0x28f5	0.03873
244	0x338e	0.2361
245	0x1bd5	0.003824
246	0xb2b6	-0.2097
247	0x39d9	0.731
248	0xa579	-0.02138
249	0x2abb	0.05258
250	0xaf2b	-0.112
251	0xb401	-0.2502
252	0xb187	-0.1727
253	0x3635	0.388
254	0x3650	0.3945
255	0x2c95	0.0716

dense_1/Bias f2 [16]
0	0xafad	-0.11993
1	0x3e9f	1.655
2	0xbd8c	-1.387
3	0xaddf	-0.09174
4	0xb0f4	-0.1548
5	0xb837	-0.527
6	0xb984	-0.6895
7	0x3c3c	1.059
8	0xacb8	-0.0737
9	0xb866	-0.55
10	0x3cee	1.232
11	0xb7a9	-0.4788
12	0xb4e3	-0.3054
13	0xadf1	-0.09283
14	0x34b9	0.2952
15	0x3b09	0.8794

conv2d_2/Kernel f2 [16, 1, 1, 16]
0	0x3545	0.3293
1	0xb1e8	-0.1846
2	0x3d62	1.346
3	0xb087	-0.1415
4	0x3a0f	0.7573
5	0x4055	2.166
6	0x393d	0.655
7	0xbf34	-1.801
8	0xb5ac	-0.3545
9	0x3abf	0.8433
10	0xbc6f	-1.108
11	0x2f03	0.10956
12	0x41b8	2.86
13	0xbd77	-1.366
14	0xb1a9	-0.1769
15	0xc0b1	-2.346
16	0x3e1f	1.53
17	0x3b69	0.9263
18	0xba6e	-0.8037
19	0x40c2	2.379
20	0xba2b	-0.771
21	0xc4f7	-4.965
22	0x4411	4.066
23	0xbca3	-1.159
24	0x3c6f	1.108
25	0x389a	0.575
26	0xbd61	-1.345
27	0x3c0c	1.012
28	0x21d4	0.01138
29	0xbc5c	-1.09
30	0x3a31	0.774
31	0x3f59	1.837
32	0x34c6	0.2983
33	0xb16a	-0.1692
34	0xbd15	-1.2705
35	0xc1c9	-2.893
36	0xb8c1	-0.594
37	0xc35f	-3.686
38	0xc031	-2.096
39	0xc04a	-2.145
40	0xbdcb	-1.448
41	0x35c3	0.36
42	0xb838	-0.5273
43	0x32ed	0.2164
44	0x3be4	0.9863
45	0xb834	-0.5254
46	0xc034	-2.102
47	0x3cf8	1.242
48	0x400f	2.03
49	0xbf04	-1.754
50	0x3c9c	1.152
51	0x3fa5	1.911
52	0x3fc9	1.946
53	0x3ea8	1.664
54	0xb39d	-0.2379
55	0xb440	-0.2656
56	0x342d	0.261
57	0x3e50	1.578
58	0xb480	-0.2812
59	0x3f79	1.868
60	0xb63a	-0.3892
61	0x410c	2.523
62	0x3fee	1.982
63	0x41d4	2.914
64	0x383a	0.5283
65	0xad29	-0.0806
66	0x368c	0.4092
67	0xbe21	-1.532
68	0x367e	0.4058
69	0x3513	0.3171
70	0x3c0f	1.015
71	0x3b57	0.9175
72	0xbefe	-1.748
73	0xb4d9	-0.303
74	0x3cc8	1.195
75	0xb474	-0.2783
76	0xbbf6	-0.995
77	0x3a92	0.8213
78	0xbf29	-1.79
79	0xb971	-0.68
80	0xb4b8	-0.295
81	0xb7b5	-0.4817
82	0x3af5	0.8696
83	0xbec4	-1.691
84	0x344e	0.269
85	0x3893	0.572
86	0xc5ee	-5.93
87	0xbe1b	-1.526
88	0xc4db	-4.855
89	0xb84d	-0.5376
90	0x367f	0.406
91	0xb8e0	-0.6094
92	0x35aa	0.354
93	0x412b	2.584
94	0x2a37	0.04855
95	0x3526	0.3218
96	0x3e7b	1.62
97	0xbf74	-1.863
98	0x35d3	0.364
99	0xbaae	-0.835
100	0xb584	-0.3447
101	0x3734	0.4502
102	0xb9ce	-0.7256
103	0x437a	3.738
104	0xaef3	-0.1086
105	0x3dd9	1.462
106	0x40e9	2.455
107	0x3bce	0.9756
108	0xbd9e	-1.404
109	0xba10	-0.758
110	0xb3ea	-0.2473
111	0x3c47	1.069
112	0xbe2a	-1.541
113	0xb773	-0.4656
114	0xbb0b	-0.8804
115	0x3c98	1.148
116	0xb005	-0.1256
117	0xb5a0	-0.3516
118	0x35a7	0.3533
119	0x4193	2.787
120	0x35f2	0.3716
121	0xb82c	-0.5215
122	0x3437	0.2634
123	0xbd68	-1.352
124	0x3f1f	1.78
125	0x3f0f	1.765
126	0x38ba	0.591
127	0x3370	0.2324
128	0x3705	0.4387
129	0xa6fb	-0.02727
130	0xadee	-0.09265
131	0xa5ca	-0.02261
132	0xbcbc	-1.184
133	0x43cc	3.898
134	0xb905	-0.6274
135	0xba26	-0.7686
136	0x32c7	0.2118
137	0xbbc4	-0.9707
138	0xb7c4	-0.4854
139	0xb789	-0.471
140	0xbc91	-1.142
141	0xb60c	-0.378
142	0x3055	0.1354
143	0x3f37	1.804
144	0xbffc	-1.996
145	0x375b	0.4597
146	0x311d	0.1598
147	0xc033	-2.1
148	0x3a5f	0.7964
149	0x359d	0.3508
150	0x3b7f	0.937
151	0x4098	2.297
152	0xba83	-0.814
153	0xbecf	-1.702
154	0xc038	-2.11
155	0xbf19	-1.774
156	0xb92d	-0.647
157	0xc096	-2.293
158	0xbf72	-1.861
159	0x4060	2.188
160	0x36e5	0.431
161	0x406f	2.217
162	0x2a97	0.05148
163	0x34e1	0.305
164	0xbc22	-1.033
165	0x36f8	0.4355
166	0xc378	-3.734
167	0x3f7e	1.873
168	0xc336	-3.605
169	0x31fc	0.187
170	0xc1e1	-2.94
171	0x335b	0.2299
172	0xb9bd	-0.7173
173	0x4072	2.223
174	0x3e8d	1.638
175	0x38d7	0.605
176	0xbab1	-0.8364
177	0xbe75	-1.614
178	0xbb90	-0.9453
179	0x35fb	0.3738
180	0x4121	2.564
181	0xbe7b	-1.62
182	0x39ae	0.71
183	0xc0c2	-2.379
184	0x3db2	1.424
185	0x36ab	0.4167
186	0xb920	-0.6406
187	0xba4f	-0.7886
188	0xc143	-2.63
189	0x31a1	0.1759
190	0xb64f	-0.3943
191	0x3330	0.2246
192	0xb569	-0.3381
193	0x4174	2.727
194	0x3f67	1.851
195	0x3152	0.1663
196	0xbcc3	-1.19
197	0x4021	2.064
198	0x3d9a	1.4
199	0xbdc1	-1.438
200	0x3dae	1.42
201	0x3b2e	0.8975
202	0xc0bc	-2.367
203	0xafaa	-0.11975
204	0x34c2	0.2974
205	0x3c92	1.143
206	0xb8f6	-0.62
207	0x3f0e	1.764
208	0x3a1f	0.765
209	0xb72e	-0.4487
210	0x3918	0.6367
211	0xb3c7	-0.243
212	0xbba3	-0.9546
213	0x37be	0.484
214	0x3c6f	1.108
215	0x3c71	1.11
216	0x3ea3	1.659
217	0xbf4e	-1.826
218	0xbbed	-0.9907
219	0xb8cb	-0.599
220	0x3c1a	1.025
221	0x3992	0.6963
222	0xba1a	-0.7627
223	0xbc6f	-1.108
224	0x3e2f	1.546
225	0x4431	4.19
226	0xb674	-0.4033
227	0x337b	0.2338
228	0x40d5	2.416
229	0xb766	-0.4624
230	0xb892	-0.5713
231	0x3eb9	1.681
232	0x3390	0.2363
233	0x2cae	0.0731
234	0xbc3e	-1.061
235	0x32c5	0.2115
236	0x3959	0.6685
237	0xa889	-0.03543
238	0x381e	0.5146
239	0x3c71	1.11
240	0x40b9	2.361
241	0x39eb	0.7397
242	0xb7af	-0.4802
243	0xc047	-2.139
244	0x378d	0.472
245	0x39e2	0.7354
246	0xb23e	-0.1951
247	0x3c7d	1.122
248	0xbc59	-1.087
249	0x4188	2.766
250	0xbc9a	-1.15
251	0x4247	3.139
252	0x287f	0.03513
253	0xbb81	-0.938
254	0xc046	-2.137
255	0x3862	0.548

conv2d_2/Bias f2 [16]
0	0x39a3	0.7046
1	0xbf15	-1.7705
2	0x4683	6.51
3	0xc276	-3.23
4	0xb585	-0.345
5	0x4539	5.223
6	0xc0a6	-2.324
7	0xc1f5	-2.979
8	0x2e72	0.1007
9	0x394d	0.6626
10	0x3c58	1.086
11	0x41c4	2.883
12	0xbd5f	-1.343
13	0xb2a7	-0.2079
14	0xc434	-4.203
15	0x3761	0.4612

conv2d_3/Kernel f2 [72, 1, 1, 16]
0	0x9150	-0.0006485
1	0x2b3e	0.05658
2	0x296f	0.04245
3	0x9e83	-0.00636
4	0xa8ec	-0.03845
5	0x2184	0.01077
6	0x2cf4	0.0774
7	0x3075	0.1393
8	0xa8d1	-0.03763
9	0x2401	0.01564
10	0xa98d	-0.04337
11	0xb17d	-0.1715
12	0x2a9a	0.05157
13	0xa75e	-0.02878
14	0x28cc	0.03748
15	0x93d9	-0.000958
16	0xb6b1	-0.4182
17	0x33b0	0.2402
18	0xbc22	-1.033
19	0x3c31	1.048
20	0xb712	-0.442
21	0x3d01	1.251
22	0xb69d	-0.4133
23	0x3b6e	0.9287
24	0xb585	-0.345
25	0xbd38	-1.305
26	0x3a33	0.775
27	0x34ce	0.3003
28	0x37ae	0.48
29	0x34b4	0.294
30	0xa7c7	-0.03038
31	0xb8cf	-0.601
32	0xa683	-0.02544
33	0xb46c	-0.2764
34	0x3359	0.2296
35	0xb00b	-0.1263
36	0xb4fc	-0.3115
37	0xbe98	-1.648
38	0x34da	0.3032
39	0xb830	-0.5234
40	0x2b2a	0.05597
41	0x2f50	0.11426
42	0xbd51	-1.329
43	0x331f	0.2225
44	0x3a66	0.8
45	0x3a8b	0.818
46	0x3191	0.174
47	0xb571	-0.34
48	0x358a	0.3462
49	0x2623	0.02397
50	0xb4d4	-0.3018
51	0x34ad	0.2922
52	0x3518	0.3184
53	0x317b	0.1713
54	0x318b	0.1732
55	0xa730	-0.02808
56	0x32d2	0.2131
57	0x29e4	0.04602
58	0xafe1	-0.1231
59	0xb978	-0.6836
60	0x2e6f	0.1005
61	0x386e	0.5537
62	0x320e	0.1892
63	0x2af1	0.05423
64	0x989d	-0.002253
65	0xafa4	-0.1194
66	0xa51a	-0.01993
67	0x268f	0.02562
68	0x2b6a	0.05792
69	0xaa30	-0.04834
70	0xb2bc	-0.2104
71	0xb3bb	-0.2416
72	0x2d05	0.0784
73	0xac5c	-0.0681
74	0x2a6f	0.05026
75	0x345c	0.2725
76	0xae7e	-0.10144
77	0x26e2	0.02689
78	0xa7dc	-0.0307
79	0x2595	0.0218
80	0xb017	-0.1278
81	0xb5c6	-0.3608
82	0xb20e	-0.1892
83	0xb8a6	-0.581
84	0x337a	0.2336
85	0xa8c7	-0.03732
86	0xb287	-0.204
87	0x9e59	-0.0062
88	0xb17a	-0.1711
89	0x2554	0.02081
90	0xa54a	-0.02066
91	0x312f	0.162
92	0x34c1	0.297
93	0xb87a	-0.5596
94	0x2f41	0.11334
95	0xb82d	-0.522
96	0x3678	0.4043
97	0xb977	-0.683
98	0xb8c3	-0.595
99	0x3aee	0.866
100	0x305e	0.1365
101	0xb055	-0.1354
102	0xb79d	-0.4758
103	0x33fa	0.2493
104	0x360e	0.3784
105	0x33a4	0.2388
106	0x3018	0.1279
107	0xb766	-0.4624
108	0x3071	0.1388
109	0x28d4	0.03772
110	0xb2cb	-0.2123
111	0x35e6	0.3687
112	0xaad7	-0.05344
113	0xb410	-0.254
114	0x2c41	0.06647
115	0x2874	0.0348
116	0xad69	-0.08453
117	0x34a6	0.2905
118	0x27a7	0.02989
119	0xa6c5	-0.02644
120	0x2793	0.02959
121	0xac7a	-0.06995
122	0x3379	0.2335
123	0xa944	-0.04114
124	0xa906	-0.03925
125	0xab57	-0.05734
126	0x24f5	0.01936
127	0x1ca3	0.004528
128	0x258f	0.02171
129	0xac2d	-0.06525
130	0xaa45	-0.04898
131	0xaf24	-0.1116
132	0x2a01	0.0469
133	0xab9c	-0.05945
134	0x1dc1	0.00562
135	0x298a	0.04327
136	0xadca	-0.09045
137	0xa7ba	-0.03018
138	0x2d77	0.0854
139	0xa61c	-0.02386
140	0xa4b2	-0.01834
141	0x193d	0.002558
142	0x331e	0.2224
143	0x25a7	0.02208
144	0x32a5	0.2076
145	0x29f1	0.04642
146	0xa214	-0.01187
147	0xb4a8	-0.291
148	0xb411	-0.2542
149	0xa925	-0.0402
150	0xb9cc	-0.7246
151	0xb08a	-0.1418
152	0x2f6d	0.116
153	0x3857	0.5425
154	0x3939	0.653
155	0x2e27	0.0961
156	0x3825	0.518
157	0x3836	0.5264
158	0x318e	0.1736
159	0xb316	-0.2214
160	0x1d49	0.00516
161	0x2f5c	0.115
162	0xab4b	-0.05698
163	0x1f98	0.007416
164	0x2d81	0.086
165	0xb146	-0.1648
166	0xaa47	-0.04904
167	0x29ff	0.04684
168	0xa898	-0.0359
169	0x24f7	0.0194
170	0xadbf	-0.0898
171	0x2571	0.02126
172	0x2b0a	0.055
173	0x2923	0.04013
174	0xa68e	-0.0256
175	0xa0ad	-0.00913
176	0x2fb4	0.12036
177	0x1708	0.001717
178	0x34db	0.3035
179	0xb70b	-0.4402
180	0x33f1	0.2482
181	0x382e	0.5225
182	0x30d5	0.151
183	0xac79	-0.0699
184	0x1f06	0.00686
185	0x364c	0.3936
186	0xb707	-0.4392
187	0x30c0	0.1484
188	0x3382	0.2346
189	0x304b	0.1342
190	0xad28	-0.08057
191	0x38ab	0.5835
192	0xb4ac	-0.292
193	0xaa45	-0.04898
194	0xb209	-0.1886
195	0xab04	-0.0548
196	0x34a6	0.2905
197	0xa83c	-0.03308
198	0x2a02	0.04694
199	0x284e	0.03363
200	0x1cbf	0.004635
201	0x2fa5	0.11945
202	0xa425	-0.01619
203	0x2ea2	0.10364
204	0xb2e7	-0.2157
205	0x9c55	-0.00423
206	0x31a5	0.1764
207	0x1966	0.002636
208	0x2ac7	0.05295
209	0x17b4	0.001881
210	0x25e3	0.023
211	0x320f	0.1893
212	0x320f	0.1893
213	0x27fd	0.0312
214	0x3558	0.334
215	0x2cb6	0.0736
216	0x2f09	0.1099
217	0xb5e9	-0.3694
218	0xb498	-0.287
219	0x2928	0.04028
220	0xb32b	-0.224
221	0xb07b	-0.14
222	0xaa4f	-0.0493
223	0xaf86	-0.11755
224	0xb6c9	-0.424
225	0x3788	0.4707
226	0x3112	0.1584
227	0x38b5	0.5884
228	0xb756	-0.4585
229	0xb517	-0.318
230	0x3c78	1.117
231	0xbaa1	-0.8286
232	0x29f5	0.04654
233	0x27ed	0.03096
234	0x3ac4	0.8457
235	0x385f	0.5464
236	0x3ed3	1.706
237	0xbcd7	-1.21
238	0xb316	-0.2214
239	0x3c63	1.097
240	0x3f88	1.883
241	0x2f12	0.1105
242	0x3183	0.1722
243	0x2e29	0.09625
244	0xb4ed	-0.3079
245	0x36f0	0.4336
246	0xbcd0	-1.203
247	0xb88c	-0.5684
248	0x2a1d	0.04776
249	0xb07a	-0.1399
250	0xa558	-0.02087
251	0xb3b5	-0.2408
252	0x3cd6	1.209
253	0x35ca	0.3618
254	0x3979	0.684
255	0x32b8	0.21

conv2d_3/Bias f2 [72]
0	0x3dd8	1.461
1	0x37f0	0.496
2	0x3d61	1.345
3	0x3a14	0.76
4	0x3c5c	1.09
5	0xb87b	-0.56
6	0x3b71	0.93
7	0x3b0f	0.8823
8	0x3d3c	1.309
9	0x3166	0.1687
10	0x3d70	1.359
11	0x393a	0.6533
12	0x3b0f	0.8823
13	0x41e8	2.953
14	0xbecc	-1.699
15	0x3cbc	1.184
16	0x3889	0.567
17	0xb1fd	-0.1871
18	0x3c56	1.084
19	0x3d25	1.286
20	0x3961	0.6724
21	0x374b	0.4558
22	0xb9de	-0.7334
23	0x3eb7	1.679
24	0xb4f9	-0.3108
25	0x3ce0	1.219
26	0x3b73	0.931
27	0x38cc	0.5996
28	0xb81e	-0.5146
29	0x3c53	1.081
30	0x3d7c	1.371
31	0x3af5	0.8696
32	0x3b5c	0.92
33	0x3c6c	1.105
34	0xb503	-0.3132
35	0x3e3d	1.56
36	0x3b58	0.918
37	0x3973	0.681
38	0x3c02	1.002
39	0x3c89	1.134
40	0x37a8	0.4785
41	0x39b7	0.7144
42	0x39a0	0.703
43	0x34cc	0.2998
44	0x3d7e	1.373
45	0x326e	0.2009
46	0x3b89	0.942
47	0x3bab	0.9585
48	0xbac5	-0.846
49	0xb417	-0.2556
50	0x3d26	1.287
51	0x39b7	0.7144
52	0x40a7	2.326
53	0x3519	0.3186
54	0x3a3f	0.781
55	0x42f1	3.47
56	0x3875	0.557
57	0xb49c	-0.288
58	0x3278	0.2021
59	0x3d54	1.332
60	0xb226	-0.1921
61	0x362f	0.3865
62	0x38d9	0.606
63	0x3999	0.6997
64	0x3dbd	1.435
65	0x3b89	0.942
66	0x3cea	1.229
67	0x3af3	0.8687
68	0xb04b	-0.1342
69	0x3a22	0.7666
70	0x335a	0.2297
71	0x3b4f	0.9136

depthwise_conv2d_1/Kernel f2 [1, 3, 3, 72]
0	0xc17b	-2.74
1	0x2833	0.0328
2	0x2d97	0.08734
3	0xb211	-0.1896
4	0x289b	0.03598
5	0x3aef	0.8667
6	0xad12	-0.0792
7	0xb9e1	-0.735
8	0x35bc	0.3584
9	0x333c	0.2261
10	0xc642	-6.258
11	0xabb2	-0.06012
12	0xb7f7	-0.4978
13	0x3a33	0.775
14	0xb198	-0.1748
15	0xaf5d	-0.11505
16	0xb868	-0.551
17	0xb4a1	-0.2893
18	0xb22c	-0.1929
19	0xc0c0	-2.375
20	0x346e	0.2769
21	0x2da9	0.08844
22	0x3f7f	1.874
23	0x42a7	3.326
24	0x2f4a	0.1139
25	0x3eb5	1.677
26	0x3664	0.3994
27	0xb0f0	-0.1543
28	0x31ce	0.1814
29	0x31fa	0.1868
30	0x42d3	3.412
31	0xb0f1	-0.1544
32	0xbe84	-1.629
33	0xad6c	-0.0847
34	0xb431	-0.262
35	0x28ae	0.03656
36	0x3b10	0.883
37	0xb1fd	-0.1871
38	0xb6a2	-0.4146
39	0xbc54	-1.082
40	0xb542	-0.3286
41	0xb1c3	-0.18
42	0x2e8d	0.10236
43	0x392c	0.6465
44	0xbd9c	-1.402
45	0x3783	0.4695
46	0xaf55	-0.11456
47	0xbdc8	-1.445
48	0x364c	0.3936
49	0xb266	-0.2
50	0xc100	-2.5
51	0x99df	-0.002867
52	0x3f32	1.799
53	0x2c22	0.0646
54	0xb92e	-0.6475
55	0x30c9	0.1495
56	0x390d	0.6313
57	0x341a	0.2563
58	0xb0ee	-0.154
59	0xc028	-2.078
60	0x3190	0.1738
61	0xa050	-0.00842
62	0x36bd	0.4211
63	0xb050	-0.1348
64	0xadeb	-0.09247
65	0x3ef4	1.738
66	0xa90d	-0.03946
67	0x3414	0.255
68	0xb8d8	-0.6055
69	0x29c1	0.04495
70	0xb2ed	-0.2164
71	0x3281	0.2032
72	0x4154	2.664
73	0x2d36	0.0814
74	0x30a9	0.1456
75	0xa634	-0.02423
76	0xbebd	-1.685
77	0x3bb7	0.9644
78	0xad18	-0.0796
79	0x4099	2.299
80	0x40cc	2.398
81	0x3290	0.2051
82	0xbc85	-1.13
83	0xb2ed	-0.2164
84	0x3047	0.1337
85	0xb007	-0.1259
86	0xb208	-0.1885
87	0xb2c5	-0.2115
88	0xb5fb	-0.3738
89	0xb4e9	-0.307
90	0xb44c	-0.2686
91	0x32a9	0.2081
92	0xb803	-0.5015
93	0x3223	0.1918
94	0x401f	2.06
95	0x4323	3.568
96	0x31be	0.1794
97	0x3c45	1.067
98	0x402f	2.092
99	0xb2a3	-0.2074
100	0x342e	0.2612
101	0xbe41	-1.563
102	0xc819	-8.195
103	0xb156	-0.1667
104	0xbad9	-0.856
105	0xb726	-0.4468
106	0xb292	-0.2053
107	0x3a6d	0.803
108	0x3be1	0.985
109	0xb3ba	-0.2415
110	0x2db7	0.0893
111	0xc214	-3.04
112	0x3b64	0.924
113	0xb46b	-0.2761
114	0x3249	0.1964
115	0x373b	0.452
116	0x38ca	0.5986
117	0x3ae0	0.8594
118	0xb532	-0.3247
119	0xbf72	-1.861
120	0x38eb	0.6147
121	0xb864	-0.549
122	0xc4a6	-4.65
123	0xb1d2	-0.1819
124	0x32e2	0.2151
125	0x3072	0.1389
126	0x39d1	0.727
127	0xa5a6	-0.02206
128	0x3c91	1.142
129	0x35fd	0.3743
130	0xb2e0	-0.2148
131	0x3346	0.2273
132	0x356d	0.339
133	0xba7c	-0.8105
134	0x2e73	0.10077
135	0xb411	-0.2542
136	0xb351	-0.2286
137	0xc23b	-3.115
138	0xadc8	-0.09033
139	0x39fb	0.7476
140	0xb95a	-0.669
141	0xb847	-0.5347
142	0xb5e9	-0.3694
143	0xb6da	-0.4282
144	0x3a09	0.7544
145	0x2507	0.01964
146	0x25c1	0.02248
147	0x2f09	0.1099
148	0x3ca2	1.158
149	0x36be	0.4214
150	0xa7ce	-0.03049
151	0x3869	0.5513
152	0xc2ac	-3.336
153	0x2b9a	0.0594
154	0x3636	0.3882
155	0xaa45	-0.04898
156	0x3916	0.6357
157	0xb537	-0.326
158	0xac98	-0.0718
159	0xafc5	-0.1214
160	0x9f27	-0.006985
161	0xb407	-0.2517
162	0xadec	-0.0925
163	0x3ee5	1.724
164	0x3479	0.2795
165	0x2373	0.01455
166	0x3bcf	0.976
167	0x3ade	0.8584
168	0x2bd7	0.06125
169	0xb660	-0.3984
170	0x409b	2.303
171	0xae7e	-0.10144
172	0x3175	0.1705
173	0xbe4f	-1.577
174	0x445b	4.355
175	0xb077	-0.1395
176	0xb347	-0.2274
177	0xb3db	-0.2455
178	0xad1d	-0.0799
179	0x393f	0.656
180	0x35ab	0.3542
181	0xb0dc	-0.1519
182	0x2ced	0.07697
183	0xb411	-0.2542
184	0xb878	-0.5586
185	0xab79	-0.05838
186	0x25fa	0.02335
187	0xb421	-0.258
188	0x3ea3	1.659
189	0xbb4d	-0.9126
190	0xb495	-0.2864
191	0xb6d5	-0.427
192	0x343e	0.2651
193	0xb8dd	-0.608
194	0xbe0d	-1.513
195	0xaf4b	-0.11395
196	0xbdb7	-1.429
197	0x2cf6	0.0775
198	0x2307	0.013725
199	0xb4b6	-0.2944
200	0x387f	0.562
201	0x31f6	0.1863
202	0xafd2	-0.1222
203	0x3e29	1.54
204	0x2d80	0.08594
205	0xba3b	-0.779
206	0xb0f6	-0.155
207	0x950b	-0.001231
208	0xaa37	-0.04855
209	0x3188	0.1729
210	0x1d05	0.0049
211	0xbf39	-1.806
212	0xb62c	-0.3857
213	0xaa8b	-0.05112
214	0xb3c2	-0.2424
215	0x3234	0.1938
216	0x3ce9	1.228
217	0x2e08	0.09424
218	0x3024	0.1294
219	0xb348	-0.2275
220	0xbed4	-1.707
221	0x3b31	0.899
222	0xae44	-0.0979
223	0x3b84	0.9395
224	0xbdba	-1.432
225	0x3533	0.325
226	0xbc50	-1.078
227	0xb211	-0.1896
228	0xbb36	-0.9014
229	0x3ac4	0.8457
230	0xb376	-0.2332
231	0xb13e	-0.1638
232	0xb724	-0.4463
233	0xb6fd	-0.4368
234	0xb3a9	-0.2394
235	0xc204	-3.008
236	0x3b21	0.891
237	0x31c4	0.1802
238	0x4098	2.297
239	0xc3b8	-3.86
240	0x30b2	0.1467
241	0x3df5	1.489
242	0xbe4b	-1.573
243	0xb0d5	-0.151
244	0x3455	0.2708
245	0x3e49	1.571
246	0xc481	-4.504
247	0xb0d9	-0.1515
248	0xb738	-0.4512
249	0x3d9f	1.405
250	0xb542	-0.3286
251	0x384e	0.538
252	0x373e	0.4526
253	0xb344	-0.227
254	0xb52a	-0.3228
255	0x3f34	1.801

depthwise_conv2d_1/Bias f2 [72]
0	0xbc37	-1.054
1	0xacc4	-0.07446
2	0x3091	0.1427
3	0x236b	0.01449
4	0x2c92	0.0714
5	0xb400	-0.25
6	0x40d1	2.408
7	0xb25d	-0.1989
8	0x3bf2	0.993
9	0x28ae	0.03656
10	0xb8a6	-0.581
11	0x3f10	1.766
12	0xb601	-0.3752
13	0x2c99	0.07184
14	0x3ef5	1.739
15	0x401d	2.057
16	0x3ca7	1.163
17	0x4105	2.51
18	0x403c	2.117
19	0xae98	-0.103
20	0xb442	-0.266
21	0x2684	0.02545
22	0xab3c	-0.05652
23	0xb69d	-0.4133
24	0x1f52	0.00715
25	0x29c2	0.04498
26	0xaab8	-0.0525
27	0x3e57	1.585
28	0xb6d7	-0.4275
29	0xa948	-0.04126
30	0x2c0b	0.0632
31	0x3d47	1.319
32	0x3c59	1.087
33	0x2c85	0.0706
34	0x400d	2.025
35	0xc08e	-2.277
36	0xaf6d	-0.116
37	0x3ff3	1.987
38	0x387f	0.562
39	0xb319	-0.2218
40	0x309e	0.1443
41	0x3df2	1.486
42	0x9a27	-0.003004
43	0xb72d	-0.4485
44	0xaad5	-0.05338
45	0xb552	-0.3325
46	0x3dbe	1.436
47	0x2844	0.03333
48	0x27b5	0.0301
49	0x4407	4.027
50	0x2d5f	0.0839
51	0x42d2	3.41
52	0x3cae	1.17
53	0x35ab	0.3542
54	0x1d04	0.004898
55	0x280f	0.0317
56	0x2cad	0.07306
57	0x1d4e	0.00518
58	0x3724	0.4463
59	0xa9e0	-0.0459
60	0x3415	0.2551
61	0xb911	-0.6333
62	0xabd9	-0.0613
63	0x3f70	1.859
64	0x431a	3.55
65	0x3981	0.688
66	0x3d13	1.269
67	0xb775	-0.466
68	0x40fc	2.492
69	0x3fa0	1.906
70	0x4412	4.07
71	0x2b53	0.05722

conv2d_4/Kernel f2 [24, 1, 1, 72]
0	0xa850	-0.0337
1	0x29ca	0.04523
2	0x3206	0.1882
3	0x2622	0.02396
4	0xaaaf	-0.05222
5	0xa451	-0.01686
6	0xac5c	-0.0681
7	0x2c2e	0.0653
8	0x91a2	-0.0006876
9	0xacc6	-0.0746
10	0x30bd	0.1481
11	0xacaa	-0.0729
12	0x2c48	0.0669
13	0xa458	-0.01697
14	0xa486	-0.01767
15	0xb046	-0.1335
16	0xac07	-0.0629
17	0xb1e2	-0.1838
18	0xaa19	-0.04764
19	0x3591	0.348
20	0xa984	-0.0431
21	0x2c2a	0.06506
22	0x9d3e	-0.00512
23	0x18a7	0.002272
24	0x2ec5	0.1058
25	0x3242	0.1956
26	0x2d76	0.0853
27	0xad6f	-0.0849
28	0xb11c	-0.1597
29	0x3165	0.1686
30	0xaa28	-0.0481
31	0xa945	-0.04117
32	0x2d7d	0.08575
33	0x9b51	-0.003572
34	0x2fc9	0.12164
35	0x31f0	0.1855
36	0x2835	0.03287
37	0x2bd2	0.0611
38	0x2fa1	0.1192
39	0x2d6d	0.0848
40	0xae42	-0.0978
41	0xad92	-0.08704
42	0x25c8	0.02258
43	0x28af	0.0366
44	0x3489	0.2834
45	0x2cc6	0.0746
46	0x2b5c	0.0575
47	0x2087	0.00884
48	0x2c27	0.0649
49	0xa9cb	-0.04526
50	0x9777	-0.001822
51	0xb14c	-0.1655
52	0xb0ce	-0.1501
53	0xaaa7	-0.05197
54	0x20c3	0.0093
55	0x287e	0.0351
56	0x2ac0	0.05273
57	0x2075	0.008705
58	0xb093	-0.143
59	0x348e	0.2847
60	0x250f	0.01976
61	0x1c25	0.004047
62	0x2930	0.04053
63	0x2cd5	0.0755
64	0x329f	0.2069
65	0x99da	-0.002857
66	0x2bce	0.06097
67	0x2914	0.03967
68	0x3002	0.1252
69	0x2ed4	0.1067
70	0xaf35	-0.1126
71	0xa567	-0.0211
72	0xb0b6	-0.1472
73	0xac9a	-0.0719
74	0xaf1c	-0.1111
75	0xace5	-0.0765
76	0xb08e	-0.1423
77	0xaf4d	-0.1141
78	0xa27d	-0.01267
79	0xa4ac	-0.01825
80	0xb2f9	-0.2179
81	0xabd2	-0.0611
82	0x2c82	0.07043
83	0x2c42	0.0665
84	0x2806	0.03143
85	0x3204	0.188
86	0xa780	-0.0293
87	0xafe5	-0.12335
88	0x1c0e	0.00396
89	0xb283	-0.2035
90	0xb0e6	-0.1531
91	0x30b8	0.1475
92	0xa4e9	-0.01918
93	0xb0fc	-0.1558
94	0xa92e	-0.04047
95	0xb1ab	-0.1771
96	0xb066	-0.1375
97	0x2ed9	0.107
98	0xb2f4	-0.2173
99	0x1c7e	0.004387
100	0xac42	-0.0665
101	0xad90	-0.0869
102	0xafa2	-0.11926
103	0xac4a	-0.067
104	0xb0fc	-0.1558
105	0xafce	-0.12195
106	0x306e	0.1384
107	0x30ea	0.1536
108	0xab96	-0.05927
109	0xacb0	-0.07324
110	0xa4db	-0.01897
111	0xb3e8	-0.2471
112	0x2c93	0.0715
113	0x2e55	0.09894
114	0xacb1	-0.0733
115	0xb516	-0.3179
116	0x2c3a	0.06604
117	0x1fa2	0.007454
118	0xaeab	-0.1042
119	0xaff8	-0.1245
120	0xa72e	-0.02805
121	0x2970	0.04248
122	0xad81	-0.086
123	0x2168	0.01056
124	0xaee5	-0.1077
125	0x2d7a	0.0856
126	0x29e5	0.04605
127	0xaea7	-0.10394
128	0xb4a1	-0.2893
129	0x352c	0.3232
130	0x176b	0.001811
131	0xa240	-0.01221
132	0xa0ef	-0.009636
133	0xb423	-0.2585
134	0x2e9d	0.10333
135	0x1917	0.002485
136	0xb4f0	-0.3086
137	0xb1d5	-0.1823
138	0xadb0	-0.08887
139	0xaf0d	-0.11017
140	0xb103	-0.1566
141	0xabb5	-0.0602
142	0x3718	0.4434
143	0x9902	-0.002445
144	0x2a27	0.04807
145	0xac4b	-0.0671
146	0xb121	-0.1603
147	0x2e9b	0.1032
148	0x28f4	0.0387
149	0x2506	0.01962
150	0x2cca	0.0748
151	0x298f	0.04343
152	0x24cf	0.01878
153	0xac0e	-0.06335
154	0x258b	0.02165
155	0xa7b3	-0.03008
156	0xaa99	-0.05154
157	0x2ab9	0.05252
158	0xa479	-0.01747
159	0x3072	0.1389
160	0xaa43	-0.04892
161	0x2cb1	0.0733
162	0xab37	-0.05637
163	0xa9ab	-0.04428
164	0x2d7b	0.08563
165	0xa4f0	-0.01929
166	0xaecb	-0.10614
167	0x28e3	0.03818
168	0xac6b	-0.06903
169	0x23e0	0.01538
170	0xa557	-0.02086
171	0xb091	-0.1427
172	0xacf5	-0.07745
173	0xab65	-0.05777
174	0x291a	0.03986
175	0xac97	-0.0717
176	0x1678	0.001579
177	0x2aba	0.05255
178	0xa9ec	-0.04626
179	0xada9	-0.08844
180	0xa137	-0.010185
181	0x31f5	0.1862
182	0x2292	0.01283
183	0x2784	0.02936
184	0x2ce3	0.07635
185	0xaed3	-0.1066
186	0xa80a	-0.03156
187	0xa137	-0.010185
188	0xa6d4	-0.02667
189	0xaae8	-0.05396
190	0xab85	-0.05875
191	0x2901	0.0391
192	0xa4d3	-0.01884
193	0x2a1d	0.04776
194	0x2dd4	0.09106
195	0x1f3d	0.00707
196	0xab90	-0.05908
197	0xaefd	-0.1092
198	0x2882	0.03522
199	0xae52	-0.09875
200	0x2a71	0.05032
201	0xb3d0	-0.2441
202	0xb015	-0.1276
203	0xa883	-0.03525
204	0x2172	0.010635
205	0x272d	0.02803
206	0x1f88	0.007355
207	0x32cd	0.2125
208	0x2246	0.01225
209	0x2320	0.013916
210	0x3171	0.17
211	0x28e0	0.0381
212	0xafc0	-0.1211
213	0x3425	0.259
214	0xb089	-0.1417
215	0x2bef	0.06198
216	0xac9b	-0.07196
217	0xaf2f	-0.11224
218	0x2601	0.02345
219	0xa2d4	-0.013336
220	0xaecb	-0.10614
221	0x1c83	0.004406
222	0xa420	-0.01611
223	0xac71	-0.0694
224	0x26d6	0.0267
225	0xb043	-0.1332
226	0xa5e5	-0.02303
227	0xada3	-0.0881
228	0xad01	-0.0782
229	0x2399	0.01484
230	0xac1f	-0.0644
231	0x22f1	0.01356
232	0x9e8b	-0.00639
233	0xaf7e	-0.11707
234	0x30a1	0.1447
235	0x2814	0.03186
236	0x28b5	0.03677
237	0xae8c	-0.1023
238	0x2ed2	0.10657
239	0x2cac	0.073
240	0xad20	-0.0801
241	0xac6a	-0.069
242	0x320e	0.1892
243	0xb15b	-0.1674
244	0x3127	0.161
245	0x300f	0.1268
246	0xad30	-0.08105
247	0x3176	0.1707
248	0x2165	0.01054
249	0x2d9b	0.0876
250	0x3034	0.1313
251	0xb14a	-0.1653
252	0x2bad	0.05997
253	0x25ab	0.02214
254	0x1d53	0.0052
255	0x3170	0.1699

conv2d_4/Bias f2 [24]
0	0xbcb0	-1.172
1	0x3c7d	1.122
2	0x3d17	1.272
3	0x38ab	0.5835
4	0xb96e	-0.6787
5	0xb6f0	-0.4336
6	0x3139	0.1632
7	0x3f45	1.817
8	0xb811	-0.5083
9	0xba5c	-0.795
10	0x34d6	0.3022
11	0x281e	0.03217
12	0x3a1b	0.763
13	0x3926	0.6436
14	0x2f20	0.1113
15	0xb14b	-0.1654
16	0x417d	2.744
17	0x329f	0.2069
18	0xae6c	-0.10034
19	0x35ba	0.358
20	0x3994	0.6973
21	0xa8dd	-0.038
22	0xb84f	-0.5386
23	0xb56a	-0.3384

conv2d_5/Kernel f2 [88, 1, 1, 24]
0	0x305e	0.1365
1	0x383b	0.529
2	0xa6e7	-0.02696
3	0x3123	0.1605
4	0xb7c7	-0.486
5	0xb9d8	-0.7305
6	0x3ddf	1.468
7	0xb9d4	-0.7285
8	0x38e6	0.6123
9	0xad3a	-0.08167
10	0xb83b	-0.529
11	0x301a	0.1282
12	0xb11f	-0.16
13	0x362c	0.3857
14	0x332b	0.224
15	0x3273	0.2015
16	0xb8fe	-0.624
17	0x332a	0.2239
18	0xb510	-0.3164
19	0x3847	0.5347
20	0x3615	0.3801
21	0xb00a	-0.1262
22	0x3df1	1.485
23	0x328b	0.2045
24	0xadc0	-0.08984
25	0x342d	0.261
26	0x9a4d	-0.003077
27	0xb466	-0.275
28	0xad5d	-0.0838
29	0x28ab	0.03647
30	0xb0f9	-0.1554
31	0xb452	-0.27
32	0x2c02	0.0626
33	0x2d49	0.0826
34	0x3220	0.1914
35	0xaefc	-0.10913
36	0xa970	-0.04248
37	0xb734	-0.4502
38	0x2375	0.014565
39	0x2ed2	0.10657
40	0xb0ac	-0.146
41	0xa870	-0.03467
42	0xaa23	-0.04794
43	0x2dc5	0.09015
44	0xadf4	-0.093
45	0x307e	0.1404
46	0xab13	-0.05527
47	0xb5a3	-0.3523
48	0x2793	0.02959
49	0xa468	-0.01721
50	0xad75	-0.08527
51	0x2be3	0.0616
52	0x20c2	0.00929
53	0xac5e	-0.06824
54	0x23b0	0.015015
55	0x96b7	-0.001639
56	0x248d	0.01778
57	0xad64	-0.0842
58	0xaf7e	-0.11707
59	0xb047	-0.1337
60	0xb088	-0.1416
61	0x30f7	0.1552
62	0xa936	-0.0407
63	0xace7	-0.0766
64	0x31ff	0.1874
65	0xb3a2	-0.2385
66	0x2028	0.00812
67	0x2d63	0.08417
68	0x9eb8	-0.00656
69	0xb542	-0.3286
70	0xae01	-0.0938
71	0x352e	0.3237
72	0x3475	0.2786
73	0xad8b	-0.0866
74	0xb3d0	-0.2441
75	0xb00d	-0.1266
76	0xa9eb	-0.04623
77	0x9d74	-0.005325
78	0x30de	0.1521
79	0x2b63	0.0577
80	0xaa17	-0.04758
81	0xb1af	-0.1776
82	0x2a9a	0.05157
83	0x3103	0.1566
84	0xb468	-0.2754
85	0xab0c	-0.05505
86	0x2a29	0.04813
87	0xb31a	-0.2219
88	0xad98	-0.0874
89	0xaca8	-0.07275
90	0xb1a6	-0.1765
91	0xa244	-0.01224
92	0xaa06	-0.04706
93	0x2b31	0.05618
94	0xa79a	-0.0297
95	0x29f6	0.04657
96	0x99f4	-0.002907
97	0x3653	0.3953
98	0xb397	-0.2372
99	0xb84f	-0.5386
100	0x328b	0.2045
101	0x3115	0.1588
102	0x2983	0.04306
103	0xb6aa	-0.4165
104	0xa3cc	-0.01523
105	0xa2bb	-0.013145
106	0x3237	0.1942
107	0x2b89	0.05887
108	0x2d87	0.08636
109	0xb830	-0.5234
110	0x2cc6	0.0746
111	0xac7a	-0.06995
112	0xa230	-0.012085
113	0xb10f	-0.1581
114	0x326f	0.201
115	0x1f6c	0.007248
116	0xb188	-0.1729
117	0xae8d	-0.10236
118	0xb04b	-0.1342
119	0xb1cd	-0.1813
120	0xabfe	-0.06244
121	0xa35b	-0.014366
122	0xae14	-0.095
123	0xb03e	-0.1326
124	0xad0d	-0.0789
125	0x3056	0.1355
126	0x1c53	0.004223
127	0x2ade	0.05365
128	0xac8a	-0.0709
129	0xb520	-0.3203
130	0xa74c	-0.0285
131	0x9957	-0.002607
132	0x1f52	0.00715
133	0x239f	0.014885
134	0x2c46	0.0668
135	0x2f83	0.1174
136	0x31cc	0.1812
137	0xacaf	-0.0732
138	0xa117	-0.00994
139	0xa4e1	-0.01906
140	0xb06a	-0.138
141	0xaaab	-0.0521
142	0xa9a4	-0.04407
143	0xaca6	-0.07263
144	0x2d3f	0.082
145	0x2b0a	0.055
146	0x31c1	0.1798
147	0x3377	0.2333
148	0x2927	0.04025
149	0x30f0	0.1543
150	0x2c7f	0.07025
151	0xb05c	-0.1362
152	0xad03	-0.0783
153	0x32d8	0.2139
154	0xa485	-0.01765
155	0xb17c	-0.1714
156	0x32fb	0.2181
157	0x2e4b	0.0983
158	0x2d41	0.0821
159	0x3227	0.1923
160	0x299a	0.04376
161	0x2961	0.04202
162	0x2762	0.02884
163	0x294b	0.04135
164	0xb17c	-0.1714
165	0xaf29	-0.1119
166	0xb093	-0.143
167	0xb15e	-0.1677
168	0xb2ed	-0.2164
169	0x350b	0.3152
170	0xb933	-0.65
171	0x2a4b	0.04916
172	0xad23	-0.08026
173	0x2d30	0.08105
174	0xae0f	-0.09467
175	0xb76f	-0.4646
176	0x33b7	0.2411
177	0x2df4	0.093
178	0x364b	0.3933
179	0x324b	0.1967
180	0x3536	0.3257
181	0xa81b	-0.03207
182	0x2ddb	0.0915
183	0x2f67	0.11566
184	0x2c25	0.06476
185	0xa9a7	-0.04416
186	0x366a	0.401
187	0xa323	-0.01394
188	0xadb2	-0.089
189	0x278f	0.02953
190	0x34e0	0.3047
191	0xb770	-0.4648
192	0x3201	0.1876
193	0xab28	-0.0559
194	0x3752	0.4575
195	0xb0e4	-0.1528
196	0xab3f	-0.0566
197	0x24fa	0.01944
198	0xa967	-0.0422
199	0x2e2b	0.0964
200	0xa7f2	-0.03104
201	0x2f62	0.11536
202	0x3401	0.2502
203	0x2e62	0.09973
204	0xaa4e	-0.04926
205	0x2ddf	0.09174
206	0x2a79	0.05057
207	0x25aa	0.02213
208	0xa6ad	-0.02608
209	0x2ac4	0.05286
210	0x3551	0.3323
211	0xa7ff	-0.03123
212	0x315a	0.1672
213	0xae73	-0.10077
214	0x2d89	0.0865
215	0x2a3e	0.04877
216	0x2e60	0.0996
217	0x3ad2	0.8525
218	0xb636	-0.3882
219	0xbc40	-1.0625
220	0x2e8c	0.1023
221	0x365b	0.3972
222	0xb3c6	-0.2429
223	0xbe06	-1.506
224	0x2c35	0.06573
225	0xb496	-0.2866
226	0x39da	0.7314
227	0xbc62	-1.096
228	0xba0b	-0.7554
229	0xbc43	-1.065
230	0xa561	-0.02101
231	0x33d5	0.2448
232	0xb6e1	-0.43
233	0xb8ad	-0.5845
234	0x3a52	0.79
235	0xbbb1	-0.9614
236	0xb545	-0.3293
237	0x3a07	0.7534
238	0xb474	-0.2783
239	0xbb11	-0.8833
240	0xad6b	-0.08466
241	0x35ef	0.3708
242	0xb1b9	-0.1788
243	0xaed3	-0.1066
244	0x37ea	0.4946
245	0xb489	-0.2834
246	0x2a2a	0.04816
247	0x330b	0.2201
248	0x31c4	0.1802
249	0x366f	0.402
250	0xb90f	-0.6323
251	0xb88e	-0.5693
252	0x2f9f	0.1191
253	0x8d03	-0.000306
254	0xb907	-0.6284
255	0x3661	0.3987
