Assets/StreamingAssets/style_transfer_quantized_384.tflite (tflite, 284398 bytes, 42 tensors)

style_params/transformer/expand/conv1/conv/StyleNorm/Conv/weights i1 [16, 1, 1, 100]
00000000: 65cd a438 01ec cd3c bf7f 32f1 4023 52fd
00000010: 20b9 59c2 c008 eab9 3f1e 79b3 b707 fb0e
00000020: 5de3 f5a9 f305 f8a9 f652 bcd1 df4b c923
00000030: fafd f865 0b4f 4cd8 b856 d519 5312 50a4
00000040: e59c 08ab e618 540b 0fd7 9bbe bae9 19ce
00000050: 08f9 d642 ca14 cef4 0905 4edb 1d60 4733
00000060: 3cd5 1cac 02c0 64e6 2863 2752 dffb 01b3
00000070: cb29 29f1 399c 293f 3e1c 4735 7f1a 3d04
00000080: 1a2c de25 dd26 dbbc ba29 f017 1fb6 a7f8
00000090: f43d dffc e04d 4e3a 1118 f6d1 2827 0862
000000a0: 253b 0dff cca8 c1ec e9d4 b706 2814 e512
000000b0: 10df d519 9c13 023a 284e c416 56ff 2000
000000c0: 474a 2edd 7819 f2ad a3ec ef00 ceac 8507
000000d0: a10b 2ab1 1a07 02c9 b427 a87f 31d4 fcb1
000000e0: 08b9 f334 a2a8 ab2a 1abc d9d0 a4b6 1d44
000000f0: 3faf 5be5 56cf c558 711d 963f d455 f1eb
101 -51 -92 56 1 -20 -51 60
-65 127 50 -15 64 35 82 -3
32 -71 89 -62 -64 8 -22 -71
63 30 121 -77 -73 7 -5 14
93 -29 -11 -87 -13 5 -8 -87
-10 82 -68 -47 -33 75 -55 35
-6 -3 -8 101 11 79 76 -40
-72 86 -43 25 83 18 80 -92
-27 -100 8 -85 -26 24 84 11
15 -41 -101 -66 -70 -23 25 -50
8 -7 -42 66 -54 20 -50 -12
9 5 78 -37 29 96 71 51
60 -43 28 -84 2 -64 100 -26
40 99 39 82 -33 -5 1 -77
-53 41 41 -15 57 -100 41 63
62 28 71 53 127 26 61 4
26 44 -34 37 -35 38 -37 -68
-70 41 -16 23 31 -74 -89 -8
-12 61 -33 -4 -32 77 78 58
17 24 -10 -47 40 39 8 98
37 59 13 -1 -52 -88 -63 -20
-23 -44 -73 6 40 20 -27 18
16 -33 -43 25 -100 19 2 58
40 78 -60 22 86 -1 32 0
71 74 46 -35 120 25 -14 -83
-93 -20 -17 0 -50 -84 -123 7
-95 11 42 -79 26 7 2 -55
-76 39 -88 127 49 -44 -4 -79
8 -71 -13 52 -94 -88 -85 42
26 -68 -39 -48 -92 -74 29 68
63 -81 91 -27 86 -49 -59 88
113 29 -106 63 -44 85 -15 -21

style_params/transformer/expand/conv1/conv/StyleNorm/Conv_1/weights i1 [16, 1, 1, 100]
00000000: bc5f 741c e375 48d4 40d3 5539 26ec 2232
00000010: ee24 a227 b036 c01b ba1c 42d4 7cf9 fa3c
00000020: 1d57 3dea 21ea b02c 0343 e039 2bfd 29de
00000030: 92dc 1252 cd94 ccdf 1750 7b3f 5b50 276e
00000040: 05fe 0356 43ba d7be d99a 4117 2ffd 24a2
00000050: 197f 618d dcd5 5a4f 4e62 50f0 ea65 1243
00000060: 2db5 95a5 9e71 5ea5 49ae eb22 69f2 66cf
00000070: 4851 9d6b 35a6 22c4 bc49 d691 3b20 c3a8
00000080: d9a6 99a8 d3ab 96a8 da1f 5f24 90b0 a1b1
00000090: d542 4481 b9f9 f24e 143c 1626 a8f8 1532
000000a0: 1958 1c5e 1be7 00de 37a6 98f8 baa6 01a3
000000b0: a8a6 25a9 22fc fa28 d6ab e16d 5104 0af0
000000c0: 055a e944 4af1 b9d6 c3a1 bb07 3546 eacb
000000d0: ab46 c79a ea04 dfca 1855 f3d6 0021 dcf0
000000e0: e25c 6524 a68b adb4 a3f8 7ff4 12e5 3adf
000000f0: e421 c3f7 e43d c9de b897 4d2f dd15 16e4
-68 95 116 28 -29 117 72 -44
64 -45 85 57 38 -20 34 50
-18 36 -94 39 -80 54 -64 27
-70 28 66 -44 124 -7 -6 60
29 87 61 -22 33 -22 -80 44
3 67 -32 57 43 -3 41 -34
-110 -36 18 82 -51 -108 -52 -33
23 80 123 63 91 80 39 110
5 -2 3 86 67 -70 -41 -66
-39 -102 65 23 47 -3 36 -94
25 127 97 -115 -36 -43 90 79
78 98 80 -16 -22 101 18 67
45 -75 -107 -91 -98 113 94 -91
73 -82 -21 34 105 -14 102 -49
72 81 -99 107 53 -90 34 -60
-68 73 -42 -111 59 32 -61 -88
-39 -90 -103 -88 -45 -85 -106 -88
-38 31 95 36 -112 -80 -95 -79
-43 66 68 -127 -71 -7 -14 78
20 60 22 38 -88 -8 21 50
25 88 28 94 27 -25 0 -34
55 -90 -104 -8 -70 -90 1 -93
-88 -90 37 -87 34 -4 -6 40
-42 -85 -31 109 81 4 10 -16
5 90 -23 68 74 -15 -71 -42
-61 -95 -69 7 53 70 -22 -53
-85 70 -57 -102 -22 4 -33 -54
24 85 -13 -42 0 33 -36 -16
-30 92 101 36 -90 -117 -83 -76
-93 -8 127 -12 18 -27 58 -33
-28 33 -61 -9 -28 61 -55 -34
-72 -105 77 47 -35 21 22 -28

style_params/transformer/expand/conv2/conv/StyleNorm/Conv/weights i1 [8, 1, 1, 100]
00000000: 9de8 ba4e 0a35 c1fb 2d3e 07dd 7fb4 5325
00000010: db4d 19dc 23dd 19cd b43f a6bf 56d4 8c2b
00000020: f93c 830c 2d39 2df4 3dda 4450 dbcd 4ffb
00000030: e991 18ff 0da8 632f 422d 0560 00fd b843
00000040: aa3b e150 2ee8 d1a0 a1f8 ec5e 17d9 023a
00000050: e75b ceda bc19 4bd3 c3f4 172b 48d3 c520
00000060: c7e4 0330 62b7 13d4 b0f0 1e1b ce53 7fa8
00000070: 3a28 183b f44a 3bc8 845d 2c0a c326 cadd
00000080: 3604 12f1 d51a b21c e1ff f709 76f2 e010
00000090: fcf5 561c e20d 4154 394d 3938 ed2b c85f
000000a0: d757 f32e b954 f401 1bb3 a690 b909 e31b
000000b0: 0304 f7cc 1038 aa1b 1121 3fe0 72b1 37d6
000000c0: 3762 a6a9 e2b3 34fc 2e81 fd17 ce3f 0b3a
000000d0: 48bb f3fa 45c0 140a d107 39ea 2c59 c6ea
000000e0: dfde dce8 4129 e531 cee5 d52b 202b 1235
000000f0: 18af bf06 e1f8 1bfb b7cb 23b9 120f 18e1
-99 -24 -70 78 10 53 -63 -5
45 62 7 -35 127 -76 83 37
-37 77 25 -36 35 -35 25 -51
-76 63 -90 -65 86 -44 -116 43
-7 60 -125 12 45 57 45 -12
61 -38 68 80 -37 -51 79 -5
-23 -111 24 -1 13 -88 99 47
66 45 5 96 0 -3 -72 67
-86 59 -31 80 46 -24 -47 -96
-95 -8 -20 94 23 -39 2 58
-25 91 -50 -38 -68 25 75 -45
-61 -12 23 43 72 -45 -59 32
-57 -28 3 48 98 -73 19 -44
-80 -16 30 27 -50 83 127 -88
58 40 24 59 -12 74 59 -56
-124 93 44 10 -61 38 -54 -35
54 4 18 -15 -43 26 -78 28
-31 -1 -9 9 118 -14 -32 16
-4 -11 86 28 -30 13 65 84
57 77 57 56 -19 43 -56 95
-41 87 -13 46 -71 84 -12 1
27 -77 -90 -112 -71 9 -29 27
3 4 -9 -52 16 56 -86 27
17 33 63 -32 114 -79 55 -42
55 98 -90 -87 -30 -77 52 -4
46 -127 -3 23 -50 63 11 58
72 -69 -13 -6 69 -64 20 10
-47 7 57 -22 44 89 -58 -22
-33 -34 -36 -24 65 41 -27 49
-50 -27 -43 43 32 43 18 53
24 -81 -65 6 -31 -8 27 -5
-73 -53 35 -71 18 15 24 -31

style_params/transformer/expand/conv2/conv/StyleNorm/Conv_1/weights i1 [8, 1, 1, 100]
00000000: 701c b8ce 1753 d002 f9a3 536e f9a7 a098
00000010: 2fba 17c4 baeb 9fed 05be eff6 4de8 09c6
00000020: f325 2d4d ee0a b051 cc28 9cbe 1324 338c
00000030: b816 614b e54f 14b8 6416 0ff4 9ffb 8a14
00000040: 6809 cadf 58ae 34ff baaa ec68 082b f495
00000050: 6dbc 6f57 40c0 a717 813d 0550 b32b 71a5
00000060: 6b3b e130 f96c 3e66 4d40 e895 2562 2eb3
00000070: fc24 eeda 1912 fcfc 9103 042e bec4 1120
00000080: fac0 20c3 6fb5 0bff 44ea 075e b110 2274
00000090: 24c9 e204 f305 af37 55f2 1964 ef51 53e6
000000a0: e41b 3f81 1873 d07f 4e35 9328 90c0 bcbe
000000b0: df3b 3a63 c2d0 cb44 0c0e f60f 33af 3a3d
000000c0: f800 be8e f787 8e55 8354 229f d808 a341
000000d0: 3422 c93e 5489 534e 5735 5303 b568 8684
000000e0: b086 5164 a5f0 15c9 223d 3d44 3ebb b551
000000f0: d099 3a21 1ec7 fddc 4a16 9c20 f4ea 285b
112 28 -72 -50 23 83 -48 2
-7 -93 83 110 -7 -89 -96 -104
47 -70 23 -60 -70 -21 -97 -19
5 -66 -17 -10 77 -24 9 -58
-13 37 45 77 -18 10 -80 81
-52 40 -100 -66 19 36 51 -116
-72 22 97 75 -27 79 20 -72
100 22 15 -12 -97 -5 -118 20
104 9 -54 -33 88 -82 52 -1
-70 -86 -20 104 8 43 -12 -107
109 -68 111 87 64 -64 -89 23
-127 61 5 80 -77 43 113 -91
107 59 -31 48 -7 108 62 102
77 64 -24 -107 37 98 46 -77
-4 36 -18 -38 25 18 -4 -4
-111 3 4 46 -66 -60 17 32
-6 -64 32 -61 111 -75 11 -1
68 -22 7 94 -79 16 34 116
36 -55 -30 4 -13 5 -81 55
85 -14 25 100 -17 81 83 -26
-28 27 63 -127 24 115 -48 127
78 53 -109 40 -112 -64 -68 -66
-33 59 58 99 -62 -48 -53 68
12 14 -10 15 51 -81 58 61
-8 0 -66 -114 -9 -121 -114 85
-125 84 34 -97 -40 8 -93 65
52 34 -55 62 84 -119 83 78
87 53 83 3 -75 104 -122 -124
-80 -122 81 100 -91 -16 21 -55
34 61 61 68 62 -69 -75 81
-48 -103 58 33 30 -57 -3 -36
74 22 -100 32 -12 -22 40 91

style_params/transformer/expand/conv3/conv/StyleNorm/Conv/weights i1 [3, 1, 1, 100]
00000000: 9fad 4e21 e453 ed32 c1f7 c1dc 3195 88d0
00000010: 8d0a c023 1a17 bc8e 5dcd a433 7dd9 b09c
00000020: 782b 7f1a 7e40 9a83 99b9 e4e7 1631 44ea
00000030: 8617 38a9 b779 07a4 e064 7e88 1528 59bf
00000040: c2f2 e079 edfb be0d 8585 b6d0 2f22 d09b
00000050: 09dc a7e8 a90a 11b4 3aaf c933 8ef3 9510
00000060: fc2b 11b2 a1dd 2ce0 68d5 1d99 ade3 58a6
00000070: afb2 a9fa 0827 ca1d 711d 58bc ac1b c414
00000080: 5f45 4e61 6824 0717 41a7 c38f c3e9 c907
00000090: 2a44 b2be a818 32a1 be09 d7fe d2ff ed9f
000000a0: 6615 f828 a79c 3ef9 48d8 af2d 2089 8dab
000000b0: a832 9d90 4ab6 b4e3 0f43 d95d 6c3f 9d1a
000000c0: d5ea faba 450d 7ff3 d138 a0b0 26bd a5de
000000d0: bf54 5ab0 afbf f21e 3bf5 a296 949a 8fbb
000000e0: a575 a856 e62d a9c8 a554 31d6 18d9 b7e2
000000f0: 0cc8 faac f8f8 2b0f a09b 73f9 12fa 3943
-97 -83 78 33 -28 83 -19 50
-63 -9 -63 -36 49 -107 -120 -48
-115 10 -64 35 26 23 -68 -114
93 -51 -92 51 125 -39 -80 -100
120 43 127 26 126 64 -102 -125
-103 -71 -28 -25 22 49 68 -22
-122 23 56 -87 -73 121 7 -92
-32 100 126 -120 21 40 89 -65
-62 -14 -32 121 -19 -5 -66 13
-123 -123 -74 -48 47 34 -48 -101
9 -36 -89 -24 -87 10 17 -76
58 -81 -55 51 -114 -13 -107 16
-4 43 17 -78 -95 -35 44 -32
104 -43 29 -103 -83 -29 88 -90
-81 -78 -87 -6 8 39 -54 29
113 29 88 -68 -84 27 -60 20
95 69 78 97 104 36 7 23
65 -89 -61 -113 -61 -23 -55 7
42 68 -78 -66 -88 24 50 -95
-66 9 -41 -2 -46 -1 -19 -97
102 21 -8 40 -89 -100 62 -7
72 -40 -81 45 32 -119 -115 -85
-88 50 -99 -112 74 -74 -76 -29
15 67 -39 93 108 63 -99 26
-43 -22 -6 -70 69 13 127 -13
-47 56 -96 -80 38 -67 -91 -34
-65 84 90 -80 -81 -65 -14 30
59 -11 -94 -106 -108 -102 -113 -69
-91 117 -88 86 -26 45 -87 -56
-91 84 49 -42 24 -39 -73 -30
12 -56 -6 -84 -8 -8 43 15
-96 -101 115 -7 18 -6 57 67

style_params/transformer/expand/conv3/conv/StyleNorm/Conv_1/weights i1 [3, 1, 1, 100]
00000000: c3d8 3178 4fa0 ea8b 4833 bd76 13ca ecb8
00000010: eca8 c20a 3535 3d35 6ce4 9851 b8d5 6a09
00000020: 901c fa34 cebe e109 7fca 9903 3934 0522
00000030: de34 1a00 f561 192b 52bb 5874 e88c 8bfe
00000040: 37e1 45e3 ac04 9ff5 f9ae 0821 c72b e2c0
00000050: 498b 6841 fd35 1ebf a0c6 350b 070e ef55
00000060: e6b3 de66 3132 3f39 e92a 74c2 3f19 4ae3
00000070: 1651 a8a1 32f1 64aa e6ae 0b8f d421 7fb5
00000080: 4c00 a8cf 4efc 00ef fafc d2ec 30e2 c60c
00000090: bcdd c7e8 ccd8 bb1e e111 3b59 aad6 0414
000000a0: db26 b5fc 9a15 28da f2a9 143c bccf 9a96
000000b0: 622e b3bd 6820 e212 3a0c 4556 2324 50b7
000000c0: d8ba 6057 3708 f1c4 b448 e8ed d73b db15
000000d0: afd1 49c4 1ce3 a838 f823 0981 0c03 5512
000000e0: 0514 b40c 16b7 af36 10ec 0dfa 48ce 9c38
000000f0: b4a2 5fd2 5834 da39 ad34 dead 42f4 bfbf
-61 -40 49 120 79 -96 -22 -117
72 51 -67 118 19 -54 -20 -72
-20 -88 -62 10 53 53 61 53
108 -28 -104 81 -72 -43 106 9
-112 28 -6 52 -50 -66 -31 9
127 -54 -103 3 57 52 5 34
-34 52 26 0 -11 97 25 43
82 -69 88 116 -24 -116 -117 -2
55 -31 69 -29 -84 4 -97 -11
-7 -82 8 33 -57 43 -30 -64
73 -117 104 65 -3 53 30 -65
-96 -58 53 11 7 14 -17 85
-26 -77 -34 102 49 50 63 57
-23 42 116 -62 63 25 74 -29
22 81 -88 -95 50 -15 100 -86
-26 -82 11 -113 -44 33 127 -75
76 0 -88 -49 78 -4 0 -17
-6 -4 -46 -20 48 -30 -58 12
-68 -35 -57 -24 -52 -40 -69 30
-31 17 59 89 -86 -42 4 20
-37 38 -75 -4 -102 21 40 -38
-14 -87 20 60 -68 -49 -102 -106
98 46 -77 -67 104 32 -30 18
58 12 69 86 35 36 80 -73
-40 -70 96 87 55 8 -15 -60
-76 72 -24 -19 -41 59 -37 21
-81 -47 73 -60 28 -29 -88 56
-8 35 9 -127 12 3 85 18
5 20 -76 12 22 -73 -81 54
16 -20 13 -6 72 -50 -100 56
-76 -94 95 -46 88 52 -38 57
-83 52 -34 -83 66 -12 -65 -65

style_params/transformer/residual/residual1/conv1/StyleNorm/Conv/weights i1 [32, 1, 1, 100]
00000000: 41d4 04b3 b523 02d7 ee1b 2a01 fac6 5957
00000010: db3b a2e3 a0cf c2b6 49d0 55a3 23e9 bd2b
00000020: f50c 2cbc 01e9 9169 f536 bf09 130f d412
00000030: 7ff5 b53f 1133 11d3 0ffa 2aeb 5db4 003c
00000040: 3601 17b7 2409 2423 fc1c b5d1 3ba7 db1c
00000050: 4ed5 e53b d23f a5d5 f1f2 aed0 faeb f654
00000060: a148 c71d 25b3 2ef5 9129 ddfb d61a 2ad3
00000070: 32ed 2313 afcd 3f4a e4b2 5c3c d909 da48
00000080: 5de3 0d37 3c3a aed3 444d 4a12 332f 25f1
00000090: d27f 5502 029a 2e01 a30a fde9 36fc e3ad
000000a0: c425 e0bf 2fff c841 e431 0b66 bad6 60cd
000000b0: 4d06 d22a e2d8 688a fb02 c2e4 3ed5 10f3
000000c0: 5afc a8de c257 ca10 354a 40ec 04c6 1812
000000d0: d50a 23d0 043e 3b30 2327 1466 81d3 fe9d
000000e0: 5d44 5019 05b8 9d01 e89c 1801 25f4 0401
000000f0: 5be1 b301 30f5 a630 77cf 3fd5 42e0 b9dd
65 -44 4 -77 -75 35 2 -41
-18 27 42 1 -6 -58 89 87
-37 59 -94 -29 -96 -49 -62 -74
73 -48 85 -93 35 -23 -67 43
-11 12 44 -68 1 -23 -111 105
-11 54 -65 9 19 15 -44 18
127 -11 -75 63 17 51 17 -45
15 -6 42 -21 93 -76 0 60
54 1 23 -73 36 9 36 35
-4 28 -75 -47 59 -89 -37 28
78 -43 -27 59 -46 63 -91 -43
-15 -14 -82 -48 -6 -21 -10 84
-95 72 -57 29 37 -77 46 -11
-111 41 -35 -5 -42 26 42 -45
50 -19 35 19 -81 -51 63 74
-28 -78 92 60 -39 9 -38 72
93 -29 13 55 60 58 -82 -45
68 77 74 18 51 47 37 -15
-46 127 85 2 2 -102 46 1
-93 10 -3 -23 54 -4 -29 -83
-60 37 -32 -65 47 -1 -56 65
-28 49 11 102 -70 -42 96 -51
77 6 -46 42 -30 -40 104 -118
-5 2 -62 -28 62 -43 16 -13
90 -4 -88 -34 -62 87 -54 16
53 74 64 -20 4 -58 24 18
-43 10 35 -48 4 62 59 48
35 39 20 102 -127 -45 -2 -99
93 68 80 25 5 -72 -99 1
-24 -100 24 1 37 -12 4 1
91 -31 -77 1 48 -11 -90 48
119 -49 63 -43 66 -32 -71 -35

style_params/transformer/residual/residual1/conv1/StyleNorm/Conv_1/weights i1 [32, 1, 1, 100]
00000000: 25a3 81e4 03df c20d fbc8 c699 0c14 ab05
00000010: 2cc3 34a9 34f7 3507 8ed9 1572 4365 7812
00000020: 43d5 c23d d722 1c05 08e9 f7e0 6967 4516
00000030: e323 bc47 0d22 da31 0a39 f6ee bce8 3fcc
00000040: 3fbb b506 04c5 6a5f 02f5 043c 0cef cf6f
00000050: 9acf becf 25c0 b721 fc00 940b f3c4 124b
00000060: c2d1 32fc 0714 3d0c a772 d24c a2cd d7fe
00000070: ab07 6746 dcac 6281 53ee 0e14 f42e c8e2
00000080: 5b43 162a 244d e526 f75d 73b9 a0e7 1e5f
00000090: db4a b664 1ef6 5726 cfb6 12ad 4133 4450
000000a0: fdac fe95 534f d2c7 f72e 161b 0ed4 515a
000000b0: da41 5736 05bb dcc1 be15 d865 53c1 2b06
000000c0: 45ed a5b3 ec30 4416 1bef 4033 c132 c960
000000d0: 4fb3 40c4 a50e ca7f ba15 5533 bc04 e80f
000000e0: 2915 cfe6 16d2 146c cb03 2b48 8f10 9533
000000f0: feed e535 c7ed 0599 1652 055b 30be c954
37 -93 -127 -28 3 -33 -62 13
-5 -56 -58 -103 12 20 -85 5
44 -61 52 -87 52 -9 53 7
-114 -39 21 114 67 101 120 18
67 -43 -62 61 -41 34 28 5
8 -23 -9 -32 105 103 69 22
-29 35 -68 71 13 34 -38 49
10 57 -10 -18 -68 -24 63 -52
63 -69 -75 6 4 -59 106 95
2 -11 4 60 12 -17 -49 111
-102 -49 -66 -49 37 -64 -73 33
-4 0 -108 11 -13 -60 18 75
-62 -47 50 -4 7 20 61 12
-89 114 -46 76 -94 -51 -41 -2
-85 7 103 70 -36 -84 98 -127
83 -18 14 20 -12 46 -56 -30
91 67 22 42 36 77 -27 38
-9 93 115 -71 -96 -25 30 95
-37 74 -74 100 30 -10 87 38
-49 -74 18 -83 65 51 68 80
-3 -84 -2 -107 83 79 -46 -57
-9 46 22 27 14 -44 81 90
-38 65 87 54 5 -69 -36 -63
-66 21 -40 101 83 -63 43 6
69 -19 -91 -77 -20 48 68 22
27 -17 64 51 -63 50 -55 96
79 -77 64 -60 -91 14 -54 127
-70 21 85 51 -68 4 -24 15
41 21 -49 -26 22 -46 20 108
-53 3 43 72 -113 16 -107 51
-2 -19 -27 53 -57 -19 5 -103
22 82 5 91 48 -66 -55 84

style_params/transformer/residual/residual1/conv2/StyleNorm/Conv/weights i1 [32, 1, 1, 100]
00000000: 0461 021a 74c8 1358 e167 25c2 a028 dcf8
00000010: befe f6c7 e557 19ec 7388 aecc c64d c845
00000020: 1e2f 61e8 55c8 f67f b6da e5f8 9adc 3012
00000030: 953a c151 221b a032 5e86 f70e efda de7f
00000040: 2fc1 27ef 114b 1f18 52ca eec8 3345 154a
00000050: 1988 dd1a 2a6d 4469 9e56 0c12 e658 d5d0
00000060: 0ec0 3cda a1fc 63bf 7af8 a7d7 dd09 b463
00000070: d069 1240 1956 826c 0edd f6e5 434d a9b6
00000080: e7d5 c722 5a9c 4ec5 cd12 2233 c3dd a11b
00000090: e253 5286 1d41 fd23 277d f8f2 3998 b19f
000000a0: 30ef 44db a1cc bb13 c238 dd99 c13c a7fb
000000b0: 2461 086b aa81 7033 4f9c 29c1 474e e336
000000c0: cfab 35a9 ba07 f314 96a1 d81d 8e5f 21a6
000000d0: af37 cfe7 fc90 f621 b109 474c fcbb d9f1
000000e0: 638e 9c81 d632 e764 17f9 722c daad c96d
000000f0: 02dd 0862 e542 dbd8 de3e d1d7 2fbe 1c5e
4 97 2 26 116 -56 19 88
-31 103 37 -62 -96 40 -36 -8
-66 -2 -10 -57 -27 87 25 -20
115 -120 -82 -52 -58 77 -56 69
30 47 97 -24 85 -56 -10 127
-74 -38 -27 -8 -102 -36 48 18
-107 58 -63 81 34 27 -96 50
94 -122 -9 14 -17 -38 -34 127
47 -63 39 -17 17 75 31 24
82 -54 -18 -56 51 69 21 74
25 -120 -35 26 42 109 68 105
-98 86 12 18 -26 88 -43 -48
14 -64 60 -38 -95 -4 99 -65
122 -8 -89 -41 -35 9 -76 99
-48 105 18 64 25 86 -126 108
14 -35 -10 -27 67 77 -87 -74
-25 -43 -57 34 90 -100 78 -59
-51 18 34 51 -61 -35 -95 27
-30 83 82 -122 29 65 -3 35
39 125 -8 -14 57 -104 -79 -97
48 -17 68 -37 -95 -52 -69 19
-62 56 -35 -103 -63 60 -89 -5
36 97 8 107 -86 -127 112 51
79 -100 41 -63 71 78 -29 54
-49 -85 53 -87 -70 7 -13 20
-106 -95 -40 29 -114 95 33 -90
-81 55 -49 -25 -4 -112 -10 33
-79 9 71 76 -4 -69 -39 -15
99 -114 -100 -127 -42 50 -25 100
23 -7 114 44 -38 -83 -55 109
2 -35 8 98 -27 66 -37 -40
-34 62 -47 -41 47 -66 28 94

style_params/transformer/residual/residual1/conv2/StyleNorm/Conv_1/weights i1 [32, 1, 1, 100]
00000000: 1eab 31c2 31bd a221 4b34 2ba3 b840 44ea
00000010: 1726 67dd efce c708 d7a2 60b1 3f9f 13f6
00000020: 5da4 964d fc09 e850 1c04 2a99 0e49 f241
00000030: 6a16 3499 1417 d05f 1965 707f ebd1 28a6
00000040: d2e3 1c14 f9ea b2bb debe dd0b 20db cad7
00000050: 0bf5 ff1a da23 2c28 b04a 1dc0 ed72 a425
00000060: 2f54 a3a7 3fea 3522 42ef ecc7 a5e2 bad1
00000070: 9df3 21d0 2f11 b7dc 42e6 fff1 ad1f 4858
00000080: d644 da22 ca46 bf43 8a19 0dca ec34 ae2e
00000090: b44a 154d f103 c72e 8138 4030 9ec6 c40a
000000a0: d9b3 ddba d9cf 03f5 d01a 2509 dbdb 18f4
000000b0: ded7 4cca de0d 33b6 ab2b 2ed5 0d18 0713
000000c0: 1729 4f40 dfc1 314d decc d61b 10dc 492b
000000d0: ad53 d2b8 162f d1bb 3df6 d336 0b81 e2f6
000000e0: 8fdc 08bf cf55 0efc b0ef fdab f22e 3435
000000f0: fd49 eb1a a8d0 051b c636 33c0 f33d d5d2
30 -85 49 -62 49 -67 -94 33
75 52 43 -93 -72 64 68 -22
23 38 103 -35 -17 -50 -57 8
-41 -94 96 -79 63 -97 19 -10
93 -92 -106 77 -4 9 -24 80
28 4 42 -103 14 73 -14 65
106 22 52 -103 20 23 -48 95
25 101 112 127 -21 -47 40 -90
-46 -29 28 20 -7 -22 -78 -69
-34 -66 -35 11 32 -37 -54 -41
11 -11 -1 26 -38 35 44 40
-80 74 29 -64 -19 114 -92 37
47 84 -93 -89 63 -22 53 34
66 -17 -20 -57 -91 -30 -70 -47
-99 -13 33 -48 47 17 -73 -36
66 -26 -1 -15 -83 31 72 88
-42 68 -38 34 -54 70 -65 67
-118 25 13 -54 -20 52 -82 46
-76 74 21 77 -15 3 -57 46
-127 56 64 48 -98 -58 -60 10
-39 -77 -35 -70 -39 -49 3 -11
-48 26 37 9 -37 -37 24 -12
-34 -41 76 -54 -34 13 51 -74
-85 43 46 -43 13 24 7 19
23 41 79 64 -33 -63 49 77
-34 -52 -42 27 16 -36 73 43
-83 83 -46 -72 22 47 -47 -69
61 -10 -45 54 11 -127 -30 -10
-113 -36 8 -65 -49 85 14 -4
-80 -17 -3 -85 -14 46 52 53
-3 73 -21 26 -88 -48 5 27
-58 54 51 -64 -13 61 -43 -46

style_params/transformer/residual/residual2/conv1/StyleNorm/Conv/weights i1 [32, 1, 1, 100]
00000000: 51e4 cce0 af66 f840 4320 eaeb e281 2fc5
00000010: 0745 f95a f40f 196b ccfe e014 1ac1 19d3
00000020: ce3a b8d8 2b05 57db 0615 fb2a f099 3add
00000030: ffd9 cf3c a01f 222a 3202 0916 4953 91db
00000040: eaf2 0ec4 e2bc a113 dee5 ff05 c3c5 d72d
00000050: 2045 db08 d11c 13ec 5119 388f ebe2 1df3
00000060: 2dfa c509 15b6 5228 cced f6ae b6e0 bb28
00000070: 1bd6 5cca 3ae8 3014 0039 113d b13a 4611
00000080: 3c13 d7b8 5419 d6f1 3ee5 34f1 e533 cada
00000090: 9e13 210e 2b33 3a48 05d7 08b9 0a49 e717
000000a0: eb3d c0cf 2fe7 61cb e303 f5bd 9534 e0a2
000000b0: 4926 cfe8 df27 0a7f e62f 2c5a 3ef7 c801
000000c0: e73b eff7 c335 4326 ce02 f010 2b13 a9c0
000000d0: b7d4 37ca f17f 3a64 1da3 c634 264d 2356
000000e0: c2dd 45e6 f3f3 e4e5 bceb 1742 d51b dcfb
000000f0: 0548 ceb4 0220 07ac f63b e596 1426 3c19
81 -28 -52 -32 -81 102 -8 64
67 32 -22 -21 -30 -127 47 -59
7 69 -7 90 -12 15 25 107
-52 -2 -32 20 26 -63 25 -45
-50 58 -72 -40 43 5 87 -37
6 21 -5 42 -16 -103 58 -35
-1 -39 -49 60 -96 31 34 42
50 2 9 22 73 83 -111 -37
-22 -14 14 -60 -30 -68 -95 19
-34 -27 -1 5 -61 -59 -41 45
32 69 -37 8 -47 28 19 -20
81 25 56 -113 -21 -30 29 -13
45 -6 -59 9 21 -74 82 40
-52 -19 -10 -82 -74 -32 -69 40
27 -42 92 -54 58 -24 48 20
0 57 17 61 -79 58 70 17
60 19 -41 -72 84 25 -42 -15
62 -27 52 -15 -27 51 -54 -38
-98 19 33 14 43 51 58 72
5 -41 8 -71 10 73 -25 23
-21 61 -64 -49 47 -25 97 -53
-29 3 -11 -67 -107 52 -32 -94
73 38 -49 -24 -33 39 10 127
-26 47 44 90 62 -9 -56 1
-25 59 -17 -9 -61 53 67 38
-50 2 -16 16 43 19 -87 -64
-73 -44 55 -54 -15 127 58 100
29 -93 -58 52 38 77 35 86
-62 -35 69 -26 -13 -13 -28 -27
-68 -21 23 66 -43 27 -36 -5
5 72 -50 -76 2 32 7 -84
-10 59 -27 -106 20 38 60 25

style_params/transformer/residual/residual2/conv1/StyleNorm/Conv_1/weights i1 [32, 1, 1, 100]
00000000: 0f11 41ed d015 bae5 03b8 e4c4 fceb 14f4
00000010: f01f 130a 424d 2ef2 ac06 3dcf 0b38 0718
00000020: 220b 13b7 daeb 151e d5cf 22f7 f71b 6cf9
00000030: 1de7 422b bc21 d948 3dee 6446 d72d c3a7
00000040: 3cfb 27bc 1acd a8fe 0713 f0ac fc3f 37c9
00000050: a3c2 99bf a6c9 dec1 01b9 ce1e 2dad d6e1
00000060: 81fe e7f5 e030 4a1a aa17 f74d bb1f 1abb
00000070: 0808 63e8 8ac3 5cd1 4d9f b61d 9d40 38f9
00000080: eb1c e8fa 4b5b 312c e53a 24ba 490e da4b
00000090: 1d42 3c4a 3fd3 89a5 e827 7f27 0bf4 da75
000000a0: 0ab7 abfb 9d26 3eee f924 bbfe a807 a6e1
000000b0: ec1c 37fc b028 51cf 3022 fb59 f5cf 4513
000000c0: bd18 4809 f0df f3d9 c269 a8eb c952 30be
000000d0: 03e8 25c3 41e8 01c8 db25 c9de 3bea da97
000000e0: c7b2 5749 c23a 0cef f95e 591d 1e2a d433
000000f0: dc2c cf05 253c f4e1 d8f1 0e53 6d1b cbfe
15 17 65 -19 -48 21 -70 -27
3 -72 -28 -60 -4 -21 20 -12
-16 31 19 10 66 77 46 -14
-84 6 61 -49 11 56 7 24
34 11 19 -73 -38 -21 21 30
-43 -49 34 -9 -9 27 108 -7
29 -25 66 43 -68 33 -39 72
61 -18 100 70 -41 45 -61 -89
60 -5 39 -68 26 -51 -88 -2
7 19 -16 -84 -4 63 55 -55
-93 -62 -103 -65 -90 -55 -34 -63
1 -71 -50 30 45 -83 -42 -31
-127 -2 -25 -11 -32 48 74 26
-86 23 -9 77 -69 31 26 -69
8 8 99 -24 -118 -61 92 -47
77 -97 -74 29 -99 64 56 -7
-21 28 -24 -6 75 91 49 44
-27 58 36 -70 73 14 -38 75
29 66 60 74 63 -45 -119 -91
-24 39 127 39 11 -12 -38 117
10 -73 -85 -5 -99 38 62 -18
-7 36 -69 -2 -88 7 -90 -31
-20 28 55 -4 -80 40 81 -49
48 34 -5 89 -11 -49 69 19
-67 24 72 9 -16 -33 -13 -39
-62 105 -88 -21 -55 82 48 -66
3 -24 37 -61 65 -24 1 -56
-37 37 -55 -34 59 -22 -38 -105
-57 -78 87 73 -62 58 12 -17
-7 94 89 29 30 42 -44 51
-36 44 -49 5 37 60 -12 -31
-40 -15 14 83 109 27 -53 -2

style_params/transformer/residual/residual2/conv2/StyleNorm/Conv/weights i1 [32, 1, 1, 100]
00000000: 088c 6167 a404 3f33 b28f 2472 fc35 2744
00000010: f7e6 9260 44e7 dbd8 6362 8ff8 51fb 2aa1
00000020: c731 146a 12da 97f7 fb9c 5c78 6ace c92c
00000030: 8f91 afc3 09cd cc31 8191 01c1 368e dd60
00000040: 64b4 bb49 119b 68d9 189a b503 beaf 7e9c
00000050: a5a0 90ad b735 42bf f17a 60cb f6af 25c4
00000060: 6816 779b d303 f760 3711 4445 976e 1f10
00000070: 051e 639c c908 333a af50 9cee b24d d34d
00000080: 6422 fdcf afb1 9742 592f 6ff5 a461 b333
00000090: 40a2 2b41 35a3 fc39 f6fe a0c8 d83a 5263
000000a0: 2b3e f562 383b 7f1e 3be4 5059 9ecc 96cd
000000b0: b62c 2e3b b3de 2107 b955 f25a fd2a f100
000000c0: c3b6 c299 11b6 6221 62e4 029d 951d aa42
000000d0: 3cdf a11a 636a c6d8 f9ec 51ba c5b3 e650
000000e0: 9c47 a8b0 3979 736f 2eb5 2173 4ddb 0a16
000000f0: 97db 0fe5 6e17 7629 c435 6737 61cb f9d4
8 -116 97 103 -92 4 63 51
-78 -113 36 114 -4 53 39 68
-9 -26 -110 96 68 -25 -37 -40
99 98 -113 -8 81 -5 42 -95
-57 49 20 106 18 -38 -105 -9
-5 -100 92 120 106 -50 -55 44
-113 -111 -81 -61 9 -51 -52 49
-127 -111 1 -63 54 -114 -35 96
100 -76 -69 73 17 -101 104 -39
24 -102 -75 3 -66 -81 126 -100
-91 -96 -112 -83 -73 53 66 -65
-15 122 96 -53 -10 -81 37 -60
104 22 119 -101 -45 3 -9 96
55 17 68 69 -105 110 31 16
5 30 99 -100 -55 8 51 58
-81 80 -100 -18 -78 77 -45 77
100 34 -3 -49 -81 -79 -105 66
89 47 111 -11 -92 97 -77 51
64 -94 43 65 53 -93 -4 57
-10 -2 -96 -56 -40 58 82 99
43 62 -11 98 56 59 127 30
59 -28 80 89 -98 -52 -106 -51
-74 44 46 59 -77 -34 33 7
-71 85 -14 90 -3 42 -15 0
-61 -74 -62 -103 17 -74 98 33
98 -28 2 -99 -107 29 -86 66
60 -33 -95 26 99 106 -58 -40
-7 -20 81 -70 -59 -77 -26 80
-100 71 -88 -80 57 121 115 111
46 -75 33 115 77 -37 10 22
-105 -37 15 -27 110 23 118 41
-60 53 103 55 97 -53 -7 -44

style_params/transformer/residual/residual2/conv2/StyleNorm/Conv_1/weights i1 [32, 1, 1, 100]
00000000: 0943 381e ecdd 1556 dbfd 9b9a 47eb 53f8
00000010: b814 740d b05c b679 9f47 9bc1 580a fdee
00000020: b6a4 565b 4e4a 5237 2524 f204 f408 a9ab
00000030: 3f52 6567 8f59 ad36 b605 9c22 f0c3 e03a
00000040: bb33 72f5 beb6 f8a1 ca63 ffaf 603e 3904
00000050: fce2 507f e971 41e7 643f 56e3 2bba f0f3
00000060: 3754 4a6f 4a2a ae4a e851 c916 73e3 bbb8
00000070: 3c2b e466 f803 4369 557f 2d19 bf60 3e48
00000080: 0239 f0a0 fe09 b6a4 f3b8 1ae2 b02c 60cc
00000090: 55c8 d7a2 14c1 63c2 0ca8 d52a 74c2 ee00
000000a0: aee9 1cf3 9a03 5139 e460 0cb6 49d1 a935
000000b0: 4b39 d23e 31f1 9ab2 1bf2 fe68 1909 ad9b
000000c0: ef10 26c9 889d 225d 4cc7 c8ec fca2 f1fb
000000d0: edd5 b5a6 4553 003c 64fa 103c 12f8 26e0
000000e0: abf1 0e94 be70 0fdf f693 144c 34da 9d4f
000000f0: f059 48ce 5c38 fd21 f3f8 4c60 23d0 66da
9 67 56 30 -20 -35 21 86
-37 -3 -101 -102 71 -21 83 -8
-72 20 116 13 -80 92 -74 121
-97 71 -101 -63 88 10 -3 -18
-74 -92 86 91 78 74 82 55
37 36 -14 4 -12 8 -87 -85
63 82 101 103 -113 89 -83 54
-74 5 -100 34 -16 -61 -32 58
-69 51 114 -11 -66 -74 -8 -95
-54 99 -1 -81 96 62 57 4
-4 -30 80 127 -23 113 65 -25
100 63 86 -29 43 -70 -16 -13
55 84 74 111 74 42 -82 74
-24 81 -55 22 115 -29 -69 -72
60 43 -28 102 -8 3 67 105
85 127 45 25 -65 96 62 72
2 57 -16 -96 -2 9 -74 -92
-13 -72 26 -30 -80 44 96 -52
85 -56 -41 -94 20 -63 99 -62
12 -88 -43 42 116 -62 -18 0
-82 -23 28 -13 -102 3 81 57
-28 96 12 -74 73 -47 -87 53
75 57 -46 62 49 -15 -102 -78
27 -14 -2 104 25 9 -83 -101
-17 16 38 -55 -120 -99 34 93
76 -57 -56 -20 -4 -94 -15 -5
-19 -43 -75 -90 69 83 0 60
100 -6 16 60 18 -8 38 -32
-85 -15 14 -108 -66 112 15 -33
-10 -109 20 76 52 -38 -99 79
-16 89 72 -50 92 56 -3 33
-13 -8 76 96 35 -48 102 -38

style_params/transformer/residual/residual3/conv1/StyleNorm/Conv/weights i1 [32, 1, 1, 100]
00000000: 6673 45db 1244 df5d 0459 f23f cc25 90c5
00000010: d317 39c7 6138 ef30 155b 1148 f5bf d44b
00000020: ba0a ad39 ba7f 2cad b063 6818 f15a 6a54
00000030: 8de5 a753 0742 cc09 2d28 aae6 331d 33d0
00000040: 178f 1a0f db6f fc20 1231 52c4 6457 ce14
00000050: d2be 79f4 4f87 04ad 5f4d 4901 7232 f5eb
00000060: bbdf 12d6 17d7 de95 c83b 1a9f c604 d9a5
00000070: 0705 32ca d4d9 d376 91f0 f6b1 d834 391a
00000080: c7e5 da5c 0179 2ead 34c3 a867 3836 1b19
00000090: 4c9d 464d 031b bdc9 08a4 164b 2e65 b2f6
000000a0: 2ec8 58ed 6c0b ba63 027e 9a36 ac0c dd8e
000000b0: abcc 0bef 0ab2 90fb 086e edf4 fab8 5b0c
000000c0: e2da 28f1 da81 5230 ebf0 000f 1d13 edee
000000d0: 50ee edee f4db dc2f 28df 4c10 0274 ffb4
000000e0: 0829 30d0 fb9c bbd0 d815 1636 f9ff f537
000000f0: f1bc 429e 14d8 f008 f898 4b17 f13c 497f
102 115 69 -37 18 68 -33 93
4 89 -14 63 -52 37 -112 -59
-45 23 57 -57 97 56 -17 48
21 91 17 72 -11 -65 -44 75
-70 10 -83 57 -70 127 44 -83
-80 99 104 24 -15 90 106 84
-115 -27 -89 83 7 66 -52 9
45 40 -86 -26 51 29 51 -48
23 -113 26 15 -37 111 -4 32
18 49 82 -60 100 87 -50 20
-46 -66 121 -12 79 -121 4 -83
95 77 73 1 114 50 -11 -21
-69 -33 18 -42 23 -41 -34 -107
-56 59 26 -97 -58 4 -39 -91
7 5 50 -54 -44 -39 -45 118
-111 -16 -10 -79 -40 52 57 26
-57 -27 -38 92 1 121 46 -83
52 -61 -88 103 56 54 27 25
76 -99 70 77 3 27 -67 -55
8 -92 22 75 46 101 -78 -10
46 -56 88 -19 108 11 -70 99
2 126 -102 54 -84 12 -35 -114
-85 -52 11 -17 10 -78 -112 -5
8 110 -19 -12 -6 -72 91 12
-30 -38 40 -15 -38 -127 82 48
-21 -16 0 15 29 19 -19 -18
80 -18 -19 -18 -12 -37 -36 47
40 -33 76 16 2 116 -1 -76
8 41 48 -48 -5 -100 -69 -48
-40 21 22 54 -7 -1 -11 55
-15 -68 66 -98 20 -40 -16 8
-8 -104 75 23 -15 60 73 127

style_params/transformer/residual/residual3/conv1/StyleNorm/Conv_1/weights i1 [32, 1, 1, 100]
00000000: bdca 53d9 392b 00fc d96b 7fe8 3178 c0db
00000010: 5d61 47a2 24a9 da32 cd77 4f95 0630 a40b
00000020: e921 33fe 5266 681c 16cd 494c eecc fb2e
00000030: b31e 2566 ffdd f04b d70f 6ba3 12f7 9e20
00000040: 15f5 1ae0 216a bef3 abb7 fe46 d346 baaa
00000050: 581c 8f18 b4a2 0621 dd9e 4d35 a9e2 6ce0
00000060: 4da6 abfa fe72 13c2 0741 2419 55ff 9016
00000070: bdd2 dff0 0e43 356d a8a3 de05 4145 a702
00000080: 36e0 b67f d2e3 c2f5 db40 3551 a1df dbce
00000090: 311b ea04 7429 1e4e 0feb e529 4445 5bc5
000000a0: bad2 fbe9 d6a4 fab5 3877 f2c9 d0d3 eaea
000000b0: f115 361a 12d9 c6db 983a 6800 16dd f577
000000c0: 5738 b9e0 dcc9 3ff8 3b58 81e7 1712 8b0a
000000d0: dfe3 d9b1 6b63 9ed8 b7ea dc5b dfc8 2c42
000000e0: 072d afbc 0740 3827 588f 5611 d54e 8dca
000000f0: aaa4 b4df 9e04 d5df 0a2a 3bb9 ae4b ea14
-67 -54 83 -39 57 43 0 -4
-39 107 127 -24 49 120 -64 -37
93 97 71 -94 36 -87 -38 50
-51 119 79 -107 6 48 -92 11
-23 33 51 -2 82 102 104 28
22 -51 73 76 -18 -52 -5 46
-77 30 37 102 -1 -35 -16 75
-41 15 107 -93 18 -9 -98 32
21 -11 26 -32 33 106 -66 -13
-85 -73 -2 70 -45 70 -70 -86
88 28 -113 24 -76 -94 6 33
-35 -98 77 53 -87 -30 108 -32
77 -90 -85 -6 -2 114 19 -62
7 65 36 25 85 -1 -112 22
-67 -46 -33 -16 14 67 53 109
-88 -93 -34 5 65 69 -89 2
54 -32 -74 127 -46 -29 -62 -11
-37 64 53 81 -95 -33 -37 -50
49 27 -22 4 116 41 30 78
15 -21 -27 41 68 69 91 -59
-70 -46 -5 -23 -42 -92 -6 -75
56 119 -14 -55 -48 -45 -22 -22
-15 21 54 26 18 -39 -58 -37
-104 58 104 0 22 -35 -11 119
87 56 -71 -32 -36 -55 63 -8
59 88 -127 -25 23 18 -117 10
-33 -29 -39 -79 107 99 -98 -40
-73 -22 -36 91 -33 -56 44 66
7 45 -81 -68 7 64 56 39
88 -113 86 17 -43 78 -115 -54
-86 -92 -76 -33 -98 4 -43 -33
10 42 59 -71 -82 75 -22 20

style_params/transformer/residual/residual3/conv2/StyleNorm/Conv/weights i1 [32, 1, 1, 100]
00000000: 5de7 c834 f3f5 398c 66bb 3055 cb1b 8368
00000010: 0c2d af44 bf7f db4f a2e7 6686 8cee 97cc
00000020: b28d 78b8 c830 9f79 c21c 0725 f4c6 a164
00000030: 6ca7 49a3 f4fa 243b 2206 c513 219b c2e7
00000040: ed55 2ead a4f7 e4bf a3dc 0bbf a35c c613
00000050: 6b5e 5814 6c06 7086 c9f5 35eb 4aaf 0412
00000060: ee4f a87d ecbb 09e1 a436 362a 7d12 86ae
00000070: 7fe1 9a87 d4c8 4c6f c0c2 7590 0ccb 9689
00000080: f416 af06 4185 1407 8878 710d dbb8 8579
00000090: d33f 4dc7 a07f c090 2371 f58d 10a7 7b7c
000000a0: c416 6877 9903 4012 d240 8fc9 23fa d721
000000b0: c4ef ec2c f42d dfc1 5475 ed63 aa99 1889
000000c0: 2a00 f801 6a3d f34e e7c5 cca5 eae4 8819
000000d0: f9c7 b5b0 5ab5 0bd7 b02c 8761 1800 a8c5
000000e0: 56d0 f5a2 8e48 3bc9 a89b 537f 7a29 0be1
000000f0: 5c14 a0df d573 02c7 30d4 579a 0de7 fb81
93 -25 -56 52 -13 -11 57 -116
102 -69 48 85 -53 27 -125 104
12 45 -81 68 -65 127 -37 79
-94 -25 102 -122 -116 -18 -105 -52
-78 -115 120 -72 -56 48 -97 121
-62 28 7 37 -12 -58 -95 100
108 -89 73 -93 -12 -6 36 59
34 6 -59 19 33 -101 -62 -25
-19 85 46 -83 -92 -9 -28 -65
-93 -36 11 -65 -93 92 -58 19
107 94 88 20 108 6 112 -122
-55 -11 53 -21 74 -81 4 18
-18 79 -88 125 -20 -69 9 -31
-92 54 54 42 125 18 -122 -82
127 -31 -102 -121 -44 -56 76 111
-64 -62 117 -112 12 -53 -106 -119
-12 22 -81 6 65 -123 20 7
-120 120 113 13 -37 -72 -123 121
-45 63 77 -57 -96 127 -64 -112
35 113 -11 -115 16 -89 123 124
-60 22 104 119 -103 3 64 18
-46 64 -113 -55 35 -6 -41 33
-60 -17 -20 44 -12 45 -33 -63
84 117 -19 99 -86 -103 24 -119
42 0 -8 1 106 61 -13 78
-25 -59 -52 -91 -22 -28 -120 25
-7 -57 -75 -80 90 -75 11 -41
-80 44 -121 97 24 0 -88 -59
86 -48 -11 -94 -114 72 59 -55
-88 -101 83 127 122 41 11 -31
92 20 -96 -33 -43 115 2 -57
48 -44 87 -102 13 -25 -5 -127

style_params/transformer/residual/residual3/conv2/StyleNorm/Conv_1/weights i1 [32, 1, 1, 100]
00000000: 22fc 5bd6 be9c 20de 1745 fa58 3346 446e
00000010: 8851 8e33 f148 cd0d 04e6 c6e0 e858 6e2c
00000020: c84a 223c d70e 900a 1d6b b714 fc26 adb4
00000030: 2aa8 d2c0 7f10 3ae8 4a3d f338 3dfb e2b6
00000040: dab7 02fe 213b 5e45 479a 2bae 11e1 bb16
00000050: b2e2 d926 b7c5 a1b3 4978 b44b 28dd a70d
00000060: bf4c 1795 41c0 b1e5 d2e1 2623 177a 610c
00000070: f107 edb5 fcdd 53fe edc0 1c1b 37f4 a435
00000080: 3918 1b3c beba 5cbf ab44 3bd1 caf7 2b7f
00000090: bbb8 70f5 c4de e60f b299 dc31 1535 4cc9
000000a0: 6937 b71c f9b3 0b2f ba1f 40b1 9821 c1ff
000000b0: 0936 0ceb ed64 1531 a4e6 2332 70ec 45d4
000000c0: d11e 389b 5cc1 1400 203b d812 cc34 21b0
000000d0: 5123 1161 d88f c8c7 140c 28b0 26be 0f5c
000000e0: 8bb9 fcf5 4c1b bab4 04c4 be25 b29c 2d88
000000f0: c7bd 6d86 f2bd 3396 06f7 9885 1b1a b810
34 -4 91 -42 -66 -100 32 -34
23 69 -6 88 51 70 68 110
-120 81 -114 51 -15 72 -51 13
4 -26 -58 -32 -24 88 110 44
-56 74 34 60 -41 14 -112 10
29 107 -73 20 -4 38 -83 -76
42 -88 -46 -64 127 16 58 -24
74 61 -13 56 61 -5 -30 -74
-38 -73 2 -2 33 59 94 69
71 -102 43 -82 17 -31 -69 22
-78 -30 -39 38 -73 -59 -95 -77
73 120 -76 75 40 -35 -89 13
-65 76 23 -107 65 -64 -79 -27
-46 -31 38 35 23 122 97 12
-15 7 -19 -75 -4 -35 83 -2
-19 -64 28 27 55 -12 -92 53
57 24 27 60 -66 -70 92 -65
-85 68 59 -47 -54 -9 43 127
-69 -72 112 -11 -60 -34 -26 15
-78 -103 -36 49 21 53 76 -55
105 55 -73 28 -7 -77 11 47
-70 31 64 -79 -104 33 -63 -1
9 54 12 -21 -19 100 21 49
-92 -26 35 50 112 -20 69 -44
-47 30 56 -101 92 -63 20 0
32 59 -40 18 -52 52 33 -80
81 35 17 97 -40 -113 -56 -57
20 12 40 -80 38 -66 15 92
-117 -71 -4 -11 76 27 -70 -76
4 -60 -66 37 -78 -100 45 -120
-57 -67 109 -122 -14 -67 51 -106
6 -9 -104 -123 27 26 -72 16

style_params/transformer/residual/residual4/conv1/StyleNorm/Conv/weights i1 [32, 1, 1, 100]
00000000: 29f1 e226 4820 1e60 4f09 e58d 10e6 6c3b
00000010: 5c23 d5cb 4f3f 1181 df05 4423 4723 eb2c
00000020: 5120 d638 2c6a 4c36 dbe8 1d1b ef33 bc00
00000030: 4fc5 2f1f fa34 22fb 1bcb fd59 1908 1e40
00000040: e756 4f1f 452c a7cb 2901 e8e9 3444 0dc8
00000050: d4f7 b243 defc c3cf 2ba3 2b9b e1d7 cd2c
00000060: 593e 4669 303b a9a1 eeda d0f8 fc69 0024
00000070: 47eb 1cf5 1f3b dad4 1a22 06c1 05ab 11f9
00000080: f815 3a02 2e18 b0c3 0a2c 30bb 0e00 0d06
00000090: 09df 29f1 d4a8 21c6 f6d8 fc0f f416 4aec
000000a0: f63d cb49 fa3f 2cca e0c2 2d24 b83d 34e8
000000b0: 2b21 d3f4 1719 f881 07e8 e4de 0ec3 35bc
000000c0: 0ee5 2723 f125 2e62 ecf3 1c2b 2300 20c1
000000d0: ed56 6881 5c9d ffc3 b4b0 24bc e1ad b349
000000e0: 7838 e7df 0863 5c6f 5724 a744 019f d5fe
000000f0: 3de2 950d 05bb f50b 1b74 47db e349 8ccc
41 -15 -30 38 72 32 30 96
79 9 -27 -115 16 -26 108 59
92 35 -43 -53 79 63 17 -127
-33 5 68 35 71 35 -21 44
81 32 -42 56 44 106 76 54
-37 -24 29 27 -17 51 -68 0
79 -59 47 31 -6 52 34 -5
27 -53 -3 89 25 8 30 64
-25 86 79 31 69 44 -89 -53
41 1 -24 -23 52 68 13 -56
-44 -9 -78 67 -34 -4 -61 -49
43 -93 43 -101 -31 -41 -51 44
89 62 70 105 48 59 -87 -95
-18 -38 -48 -8 -4 105 0 36
71 -21 28 -11 31 59 -38 -44
26 34 6 -63 5 -85 17 -7
-8 21 58 2 46 24 -80 -61
10 44 48 -69 14 0 13 6
9 -33 41 -15 -44 -88 33 -58
-10 -40 -4 15 -12 22 74 -20
-10 61 -53 73 -6 63 44 -54
-32 -62 45 36 -72 61 52 -24
43 33 -45 -12 23 25 -8 -127
7 -24 -28 -34 14 -61 53 -68
14 -27 39 35 -15 37 46 98
-20 -13 28 43 35 0 32 -63
-19 86 104 -127 92 -99 -1 -61
-76 -80 36 -68 -31 -83 -77 73
120 56 -25 -33 8 99 92 111
87 36 -89 68 1 -97 -43 -2
61 -30 -107 13 5 -69 -11 11
27 116 71 -37 -29 73 -116 -52

style_params/transformer/residual/residual4/conv1/StyleNorm/Conv_1/weights i1 [32, 1, 1, 100]
00000000: bbf1 1be9 3144 f853 f515 4923 23ec b4de
00000010: e427 3cd3 9ec7 51a2 da49 2f05 67cd 3238
00000020: 2cbb 32b9 3f50 574c a298 1e61 d92f 4803
00000030: c3c5 bfb3 b22f 1a7f bcdc 3a2a 3418 f8c5
00000040: 9ea3 1060 ef25 12fa 18d8 19cb d5be b82c
00000050: 3d18 5c1d f8fb 23cf eb3a 271d ba06 c602
00000060: 33d4 1649 d076 fbfb beca 0bcf 4717 3149
00000070: de22 1baf 99bf 3004 36c2 8120 f9cf 2f19
00000080: 50b4 e921 f112 b4e6 e52e fe1c 34bf 3fc2
00000090: 28d4 2cb1 0ade 2843 ec05 bbe1 fc00 3bb0
000000a0: 36e0 fc38 4555 4007 2f48 db42 b230 f1d7
000000b0: be31 48e6 d943 1bc1 e4e0 d8fd 18ab 3f48
000000c0: 4927 d020 dba6 e9c3 76db 3117 c25d 43fa
000000d0: 87c1 22d8 e053 a306 393b 93f5 34fb 7255
000000e0: b5a7 754f b408 43f4 454e d4d1 aca1 1065
000000f0: 45b5 9ee7 b313 cb36 fa1b 8bd6 7c83 eda8
-69 -15 27 -23 49 68 -8 83
-11 21 73 35 35 -20 -76 -34
-28 39 60 -45 -98 -57 81 -94
-38 73 47 5 103 -51 50 56
44 -69 50 -71 63 80 87 76
-94 -104 30 97 -39 47 72 3
-61 -59 -65 -77 -78 47 26 127
-68 -36 58 42 52 24 -8 -59
-98 -93 16 96 -17 37 18 -6
24 -40 25 -53 -43 -66 -72 44
61 24 92 29 -8 -5 35 -49
-21 58 39 29 -70 6 -58 2
51 -44 22 73 -48 118 -5 -5
-66 -54 11 -49 71 23 49 73
-34 34 27 -81 -103 -65 48 4
54 -62 -127 32 -7 -49 47 25
80 -76 -23 33 -15 18 -76 -26
-27 46 -2 28 52 -65 63 -62
40 -44 44 -79 10 -34 40 67
-20 5 -69 -31 -4 0 59 -80
54 -32 -4 56 69 85 64 7
47 72 -37 66 -78 48 -15 -41
-66 49 72 -26 -39 67 27 -63
-28 -32 -40 -3 24 -85 63 72
73 39 -48 32 -37 -90 -23 -61
118 -37 49 23 -62 93 67 -6
-121 -63 34 -40 -32 83 -93 6
57 59 -109 -11 52 -5 114 85
-75 -89 117 79 -76 8 67 -12
69 78 -44 -47 -84 -95 16 101
69 -75 -98 -25 -77 19 -53 54
-6 27 -117 -42 124 -125 -19 -88

style_params/transformer/residual/residual4/conv2/StyleNorm/Conv/weights i1 [32, 1, 1, 100]
00000000: ba9e d7ac 017e d17f 1768 2840 e0bb c1d4
00000010: fbf4 aea0 336d c38f 6cab e0e4 9c4a 575a
00000020: 214b 9020 4bc6 1898 c115 98ef 94d2 2aa3
00000030: 8ff5 64f9 5cfe 08e0 6972 1c2f 240f 2f96
00000040: 5d95 c31c 6924 323d c2b8 56f1 98c9 2352
00000050: 83e5 c325 3edd b96e a989 632f f515 3702
00000060: 7337 bb32 19d7 dfe6 886a b3a3 e398 a10c
00000070: 108d a4b9 60e1 36ca 68d6 9439 dd3f fc36
00000080: 2abf 0645 d56c 063d 5bba a63b a064 450d
00000090: 5d19 97fe da77 2918 1aec d26f 1f05 d0bf
000000a0: 6eb4 d459 32d7 737f f58f aebf 1786 da93
000000b0: b1db df3d 8d3c 9393 e3b7 217c 656a 71f2
000000c0: d20d 3164 c3a5 ad0d cac0 b63e f657 b70d
000000d0: 1014 a75b acec 1dc1 45c7 3d13 14c3 0cec
000000e0: dfe2 f997 2bdf d08e 4fac 3df1 df50 3900
000000f0: 211e e90f 09b0 afa8 c911 81b1 a3fb 26d0
-70 -98 -41 -84 1 126 -47 127
23 104 40 64 -32 -69 -63 -44
-5 -12 -82 -96 51 109 -61 -113
108 -85 -32 -28 -100 74 87 90
33 75 -112 32 75 -58 24 -104
-63 21 -104 -17 -108 -46 42 -93
-113 -11 100 -7 92 -2 8 -32
105 114 28 47 36 15 47 -106
93 -107 -61 28 105 36 50 61
-62 -72 86 -15 -104 -55 35 82
-125 -27 -61 37 62 -35 -71 110
-87 -119 99 47 -11 21 55 2
115 55 -69 50 25 -41 -33 -26
-120 106 -77 -93 -29 -104 -95 12
16 -115 -92 -71 96 -31 54 -54
104 -42 -108 57 -35 63 -4 54
42 -65 6 69 -43 108 6 61
91 -70 -90 59 -96 100 69 13
93 25 -105 -2 -38 119 41 24
26 -20 -46 111 31 5 -48 -65
110 -76 -44 89 50 -41 115 127
-11 -113 -82 -65 23 -122 -38 -109
-79 -37 -33 61 -115 60 -109 -109
-29 -73 33 124 101 106 113 -14
-46 13 49 100 -61 -91 -83 13
-54 -64 -74 62 -10 87 -73 13
16 20 -89 91 -84 -20 29 -63
69 -57 61 19 20 -61 12 -20
-33 -30 -7 -105 43 -33 -48 -114
79 -84 61 -15 -33 80 57 0
33 30 -23 15 9 -80 -81 -88
-55 17 -127 -79 -93 -5 38 -48

style_params/transformer/residual/residual4/conv2/StyleNorm/Conv_1/weights i1 [32, 1, 1, 100]
00000000: db95 65ad 3eed 1afd 4e71 5b49 e84d 6bcd
00000010: 2e7f 2147 01b7 58cb bde6 1200 26cb e3f8
00000020: 6856 ef9f 17dd 4a2c e4c1 2e27 0a58 2444
00000030: 0aad 530a 8807 3ef0 150b a740 17f8 c922
00000040: be55 b9b0 2fb8 0703 f9c0 9985 04bd fea9
00000050: 0d39 13d0 eba7 4ecb 27c9 2a04 d5d2 37d9
00000060: 2ef9 0538 21c1 ae10 f6de b3bc f618 5bf7
00000070: 633a 4efc ff05 d002 b0f9 bfbd 0cfb caa0
00000080: 814a da0d 35af 26b6 e6ad a859 8c08 39bd
00000090: 1c67 c80a aa12 d008 23aa b6ee df36 5797
000000a0: 9d99 7fb4 342d 363e c2fa 20c4 6730 57ea
000000b0: d29a 40f2 338f cece c14c f953 fd69 c6d4
000000c0: bee4 04f6 11fd 712d 2edf d50b ba03 0d5f
000000d0: 758e 05e1 c21f f818 5bf6 d5ad ec5b 6afb
000000e0: fc1e 392a 3ac8 44f0 6958 e5dd 3945 d704
000000f0: 0b84 e7e5 042f 1711 e6e8 3863 2631 e42f
-37 -107 101 -83 62 -19 26 -3
78 113 91 73 -24 77 107 -51
46 127 33 71 1 -73 88 -53
-67 -26 18 0 38 -53 -29 -8
104 86 -17 -97 23 -35 74 44
-28 -63 46 39 10 88 36 68
10 -83 83 10 -120 7 62 -16
21 11 -89 64 23 -8 -55 34
-66 85 -71 -80 47 -72 7 3
-7 -64 -103 -123 4 -67 -2 -87
13 57 19 -48 -21 -89 78 -53
39 -55 42 4 -43 -46 55 -39
46 -7 5 56 33 -63 -82 16
-10 -34 -77 -68 -10 24 91 -9
99 58 78 -4 -1 5 -48 2
-80 -7 -65 -67 12 -5 -54 -96
-127 74 -38 13 53 -81 38 -74
-26 -83 -88 89 -116 8 57 -67
28 103 -56 10 -86 18 -48 8
35 -86 -74 -18 -33 54 87 -105
-99 -103 127 -76 52 45 54 62
-62 -6 32 -60 103 48 87 -22
-46 -102 64 -14 51 -113 -50 -50
-63 76 -7 83 -3 105 -58 -44
-66 -28 4 -10 17 -3 113 45
46 -33 -43 11 -70 3 13 95
117 -114 5 -31 -62 31 -8 24
91 -10 -43 -83 -20 91 106 -5
-4 30 57 42 58 -56 68 -16
105 88 -27 -35 57 69 -41 4
11 -124 -25 -27 4 47 23 17
-26 -24 56 99 38 49 -28 47

style_params/transformer/residual/residual5/conv1/StyleNorm/Conv/weights i1 [32, 1, 1, 100]
00000000: 4bb5 6a46 f412 fa65 fa3d 2bb5 f5b2 7f36
00000010: 43f1 dde5 f2a1 9b24 fbc9 f4dd d7a8 59ce
00000020: 222d a7ac 6338 f02d d99a 4b36 4b60 23d4
00000030: ecb8 55d2 db77 cdc9 a721 8eb3 d758 f002
00000040: fec1 e90c 1c93 9ef7 d9f8 5701 68cb 3a03
00000050: c0b4 b7f5 7540 034d cdb8 6ca9 496d ed28
00000060: dcdf 09a7 0130 9116 1be4 38b3 b630 57a6
00000070: caff c513 cc3b 23db 39fa 02c8 1412 3ce4
00000080: 1b83 282c dacc fb53 e447 ec31 e9c5 41ee
00000090: 2e00 e4bd e6d2 ef30 c7e2 4ab2 372a e51b
000000a0: cd33 4d50 5b08 d5dc 50f2 c852 a912 bad8
000000b0: 4203 4504 c716 e5a2 18cd c4c3 1a51 22fc
000000c0: 7f30 19f2 0ee9 d3fd a409 e2f1 cbb6 f837
000000d0: b8c0 6b3a 630d ccdc 42f5 f706 d9ce 1466
000000e0: df05 2b41 d658 1ae7 a81d 4942 6330 eee5
000000f0: c2f2 bec6 1ee1 0f17 26ea 5338 f441 df52
75 -75 106 70 -12 18 -6 101
-6 61 43 -75 -11 -78 127 54
67 -15 -35 -27 -14 -95 -101 36
-5 -55 -12 -35 -41 -88 89 -50
34 45 -89 -84 99 56 -16 45
-39 -102 75 54 75 96 35 -44
-20 -72 85 -46 -37 119 -51 -55
-89 33 -114 -77 -41 88 -16 2
-2 -63 -23 12 28 -109 -98 -9
-39 -8 87 1 104 -53 58 3
-64 -76 -73 -11 117 64 3 77
-51 -72 108 -87 73 109 -19 40
-36 -33 9 -89 1 48 -111 22
27 -28 56 -77 -74 48 87 -90
-54 -1 -59 19 -52 59 35 -37
57 -6 2 -56 20 18 60 -28
27 -125 40 44 -38 -52 -5 83
-28 71 -20 49 -23 -59 65 -18
46 0 -28 -67 -26 -46 -17 48
-57 -30 74 -78 55 42 -27 27
-51 51 77 80 91 8 -43 -36
80 -14 -56 82 -87 18 -70 -40
66 3 69 4 -57 22 -27 -94
24 -51 -60 -61 26 81 34 -4
127 48 25 -14 14 -23 -45 -3
-92 9 -30 -15 -53 -74 -8 55
-72 -64 107 58 99 13 -52 -36
66 -11 -9 6 -39 -50 20 102
-33 5 43 65 -42 88 26 -25
-88 29 73 66 99 48 -18 -27
-62 -14 -66 -58 30 -31 15 23
38 -22 83 56 -12 65 -33 82

style_params/transformer/residual/residual5/conv1/StyleNorm/Conv_1/weights i1 [32, 1, 1, 100]
00000000: a6ac 0555 b7a2 1676 40a8 b60e f3b7 67cb
00000010: dbab 75b3 95f5 c400 4bf3 551a 1052 e8d3
00000020: c936 ce9c fbdb e8fe f29f 666d adfd ec5c
00000030: a2b4 765d e11a b414 55d6 b701 9f44 b4e7
00000040: ca5d 4cd4 9ad6 24d7 5be2 c844 f98f 5a50
00000050: 6267 c8bf 0215 abbe e00e 2b81 fb5e 46d2
00000060: ff0a e215 49cb 19ef c21b 38c8 5181 0af9
00000070: 292b 3aff 9bd8 1843 53b9 c437 4038 02f6
00000080: 04ec c95b f002 da02 3b1a 2813 4bbf de40
00000090: 29f8 0bcb af13 ee41 68d1 50fd 5c43 b73b
000000a0: db48 e3f5 c124 9910 1413 2d1e 1add efc3
000000b0: 36c3 36fe b3bd a7d9 1cfb c6a6 1b56 f713
000000c0: 6d24 45b4 599e f44a 38ad 291f aeaa ca21
000000d0: 22d3 300b e6d0 1cff 25d2 9c36 1d1d 5a06
000000e0: eead 5019 5c12 2f0b 9be5 40be efa2 b7c7
000000f0: bc3b 23e8 1b39 25e5 c0a2 c439 030e 45c3
-90 -84 5 85 -73 -94 22 118
64 -88 -74 14 -13 -73 103 -53
-37 -85 117 -77 -107 -11 -60 0
75 -13 85 26 16 82 -24 -45
-55 54 -50 -100 -5 -37 -24 -2
-14 -97 102 109 -83 -3 -20 92
-94 -76 118 93 -31 26 -76 20
85 -42 -73 1 -97 68 -76 -25
-54 93 76 -44 -102 -42 36 -41
91 -30 -56 68 -7 -113 90 80
98 103 -56 -65 2 21 -85 -66
-32 14 43 -127 -5 94 70 -46
-1 10 -30 21 73 -53 25 -17
-62 27 56 -56 81 -127 10 -7
41 43 58 -1 -101 -40 24 67
83 -71 -60 55 64 56 2 -10
4 -20 -55 91 -16 2 -38 2
59 26 40 19 75 -65 -34 64
41 -8 11 -53 -81 19 -18 65
104 -47 80 -3 92 67 -73 59
-37 72 -29 -11 -63 36 -103 16
20 19 45 30 26 -35 -17 -61
54 -61 54 -2 -77 -67 -89 -39
28 -5 -58 -90 27 86 -9 19
109 36 69 -76 89 -98 -12 74
56 -83 41 31 -82 -86 -54 33
34 -45 48 11 -26 -48 28 -1
37 -46 -100 54 29 29 90 6
-18 -83 80 25 92 18 47 11
-101 -27 64 -66 -17 -94 -73 -57
-68 59 35 -24 27 57 37 -27
-64 -94 -60 57 3 14 69 -61

style_params/transformer/residual/residual5/conv2/StyleNorm/Conv/weights i1 [32, 1, 1, 100]
00000000: a1f2 fef2 1203 8934 844e 9cd1 0b24 08ed
00000010: b992 1685 fdd2 b305 cac4 0772 ba6f cead
00000020: b72e 7e3c cc97 caf6 d324 f1ef 507f 2672
00000030: 9de7 6918 b2e4 1569 3131 4c5e 1e14 14bf
00000040: a897 b535 c279 cda8 a8e6 d0cf b0cc 35de
00000050: 1b41 da73 3a16 4ffe 5433 3e73 5f1e 1899
00000060: 1e31 5883 b045 ef8d ede6 7f3f bdd7 9909
00000070: bb08 25cc 978a ad9f b21c 4055 225c 0452
00000080: e9f5 13bd 0535 06d0 0651 5965 aa2a 1442
00000090: 7999 2d07 4261 c2dc de8e f6cf ddc2 9912
000000a0: 0c1a 8508 3728 64d7 62d1 7a67 8710 706a
000000b0: d6b8 8bb3 ae5a 065d 643e 5ac4 3b62 03a9
000000c0: bd9f c53b 0f92 5bdb f32d 52c4 d42b cb54
000000d0: 59d2 c6b6 4ac0 12ec 02d7 3f53 4bfb 1bf5
000000e0: 5ebf 6b46 8fda 0939 2fc6 b93f 4440 ac32
000000f0: 1336 22d1 5fe0 425b e961 5551 7f5b dfdd
-95 -14 -2 -14 18 3 -119 52
-124 78 -100 -47 11 36 8 -19
-71 -110 22 -123 -3 -46 -77 5
-54 -60 7 114 -70 111 -50 -83
-73 46 126 60 -52 -105 -54 -10
-45 36 -15 -17 80 127 38 114
-99 -25 105 24 -78 -28 21 105
49 49 76 94 30 20 20 -65
-88 -105 -75 53 -62 121 -51 -88
-88 -26 -48 -49 -80 -52 53 -34
27 65 -38 115 58 22 79 -2
84 51 62 115 95 30 24 -103
30 49 88 -125 -80 69 -17 -115
-19 -26 127 63 -67 -41 -103 9
-69 8 37 -52 -105 -118 -83 -97
-78 28 64 85 34 92 4 82
-23 -11 19 -67 5 53 6 -48
6 81 89 101 -86 42 20 66
121 -103 45 7 66 97 -62 -36
-34 -114 -10 -49 -35 -62 -103 18
12 26 -123 8 55 40 100 -41
98 -47 122 103 -121 16 112 106
-42 -72 -117 -77 -82 90 6 93
100 62 90 -60 59 98 3 -87
-67 -97 -59 59 15 -110 91 -37
-13 45 82 -60 -44 43 -53 84
89 -46 -58 -74 74 -64 18 -20
2 -41 63 83 75 -5 27 -11
94 -65 107 70 -113 -38 9 57
47 -58 -71 63 68 64 -84 50
19 54 34 -47 95 -32 66 91
-23 97 85 81 127 91 -33 -35

style_params/transformer/residual/residual5/conv2/StyleNorm/Conv_1/weights i1 [32, 1, 1, 100]
00000000: d1ce f8c9 0d22 d811 33ee 2447 a5df e6bf
00000010: 2a2e d256 b842 d6ee 9cc8 dde9 dadc d2fe
00000020: 40fe e21d 62f4 0ac6 d500 bec3 ed1a 1500
00000030: d934 36d0 c908 81bf 05f4 4d3d d637 d59f
00000040: 15ef 08eb acfe e135 143e 0b2d 1ecf e906
00000050: fefd c559 1443 4343 04ae 081f 241a b6b7
00000060: 02b3 4848 ebe4 ca6e 140e f69e 3cf0 5890
00000070: ac9f 3914 c2ee 37ac bdf8 b1e6 ee19 489f
00000080: 5a1e c60d e466 1bd1 18ea 693f 5c09 eb38
00000090: e4d7 4a15 5fd0 1f21 b299 10e1 c816 0621
000000a0: e800 0a9c bf5f 2cc2 fcfb 024e d9f3 81c9
000000b0: b0c8 1a21 9348 16c3 04ec 2234 34b3 f9fa
000000c0: cf8e 34f4 4de9 6126 f419 d1bc f031 cf42
000000d0: ddc4 1ef1 d316 c13a 21dd 0ff0 321b 18db
000000e0: 45b1 d044 03cc 01ae 013c 59c5 14e7 d2d5
000000f0: 05dd ee01 7f45 16cb e4dc fc03 e672 84c9
-47 -50 -8 -55 13 34 -40 17
51 -18 36 71 -91 -33 -26 -65
42 46 -46 86 -72 66 -42 -18
-100 -56 -35 -23 -38 -36 -46 -2
64 -2 -30 29 98 -12 10 -58
-43 0 -66 -61 -19 26 21 0
-39 52 54 -48 -55 8 -127 -65
5 -12 77 61 -42 55 -43 -97
21 -17 8 -21 -84 -2 -31 53
20 62 11 45 30 -49 -23 6
-2 -3 -59 89 20 67 67 67
4 -82 8 31 36 26 -74 -73
2 -77 72 72 -21 -28 -54 110
20 14 -10 -98 60 -16 88 -112
-84 -97 57 20 -62 -18 55 -84
-67 -8 -79 -26 -18 25 72 -97
90 30 -58 13 -28 102 27 -47
24 -22 105 63 92 9 -21 56
-28 -41 74 21 95 -48 31 33
-78 -103 16 -31 -56 22 6 33
-24 0 10 -100 -65 95 44 -62
-4 -5 2 78 -39 -13 -127 -55
-80 -56 26 33 -109 72 22 -61
4 -20 34 52 52 -77 -7 -6
-49 -114 52 -12 77 -23 97 38
-12 25 -47 -68 -16 49 -49 66
-35 -60 30 -15 -45 22 -63 58
33 -35 15 -16 50 27 24 -37
69 -79 -48 68 3 -52 1 -82
1 60 89 -59 20 -25 -46 -43
5 -35 -18 1 127 69 22 -53
-28 -36 -4 3 -26 114 -124 -55

transformer/contract/conv1/weights i1 [8, 9, 9, 3]
00000000: 0109 f80c fa29 2be7 081b 0c11 1ee6 2006
00000010: 2415 f90b 1104 04fa 0226 0fed e806 fcff
00000020: 1325 fe25 2d18 1f18 0527 1102 27ed f632
00000030: 0103 1ded 12f8 0efb eb14 f50d 170c 1401
00000040: f439 03ed 342f e946 1210 2222 1300 f214
00000050: f2f7 f2e0 16f3 23fc e207 f0c0 f9f5 c71c
00000060: f1e6 2624 1731 0c1b 15e4 1308 e8f5 0003
00000070: eef7 f0a6 03b6 81cf bc8f cadb fb1b 1e2b
00000080: 300d 0d19 d81e feee eff8 f7fb fdf0 bff0
00000090: b199 dbf0 9ef1 f603 15ff 000a 0e18 fcf4
000000a0: dd10 f7fe e5fe 0807 10da 1d01 ccec fde4
000000b0: fc18 e4f2 fbef e0f4 09e5 0607 d602 1bdf
000000c0: e507 eb04 03f6 12f8 f408 0de8 0105 fee0
000000d0: 0ef4 f2f7 f409 2ff1 e624 e3f1 23d9 fb03
000000e0: e0f7 0ae5 0600 ea03 0adf 1f2c e514 16eb
000000f0: e746 ecfd 0ec5 0015 f518 efe2 fe17 db0a
1 9 -8 12 -6 41 43 -25
8 27 12 17 30 -26 32 6
36 21 -7 11 17 4 4 -6
2 38 15 -19 -24 6 -4 -1
19 37 -2 37 45 24 31 24
5 39 17 2 39 -19 -10 50
1 3 29 -19 18 -8 14 -5
-21 20 -11 13 23 12 20 1
-12 57 3 -19 52 47 -23 70
18 16 34 34 19 0 -14 20
-14 -9 -14 -32 22 -13 35 -4
-30 7 -16 -64 -7 -11 -57 28
-15 -26 38 36 23 49 12 27
21 -28 19 8 -24 -11 0 3
-18 -9 -16 -90 3 -74 -127 -49
-68 -113 -54 -37 -5 27 30 43
48 13 13 25 -40 30 -2 -18
-17 -8 -9 -5 -3 -16 -65 -16
-79 -103 -37 -16 -98 -15 -10 3
21 -1 0 10 14 24 -4 -12
-35 16 -9 -2 -27 -2 8 7
16 -38 29 1 -52 -20 -3 -28
-4 24 -28 -14 -5 -17 -32 -12
9 -27 6 7 -42 2 27 -33
-27 7 -21 4 3 -10 18 -8
-12 8 13 -24 1 5 -2 -32
14 -12 -14 -9 -12 9 47 -15
-26 36 -29 -15 35 -39 -5 3
-32 -9 10 -27 6 0 -22 3
10 -33 31 44 -27 20 22 -21
-25 70 -20 -3 14 -59 0 21
-11 24 -17 -30 -2 23 -37 10

transformer/contract/conv2/weights i1 [16, 3, 3, 8]
00000000: 07f2 0655 e007 850b d3fd 38e4 1e10 d301
00000010: 0101 ee81 1b08 0cef 0ec0 1af0 1803 cde7
00000020: e7f4 2004 0603 22f7 f4fc fdf5 ef18 3909
00000030: 061a fdeb e7e2 35ff 162b db2c fb01 37ff
00000040: 3f0e d842 d1ce f718 f72d ec42 17f2 000f
00000050: fa15 ccec 0f03 f607 d615 f1e9 1b2b f100
00000060: 0644 2516 01ce f529 3556 f200 0cc6 10e7
00000070: 311b f5e8 11fa d7e0 0d29 f7fc 0481 0911
00000080: 4b23 d9e1 09f0 0900 54db 0fd4 06c6 04fa
00000090: 0dc2 fa00 0c0c eb07 25ea 35f7 04dc 16ff
000000a0: 180b 341c e5f2 ff0a 0bda 24c5 0ed0 18fb
000000b0: fcec 1bd0 cee6 2501 30ea 4206 93d3 24ff
000000c0: f1c4 518f ef10 1bda 2709 12b3 bd0c 3ada
000000d0: 4204 f408 81bf fee8 1d98 f97f de1f de2e
000000e0: 0ec6 d64a cf2f 242a 0ec8 d50d b709 e7fd
000000f0: 21e8 3d17 f438 b01f e133 4c2c e750 aa04
7 -14 6 85 -32 7 -123 11
-45 -3 56 -28 30 16 -45 1
1 1 -18 -127 27 8 12 -17
14 -64 26 -16 24 3 -51 -25
-25 -12 32 4 6 3 34 -9
-12 -4 -3 -11 -17 24 57 9
6 26 -3 -21 -25 -30 53 -1
22 43 -37 44 -5 1 55 -1
63 14 -40 66 -47 -50 -9 24
-9 45 -20 66 23 -14 0 15
-6 21 -52 -20 15 3 -10 7
-42 21 -15 -23 27 43 -15 0
6 68 37 22 1 -50 -11 41
53 86 -14 0 12 -58 16 -25
49 27 -11 -24 17 -6 -41 -32
13 41 -9 -4 4 -127 9 17
75 35 -39 -31 9 -16 9 0
84 -37 15 -44 6 -58 4 -6
13 -62 -6 0 12 12 -21 7
37 -22 53 -9 4 -36 22 -1
24 11 52 28 -27 -14 -1 10
11 -38 36 -59 14 -48 24 -5
-4 -20 27 -48 -50 -26 37 1
48 -22 66 6 -109 -45 36 -1
-15 -60 81 -113 -17 16 27 -38
39 9 18 -77 -67 12 58 -38
66 4 -12 8 -127 -65 -2 -24
29 -104 -7 127 -34 31 -34 46
14 -58 -42 74 -49 47 36 42
14 -56 -43 13 -73 9 -25 -3
33 -24 61 23 -12 56 -80 31
-31 51 76 44 -25 80 -86 4

transformer/contract/conv3/weights i1 [32, 3, 3, 16]
00000000: 22dd 5c02 6c2e f9cb eb14 0315 ef0e 30f5
00000010: 33c9 1512 1cff d9e5 0531 1fc1 fc07 edeb
00000020: e416 edf4 56f9 fed9 152d 2581 e91b 0809
00000030: f8dd 0fed 02f1 0505 0b2a 02ed 192b 3c02
00000040: 15f9 dd1b fceb e503 e20e 34ad f81c e904
00000050: 13fc adec 43e9 d7eb fc13 eeb8 102e ed27
00000060: 26fb 0af3 25fc 1414 000b d9f8 fbbe 4707
00000070: 1d2a 1904 0104 cfea 01d3 d5ae e1bf e4f3
00000080: 270c 3fe0 7feb dc9e f5d2 1691 d503 ee0b
00000090: ff07 04ef 0ef5 1309 030d f5d6 0afa 2303
000000a0: f70f 03fe 040f f80c fb0c ffff edfc fbfd
000000b0: fe08 d81a 02f0 0020 0fff def8 f8fc ee0d
000000c0: f20d 22f8 f3f4 15fc ff00 14ca 0cfe 1cff
000000d0: f50d 160a ddec eddf 0807 10df fff6 fff0
000000e0: e409 de04 fc0a 2231 03ff 8100 fefc 0801
000000f0: dff6 5a01 10e9 feef 0517 f3b6 1f01 2804
34 -35 92 2 108 46 -7 -53
-21 20 3 21 -17 14 48 -11
51 -55 21 18 28 -1 -39 -27
5 49 31 -63 -4 7 -19 -21
-28 22 -19 -12 86 -7 -2 -39
21 45 37 -127 -23 27 8 9
-8 -35 15 -19 2 -15 5 5
11 42 2 -19 25 43 60 2
21 -7 -35 27 -4 -21 -27 3
-30 14 52 -83 -8 28 -23 4
19 -4 -83 -20 67 -23 -41 -21
-4 19 -18 -72 16 46 -19 39
38 -5 10 -13 37 -4 20 20
0 11 -39 -8 -5 -66 71 7
29 42 25 4 1 4 -49 -22
1 -45 -43 -82 -31 -65 -28 -13
39 12 63 -32 127 -21 -36 -98
-11 -46 22 -111 -43 3 -18 11
-1 7 4 -17 14 -11 19 9
3 13 -11 -42 10 -6 35 3
-9 15 3 -2 4 15 -8 12
-5 12 -1 -1 -19 -4 -5 -3
-2 8 -40 26 2 -16 0 32
15 -1 -34 -8 -8 -4 -18 13
-14 13 34 -8 -13 -12 21 -4
-1 0 20 -54 12 -2 28 -1
-11 13 22 10 -35 -20 -19 -33
8 7 16 -33 -1 -10 -1 -16
-28 9 -34 4 -4 10 34 49
3 -1 -127 0 -2 -4 8 1
-33 -10 90 1 16 -23 -2 -17
5 23 -13 -74 31 1 40 4
