Assets/StreamingAssets/style_transfer_f16_384.tflite (tflite, 422086 bytes, 72 tensors)

style_params/transformer/expand/conv1/conv/StyleNorm/Conv/Conv2D_bias f2 [16]
-0.00547 0.03516 0.01642 -0.0004077 -0.005066 0.03111 -0.00808 -0.01283
-0.02408 -0.02303 0.01682 0.0375 -0.007133 0.02293 -0.00819 0.03937
00000000: 9a9d 8028 3424 ae8e 309d f727 23a0 92a2
00000010: 2aa6 e5a5 4e24 cd28 4e9f df25 31a0 0a29

style_params/transformer/expand/conv1/conv/StyleNorm/Conv/weights f2 [16, 1, 1, 100]
0.2115 -0.10724 -0.1929 0.1163 0.001683 -0.04184 -0.1061 0.1248
-0.1368 0.2659 0.1056 -0.03204 0.1344 0.0737 0.1711 -0.005787
0.066 -0.1487 0.1859 -0.1289 -0.1345 0.01573 -0.04596 -0.1486
0.1328 0.063 0.2527 -0.1619 -0.1523 0.01408 -0.00954 0.03017
0.1952 -0.06085 -0.02225 -0.1819 -0.0273 0.00982 -0.01611 -0.183
-0.02191 0.1726 -0.1425 -0.09894 -0.0695 0.1561 -0.11584 0.0743
-0.01267 -0.00625 -0.01653 0.2125 0.02281 0.1646 0.159 -0.08466
-0.1505 0.1808 -0.08997 0.05283 0.1747 0.03763 0.167 -0.1923
-0.05646 -0.2087 0.01718 -0.1782 -0.05356 0.05124 0.1757 0.02322
0.03122 -0.0853 -0.2125 -0.1382 -0.1473 -0.04758 0.05316 -0.1047
0.01674 -0.015495 -0.08734 0.1383 -0.113 0.0427 -0.1055 -0.02507
0.01785 0.010216 0.164 -0.07794 0.0611 0.2012 0.1481 0.1062
0.1261 -0.08997 0.05936 -0.1749 0.00605 -0.1859 0.2915 -0.0749
0.1157 0.2874 0.11255 0.2369 -0.09436 -0.01362 0.003717 -0.2235
-0.1534 0.11865 0.1182 -0.04486 0.1663 -0.2893 0.11804 0.1824
0.1785 0.08136 0.2063 0.1544 0.3684 0.0763 0.177 0.01071
0.0763 0.1287 -0.0977 0.10693 -0.1028 0.10895 -0.1084 -0.1985
-0.2041 0.1202 -0.04532 0.06555 0.09064 -0.2137 -0.2593 -0.02191
-0.03568 0.1781 -0.0967 -0.010765 -0.0917 0.2238 0.2277 0.1672
0.04846 0.0692 -0.02759 -0.1355 0.1164 0.1144 0.02208 0.2834
0.10626 0.171 0.03796 -0.00299 -0.1516 -0.2566 -0.1831 -0.05814
-0.0659 -0.1289 -0.2125 0.01869 0.1164 0.05917 -0.07733 0.05185
0.0463 -0.0966 -0.1251 0.0729 -0.2888 0.05545 0.006622 0.1681
0.11523 0.2255 -0.1731 0.0627 0.2484 -0.001538 0.0941 0.0004096
0.2053 0.2142 0.1327 -0.10034 0.3484 0.07153 -0.041 -0.2394
-0.206 -0.04483 -0.03857 -0.0001734 -0.11 -0.1869 -0.274 0.01657
-0.2117 0.02339 0.0938 -0.1755 0.05704 0.01564 0.004482 -0.12213
-0.1688 0.08704 -0.1964 0.282 0.10895 -0.09814 -0.00822 -0.1765
0.01758 -0.1573 -0.02861 0.1147 -0.2091 -0.1953 -0.1879 0.09265
0.0588 -0.1508 -0.08673 -0.10596 -0.2045 -0.1635 0.06384 0.1503
0.141 -0.1805 0.2029 -0.0597 0.1903 -0.1078 -0.1315 0.1958
0.252 0.0648 -0.2355 0.1404 -0.09845 0.1879 -0.03348 -0.04575
00000000: c532 ddae 2cb2 712f e516 5ba9 caae fd2f
00000010: 61b0 4134 c22e 1aa8 4d30 b82c 7a31 ed9d
00000020: 392c c2b0 f331 20b0 4eb0 0724 e2a9 c1b0
00000030: 4030 082c 0b34 2eb1 e0b0 3523 e2a0 b927
00000040: 3f32 caab b2a5 d2b1 fda6 0721 20a4 dbb1
00000050: 9ca5 8631 8fb0 55ae 73ac ff30 6aaf c12c
00000060: 7da2 669e 3ba4 cd32 d725 4431 1731 6bad
00000070: d1b0 c931 c2ad c32a 9731 d128 5831 27b2
00000080: 3aab aeb2 6624 b4b1 dbaa 8f2a 9f31 f225
00000090: fe27 76ad cdb2 6cb0 b7b0 17aa ce2a b3ae
000000a0: 4924 efa3 97ad 6d30 3baf 7729 c1ae 6ba6
000000b0: 9224 3b21 3f31 fdac d22b 7032 bd30 cc2e
000000c0: 0930 c2ad 992b 99b1 321e f3b1 aa34 cbac
000000d0: 682f 9934 342f 9533 0aae f9a2 9d1b 27b3
000000e0: e9b0 982f 912f bea9 5231 a1b4 8e2f d631
000000f0: b631 352d 9a32 f130 e535 e22c aa31 7c21
00000100: e22c 1e30 41ae d82e 94ae f92e f0ae 5ab2
00000110: 88b2 b12f cda9 322c cd2d d7b2 26b4 9ca5
00000120: 91a8 b331 30ae 83a1 dead 2933 4933 5a31
00000130: 342a 6e2c 10a7 56b0 732f 522f a725 8934
00000140: cd2e 7931 dc28 209a dab0 1bb4 dcb1 71ab
00000150: 38ac 20b0 cdb2 c924 732f 932b f3ac a32a
00000160: ed29 2fae 01b0 aa2c 9fb4 192b c81e 6131
00000170: 602f 3733 8ab1 032c f333 4d96 062e b60e
00000180: 9232 db32 3f30 6cae 9335 942c 3fa9 a9b3
00000190: 98b2 bda9 f0a8 af89 0aaf fbb1 62b4 3e24
000001a0: c6b2 fd25 012e 9eb1 4d2b 0124 971c d1af
000001b0: 67b1 922d 49b2 8334 f92e 48ae 35a0 a6b1
000001c0: 8024 09b1 53a7 572f b1b2 40b2 03b2 ee2d
000001d0: 872b d3b0 8dad c8ae 8bb2 3bb1 162c cf30
000001e0: 8330 c7b1 7e32 a4ab 1732 e6ae 35b0 4432
000001f0: 0834 262c 89b3 7e30 4dae 0332 49a8 dba9

style_params/transformer/expand/conv1/conv/StyleNorm/Conv_1/Conv2D_bias f2 [16]
-0.000495 -0.005146 -0.02591 -0.03564 -0.02798 0.00964 -0.0263 0.03029
0.02094 0.00293 0.015274 -0.04782 0.02177 -0.02904 0.00873 0.003864
00000000: 0e90 459d a2a6 90a8 2aa7 f020 bca6 c127
00000010: 5c25 001a d223 1faa 9325 6fa7 7820 ea1b

style_params/transformer/expand/conv1/conv/StyleNorm/Conv_1/weights f2 [16, 1, 1, 100]
-0.1335 0.1863 0.2279 0.0552 -0.05713 0.2311 0.1418 -0.08624
0.1268 -0.0893 0.1671 0.1122 0.0756 -0.04013 0.0673 0.0978
-0.03552 0.0705 -0.1852 0.07697 -0.158 0.10583 -0.1254 0.05347
-0.1381 0.05582 0.1292 -0.0864 0.2446 -0.01374 -0.012634 0.1176
0.0568 0.1713 0.12103 -0.04352 0.0649 -0.04312 -0.1583 0.0871
0.00513 0.1318 -0.0628 0.11194 0.08453 -0.005295 0.0812 -0.0678
-0.2168 -0.07007 0.0358 0.1609 -0.0999 -0.212 -0.10205 -0.06494
0.04504 0.1582 0.2416 0.1238 0.1788 0.1584 0.0769 0.2164
0.00951 -0.003181 0.006756 0.1694 0.1315 -0.1371 -0.0816 -0.1294
-0.076 -0.2019 0.1283 0.0452 0.0921 -0.00663 0.0711 -0.1843
0.0498 0.2502 0.1909 -0.2275 -0.07025 -0.084 0.1772 0.1561
0.1545 0.1925 0.1583 -0.03087 -0.04407 0.1991 0.03528 0.1317
0.08887 -0.1481 -0.21 -0.1785 -0.1835 0.2117 0.1758 -0.1716
0.1365 -0.1544 -0.03937 0.0637 0.1965 -0.02711 0.1914 -0.0912
0.1357 0.1528 -0.1868 0.2001 0.0991 -0.1681 0.0644 -0.11316
-0.1276 0.1361 -0.07806 -0.2089 0.11066 0.0603 -0.1139 -0.1655
-0.0731 -0.1696 -0.1927 -0.166 -0.08496 -0.1604 -0.1995 -0.1643
-0.0718 0.0584 0.1791 0.0679 -0.2106 -0.1508 -0.1786 -0.1482
-0.0812 0.1246 0.1279 -0.2384 -0.1324 -0.01403 -0.02545 0.1465
0.0383 0.11194 0.04105 0.07104 -0.1643 -0.01563 0.03925 0.09436
0.04776 0.1654 0.05203 0.1759 0.0509 -0.04733 -0.000724 -0.06323
0.10345 -0.1692 -0.1956 -0.0158 -0.1322 -0.1685 0.001984 -0.1754
-0.1647 -0.1697 0.06946 -0.1633 0.06384 -0.00667 -0.011406 0.07544
-0.07965 -0.1597 -0.05728 0.2052 0.1521 0.00816 0.01804 -0.03033
0.01024 0.169 -0.04395 0.127 0.1392 -0.02866 -0.1342 -0.0796
-0.1351 -0.2106 -0.1532 0.01477 0.1164 0.1548 -0.04944 -0.11804
-0.189 0.1549 -0.1252 -0.226 -0.04773 0.008125 -0.0724 -0.1203
0.05267 0.1869 -0.0298 -0.093 -0.0007486 0.073 -0.0791 -0.03564
-0.0656 0.2023 0.2241 0.0798 -0.1992 -0.2593 -0.1827 -0.168
-0.2059 -0.01675 0.2808 -0.0268 0.0406 -0.05884 0.1287 -0.0735
-0.0628 0.0733 -0.1349 -0.02069 -0.06247 0.1355 -0.12115 -0.07513
-0.1597 -0.2312 0.1707 0.1031 -0.0778 0.0456 0.04852 -0.0611
00000000: 46b0 f631 4b33 112b 50ab 6533 8a30 85ad
00000010: 0f30 b7ad 5931 2e2f d72c 23a9 4f2c 422e
00000020: 8ca8 832c edb1 ed2c 0eb1 c62e 03b0 d82a
00000030: 6bb0 252b 2230 88ad d433 09a3 78a2 872f
00000040: 452b 7b31 bf2f 92a9 272c 85a9 11b1 932d
00000050: 411d 3830 05ac 2a2f 692d 6c9d 322d 57ac
00000060: f0b2 7cac 9528 2631 65ae c9b2 88ae 28ac
00000070: c429 1031 bb33 ec2f b931 1231 ec2c ed32
00000080: de20 849a eb1e 6c31 3530 63b0 39ad 24b0
00000090: ddac 76b2 1b30 c929 e52d ca9e 8d2c e6b1
000000a0: 602a 0134 1c32 48b3 7fac 60ad ac31 ff30
000000b0: f230 2932 1131 e7a7 a4a9 5f32 8428 3730
000000c0: b02d bdb0 b8b2 b6b1 dfb1 c632 a031 7eb1
000000d0: 5e30 f1b0 0aa9 142c 4a32 f1a6 2032 d6ad
000000e0: 5830 e430 fab1 6732 582e 61b1 1f2c 3eaf
000000f0: 15b0 5b30 ffac afb2 152f b82b 4aaf 4cb1
00000100: aeac 6db1 2bb2 50b1 70ad 22b1 62b2 42b1
00000110: 98ac 7a2b bb31 582c bdb2 d3b0 b7b1 beb0
00000120: 32ad f92f 1830 a1b3 3db0 2fa3 84a6 b030
00000130: e728 2a2f 4129 8c2c 42b1 00a4 0629 0a2e
00000140: 1d2a 4b31 a92a a131 842a 0faa ee91 0cac
00000150: 9f2e 6ab1 42b2 0ba4 3bb0 64b1 1018 9db1
00000160: 45b1 6eb1 722c 3ab1 162c d59e d7a1 d42c
00000170: 19ad 1cb1 55ab 9132 de30 2e20 9e24 c4a7
00000180: 3e21 6831 a0a9 1030 7430 56a7 4bb0 18ad
00000190: 53b0 bdb2 e7b0 9023 732f f430 54aa 8eaf
000001a0: 0cb2 f530 02b0 3bb3 1caa 2920 a2ac b3af
000001b0: be2a fb31 a1a7 f4ad 2292 ac2c 10ad 90a8
000001c0: 33ac 7932 2c33 1b2d 60b2 26b4 d9b1 60b1
000001d0: 97b2 4aa4 7e34 dca6 3229 88ab 1e30 b4ac
000001e0: 05ac b12c 51b0 4ca5 ffab 5630 c1af cfac
000001f0: 1cb1 66b3 7631 992e fbac d629 362a d2ab

style_params/transformer/expand/conv2/conv/StyleNorm/Conv/Conv2D_bias f2 [8]
0.0764 0.12225 0.0513 0.01188 0.00934 -0.00453 0.06445 0.08417
00000000: e42c d32f 912a 1522 c820 a49c 202c 632d

style_params/transformer/expand/conv2/conv/StyleNorm/Conv/weights f2 [8, 1, 1, 100]
-0.2776 -0.0669 -0.1962 0.217 0.02914 0.1478 -0.1749 -0.0135
0.1245 0.1722 0.01845 -0.098 0.3545 -0.2108 0.2322 0.1042
-0.1038 0.2156 0.07074 -0.10077 0.0974 -0.0966 0.07056 -0.1425
-0.2113 0.177 -0.252 -0.1823 0.2405 -0.1238 -0.325 0.1204
-0.01865 0.1672 -0.3484 0.03476 0.1257 0.1598 0.1262 -0.0329
0.1715 -0.10626 0.1904 0.2227 -0.10443 -0.1428 0.2203 -0.01349
-0.0644 -0.311 0.0664 -0.003353 0.03665 -0.2444 0.276 0.1316
0.1837 0.1263 0.01317 0.2686 0.0006146 -0.00909 -0.2002 0.1874
-0.2408 0.1654 -0.08777 0.2233 0.1287 -0.06793 -0.131 -0.2666
-0.2664 -0.02368 -0.0553 0.2634 0.065 -0.10956 0.00488 0.1626
-0.0708 0.2542 -0.1407 -0.10706 -0.191 0.07007 0.2106 -0.1268
-0.169 -0.0338 0.06366 0.12024 0.2007 -0.1263 -0.164 0.0906
-0.1589 -0.0773 0.00854 0.1351 0.2896 -0.2144 0.05475 -0.1292
-0.2375 -0.04828 0.09 0.08026 -0.1487 0.2448 0.375 -0.2593
0.1725 0.1174 0.0704 0.1744 -0.03543 0.2184 0.1727 -0.1659
-0.3667 0.276 0.1289 0.02939 -0.179 0.11127 -0.1589 -0.10474
0.1588 0.01257 0.05383 -0.0452 -0.1273 0.07544 -0.2301 0.08276
-0.0921 -0.00314 -0.02623 0.02788 0.3496 -0.0411 -0.09375 0.04837
-0.0115 -0.0336 0.2534 0.082 -0.088 0.0391 0.1929 0.2488
0.1694 0.2281 0.1676 0.1666 -0.05493 0.127 -0.1658 0.2808
-0.121 0.2563 -0.03906 0.135 -0.2092 0.2482 -0.03577 0.002014
0.0803 -0.226 -0.2668 -0.3293 -0.2106 0.02786 -0.0845 0.08093
0.00935 0.01038 -0.02716 -0.1539 0.0459 0.1656 -0.2537 0.0785
0.04883 0.09753 0.1862 -0.0941 0.337 -0.2322 0.1627 -0.12317
0.1616 0.2896 -0.2668 -0.2568 -0.0883 -0.2269 0.1532 -0.011894
0.1698 -0.4646 -0.01044 0.083 -0.1843 0.2317 0.0409 0.211
0.2634 -0.2532 -0.04718 -0.02132 0.2542 -0.2328 0.0734 0.0361
-0.1718 0.02472 0.207 -0.0806 0.1614 0.325 -0.2125 -0.0796
-0.1222 -0.1251 -0.1328 -0.08636 0.2386 0.1492 -0.0998 0.1808
-0.1847 -0.0996 -0.1566 0.158 0.1162 0.1582 0.06494 0.1941
0.08936 -0.2952 -0.2377 0.02345 -0.1149 -0.031 0.1001 -0.01897
-0.2654 -0.1947 0.1263 -0.2607 0.06744 0.0552 0.0891 -0.11475
00000000: 71b4 48ac 47b2 f232 7627 bb30 99b1 e9a2
00000010: f82f 8331 b924 46ae ac35 bfb2 6e33 ab2e
00000020: a5ae e632 872c 73ae 3c2e 2fae 842c 8fb0
00000030: c3b2 aa31 08b4 d5b1 b233 ecaf 33b5 b52f
00000040: c6a4 5a31 93b5 7328 0630 1d31 0a30 36a8
00000050: 7d31 cdae 1832 2033 afae 92b0 0d33 e8a2
00000060: 1fac fab4 402c de9a b128 d2b3 6a34 3630
00000070: e131 0b30 be22 4c34 0911 a7a0 68b2 ff31
00000080: b5b3 4b31 9ead 2533 1e30 59ac 31b0 44b4
00000090: 43b4 10a6 14ab 3734 292c 03af ff1c 3431
000000a0: 88ac 1134 81b0 daae 1db2 7c2c bd32 0fb0
000000b0: 68b1 54a8 132c b22f 6c32 0bb0 3fb1 cc2d
000000c0: 16b1 f2ac 5f20 5330 a234 dcb2 022b 22b0
000000d0: 9ab3 2eaa c32d 232d c2b0 d533 0036 26b4
000000e0: 8531 832f 812c 9531 89a8 fd32 8731 4fb1
000000f0: deb5 6a34 2030 8627 bab1 1f2f 16b1 b4ae
00000100: 1531 7022 e42a c9a9 13b0 d42c 5db3 4c2d
00000110: e5ad 6e9a b7a6 2327 9835 43a9 00ae 312a
00000120: e3a1 4da8 0e34 3f2d a2ad 0129 2c32 f633
00000130: 6c31 4d33 5d31 5531 08ab 1030 4eb1 7e34
00000140: beaf 1a34 00a9 5230 b2b2 f133 94a8 2018
00000150: 242d 3bb3 45b4 45b5 bdb2 2227 68ad 2e2d
00000160: ca20 5121 f4a6 edb0 e029 4d31 0fb4 062d
00000170: 402a 3e2e f531 06ae 6435 6eb3 3531 e2af
00000180: 2c31 a234 45b4 1cb4 a7ad 43b3 e730 17a2
00000190: 6f31 6fb7 58a1 502d e6b1 6a33 3c29 c132
000001a0: 3734 0db4 0aaa 75a5 1134 73b3 b32c 9f28
000001b0: 7fb1 5426 a032 29ad 2a31 3335 cdb2 18ad
000001c0: d2af 01b0 40b0 87ad a333 c630 63ae c931
000001d0: e9b1 60ae 03b1 0e31 702f 1031 282c 3632
000001e0: b82d b9b4 9bb3 0126 5baf f0a7 682e dba4
000001f0: 3fb4 3bb2 0b30 2cb4 512c 112b b42d 58af

style_params/transformer/expand/conv2/conv/StyleNorm/Conv_1/Conv2D_bias f2 [8]
-0.02321 0.01251 -0.0307 0.00776 0.02678 -0.01491 -0.025 0.01472
00000000: f1a5 6822 dca7 f21f db26 a2a3 66a6 8923

style_params/transformer/expand/conv2/conv/StyleNorm/Conv_1/weights f2 [8, 1, 1, 100]
0.2131 0.05325 -0.1376 -0.09406 0.0435 0.1571 -0.09143 0.003933
-0.013565 -0.1765 0.1572 0.2086 -0.012375 -0.1699 -0.1818 -0.1973
0.0889 -0.1328 0.04425 -0.11346 -0.133 -0.0394 -0.1849 -0.03552
0.00914 -0.1251 -0.0332 -0.01958 0.1462 -0.04498 0.01616 -0.1109
-0.02434 0.07117 0.0859 0.1454 -0.03418 0.01886 -0.1527 0.1532
-0.0991 0.07605 -0.1901 -0.126 0.03604 0.0683 0.09766 -0.22
-0.1364 0.0415 0.1843 0.1433 -0.05197 0.1492 0.0371 -0.1367
0.1897 0.04224 0.02919 -0.02202 -0.185 -0.00892 -0.2239 0.03864
0.1971 0.01671 -0.10223 -0.0627 0.1672 -0.156 0.09814 -0.001095
-0.132 -0.1628 -0.03857 0.1975 0.01584 0.08246 -0.02208 -0.2034
0.2076 -0.129 0.2101 0.1655 0.1207 -0.12177 -0.1698 0.04297
-0.2412 0.11584 0.00938 0.1517 -0.1465 0.0826 0.2144 -0.1733
0.204 0.1112 -0.05954 0.09064 -0.01384 0.2206 0.126 0.2083
0.1584 0.1313 -0.04974 -0.2194 0.0761 0.2004 0.0934 -0.157
-0.007202 0.074 -0.0359 -0.0775 0.05075 0.03656 -0.00911 -0.00767
-0.2278 0.006805 0.00721 0.09485 -0.1344 -0.12354 0.03455 0.0655
-0.01225 -0.131 0.06476 -0.1242 0.2272 -0.154 0.02217 -0.00228
0.1382 -0.0444 0.013725 0.1929 -0.1615 0.03357 0.07056 0.2375
0.0732 -0.1119 -0.061 0.00817 -0.02626 0.010635 -0.1663 0.11194
0.1737 -0.02858 0.0511 0.2041 -0.0357 0.1658 0.1697 -0.0535
-0.05762 0.05573 0.1289 -0.2598 0.04883 0.2361 -0.09827 0.259
0.1592 0.1079 -0.222 0.0826 -0.2284 -0.1318 -0.1394 -0.1343
-0.0685 0.1217 0.1177 0.2032 -0.126 -0.0986 -0.10913 0.1396
0.02509 0.0283 -0.02011 0.03038 0.1046 -0.1656 0.1193 0.1252
-0.01628 1.293e-05 -0.1348 -0.2329 -0.01825 -0.248 -0.2334 0.1746
-0.2421 0.1632 0.0654 -0.188 -0.07825 0.01515 -0.1797 0.1262
0.10016 0.0665 -0.10596 0.12067 0.1625 -0.2301 0.1602 0.1519
0.1697 0.1022 0.162 0.006107 -0.146 0.2009 -0.2367 -0.24
-0.1554 -0.236 0.1567 0.1931 -0.1768 -0.03143 0.04166 -0.1075
0.06555 0.11914 0.11865 0.1315 0.12 -0.1335 -0.1455 0.1564
-0.0924 -0.1998 0.1126 0.0649 0.05856 -0.10974 -0.00511 -0.0689
0.1442 0.04297 -0.1946 0.06232 -0.02315 -0.04175 0.078 0.1766
00000000: d232 d12a 67b0 05ae 9129 0731 daad 071c
00000010: f2a2 a6b1 0831 ad32 56a2 70b1 d1b1 50b2
00000020: b12d 40b0 aa29 43af 42b0 0ba9 ebb1 8ca8
00000030: ae20 01b0 40a8 03a5 ae30 c2a9 2324 19af
00000040: 3ba6 8e2c 7f2d a730 60a8 d424 e3b0 e730
00000050: 58ae de2c 15b2 08b0 9d28 5f2c 402e 0ab3
00000060: 5db0 5029 e631 9630 a7aa c630 c028 60b0
00000070: 1232 6829 7927 a3a5 ecb1 91a0 2ab3 f228
00000080: 4f32 4724 8bae 03ac 5a31 feb0 482e 7c94
00000090: 39b0 36b1 f0a8 5232 0e24 472d a7a5 82b2
000000a0: a532 21b0 b932 4c31 ba2f cbaf 6fb1 8029
000000b0: b8b3 6a2f cd20 db30 b0b0 492d dc32 8cb1
000000c0: 8732 1e2f 9fab cd2d 16a3 0f33 0830 aa32
000000d0: 1231 3430 5eaa 05b3 df2c 6a32 fa2d 06b1
000000e0: 609f bc2c 98a8 f6ac 7f2a ae28 aaa0 db9f
000000f0: 4ab3 f81e 621f 122e 4db0 e8af 6c28 312c
00000100: 46a2 31b0 252c f3af 4533 eeb0 ad25 ab98
00000110: 6c30 afa9 0723 2c32 2bb1 4c28 842c 9a33
00000120: af2c 29af cfab 2f20 b9a6 7221 52b1 2a2f
00000130: 8f31 51a7 8a2a 8832 92a8 4e31 6e31 d9aa
00000140: 60ab 222b 2030 28b4 402a 8e33 4aae 2534
00000150: 1831 e82e 1bb3 492d 4fb3 38b0 76b0 4cb0
00000160: 62ac ca2f 882f 8132 08b0 4fae fcae 7830
00000170: 6c26 3f27 26a5 c727 b22e 4db1 a32f 0230
00000180: 2ba4 d900 50b0 74b3 aca4 f0b3 78b3 9631
00000190: bfb3 3931 302c 04b2 02ad c223 c0b1 0a30
000001a0: 692e 422c c8ae b92f 3331 5db3 2031 dc30
000001b0: 6e31 8a2e 2f31 411e acb0 6e32 93b3 aeb3
000001c0: f9b0 8db3 0431 2e32 a8b1 06a8 5529 e1ae
000001d0: 322c a02f 982f 3530 ae2f 46b0 a8b0 0131
000001e0: eaad 65b2 352f 272c 7f2b 06af 3c9d 69ac
000001f0: 9d30 8029 3ab2 fa2b eda5 58a9 fe2c a731

style_params/transformer/expand/conv3/conv/StyleNorm/Conv/weights f2 [3, 1, 1, 100]
-0.1644 -0.1404 0.1316 0.05603 -0.04666 0.1409 -0.03137 0.0846
-0.1062 -0.01496 -0.10596 -0.06146 0.0837 -0.1815 -0.2025 -0.0818
-0.1953 0.0171 -0.1083 0.05856 0.0434 0.0393 -0.1155 -0.193
0.1576 -0.08594 -0.1552 0.0856 0.2114 -0.06647 -0.1351 -0.17
0.2035 0.073 0.2151 0.04456 0.2129 0.10876 -0.172 -0.2123
-0.1738 -0.12036 -0.0472 -0.04187 0.03754 0.0822 0.11523 -0.03662
-0.2065 0.03897 0.0949 -0.1469 -0.1243 0.2046 0.011856 -0.1554
-0.05386 0.17 0.2133 -0.2031 0.03564 0.0669 0.1515 -0.11053
-0.1053 -0.02339 -0.0549 0.2054 -0.03296 -0.008446 -0.11206 0.02242
-0.2085 -0.2085 -0.1251 -0.0815 0.07916 0.05835 -0.0808 -0.1713
0.01538 -0.06104 -0.1515 -0.0412 -0.1472 0.01637 0.02908 -0.1292
0.0977 -0.1378 -0.0937 0.0865 -0.1925 -0.02135 -0.1809 0.0268
-0.00639 0.0733 0.02895 -0.1315 -0.188 -0.06934 0.08777 -0.0631
0.207 -0.0859 0.0572 -0.2034 -0.164 -0.0569 0.1747 -0.1791
-0.1606 -0.1536 -0.1733 -0.011795 0.01631 0.07684 -0.1074 0.05713
0.223 0.05798 0.1736 -0.1351 -0.167 0.0533 -0.11914 0.03983
0.1874 0.1365 0.1555 0.1921 0.2054 0.0708 0.01418 0.04578
0.1289 -0.1769 -0.12067 -0.2246 -0.1207 -0.04645 -0.10925 0.01383
0.08246 0.1357 -0.1537 -0.1309 -0.1749 0.04672 0.0981 -0.1882
-0.1316 0.0172 -0.08215 -0.003315 -0.09064 -0.001894 -0.03775 -0.1921
0.2025 0.04065 -0.0162 0.0791 -0.1758 -0.1985 0.1227 -0.01309
0.1422 -0.07886 -0.1611 0.08905 0.06305 -0.2355 -0.2275 -0.1686
-0.1736 0.09845 -0.1952 -0.221 0.1469 -0.1471 -0.151 -0.0568
0.02953 0.132 -0.0782 0.1844 0.2146 0.1243 -0.1965 0.05185
-0.08453 -0.04453 -0.01213 -0.1385 0.1375 0.0261 0.2517 -0.02522
-0.0968 0.11395 -0.1964 -0.1636 0.07874 -0.137 -0.187 -0.0698
-0.1338 0.1729 0.1841 -0.1631 -0.1649 -0.1334 -0.02953 0.06055
0.121 -0.02228 -0.1923 -0.2164 -0.221 -0.2083 -0.2319 -0.1409
-0.1857 0.2397 -0.1808 0.1768 -0.0537 0.0922 -0.1783 -0.1149
-0.1873 0.1729 0.10114 -0.08606 0.04907 -0.079 -0.1493 -0.06192
0.02496 -0.11456 -0.01193 -0.1721 -0.01551 -0.01665 0.08765 0.02982
-0.1959 -0.2063 0.2355 -0.01464 0.0375 -0.01224 0.11725 0.1365
00000000: 43b1 7eb0 3630 2c2b f9a9 8230 04a8 6a2d
00000010: ccae a9a3 c8ae deab 5b2d cfb1 7bb2 3cad
00000020: 40b2 6124 eeae 7f2b 8e29 0829 64af 2db2
00000030: 0b31 80ad f7b0 7a2d c432 41ac 53b0 71b1
00000040: 8332 ac2c e232 b429 d032 f62e 81b1 cbb2
00000050: 90b1 b4af 0baa 5ca9 ce28 432d 602f b0a8
00000060: 9cb2 fd28 132e b3b0 f5af 8c32 1222 f9b0
00000070: e5aa 7131 d332 80b2 9028 482c d930 13af
00000080: bdae fda5 07ab 9332 38a8 53a0 2caf bd25
00000090: acb2 acb2 01b0 37ad 112d 782b 2cad 7bb1
000000a0: e023 d0ab d9b0 46a9 b6b0 3124 7227 22b0
000000b0: 412e 69b0 ffad 892d 29b2 77a5 cab1 dc26
000000c0: 8b9e b12c 6927 35b0 04b2 70ac 9e2d 0aac
000000d0: a032 7fad 522b 82b2 3fb1 48ab 9731 bbb1
000000e0: 24b1 eab0 8cb1 0aa2 2d24 eb2c e0ae 502b
000000f0: 2333 6c2b 8e31 53b0 58b1 d32a a0af 1929
00000100: ff31 5e30 fa30 2632 9332 882c 4323 dc29
00000110: 2030 a9b1 b9af 30b3 baaf f2a9 feae 1523
00000120: 472d 5830 ebb0 30b0 99b1 fb29 472e 06b2
00000130: 36b0 6724 42ad ca9a cdad c297 d5a8 26b2
00000140: 7b32 3429 26a4 102d a0b1 5ab2 da2f b4a2
00000150: 8d30 0cad 28b1 b32d 092c 89b3 48b3 65b1
00000160: 8eb1 4d2e 3fb2 12b3 b330 b5b0 d5b0 45ab
00000170: 8f27 3930 01ad e731 de32 f52f 4ab2 a32a
00000180: 69ad b3a9 36a2 6fb0 6630 ae26 0734 75a6
00000190: 32ae 4b2f 49b2 3cb1 0a2d 62b0 fcb1 78ac
000001a0: 48b0 8831 e431 38b1 47b1 45b0 8fa7 c02b
000001b0: be2f b4a5 27b2 edb2 12b3 aab2 6cb3 82b0
000001c0: f1b1 ac33 c9b1 a831 e0aa e72d b5b1 5baf
000001d0: feb1 8831 792e 82ad 482a 0ead c7b0 edab
000001e0: 6426 55af 1ca2 82b1 f1a3 43a4 9c2d a227
000001f0: 45b2 9ab2 8933 7fa3 cd28 44a2 812f 5e30

style_params/transformer/expand/conv3/conv/StyleNorm/Conv_1/weights f2 [3, 1, 1, 100]
-0.10803 -0.071 0.0868 0.2122 0.1399 -0.1694 -0.03964 -0.2062
0.1262 0.08905 -0.1173 0.2073 0.0327 -0.096 -0.03522 -0.1262
-0.03598 -0.1552 -0.1097 0.018 0.0942 0.0934 0.1071 0.09406
0.1907 -0.04855 -0.1833 0.1422 -0.1263 -0.075 0.1862 0.01514
-0.197 0.0499 -0.011345 0.09094 -0.0874 -0.11707 -0.05518 0.01515
0.2239 -0.0944 -0.1809 0.004494 0.10095 0.0918 0.00821 0.0605
-0.05908 0.0914 0.04648 8.42e-05 -0.0186 0.1709 0.04346 0.07654
0.1449 -0.12164 0.1555 0.2036 -0.04245 -0.2042 -0.2058 -0.002666
0.0962 -0.0541 0.12225 -0.05112 -0.1472 0.00776 -0.1707 -0.0186
-0.012764 -0.1438 0.01475 0.05853 -0.1009 0.07544 -0.052 -0.11285
0.1287 -0.2069 0.1827 0.1152 -0.006165 0.09326 0.05246 -0.11444
-0.1699 -0.1023 0.09314 0.0188 0.0131 0.02531 -0.0296 0.1489
-0.04666 -0.135 -0.06024 0.1803 0.0905 0.09125 0.1162 0.10547
-0.043 0.0779 0.2139 -0.11346 0.1166 0.0466 0.136 -0.0532
0.04 0.1486 -0.1616 -0.1758 0.09235 -0.02844 0.1846 -0.1586
-0.04773 -0.1509 0.02104 -0.2083 -0.08093 0.06107 0.2341 -0.1378
0.1406 0.000807 -0.1619 -0.09076 0.1437 -0.00736 0.0008097 -0.03108
-0.01177 -0.007042 -0.0851 -0.03622 0.08875 -0.05603 -0.10675 0.0215
-0.1255 -0.0639 -0.10486 -0.04498 -0.0954 -0.07404 -0.128 0.05518
-0.05664 0.03156 0.1088 0.1648 -0.159 -0.07794 0.007492 0.03693
-0.069 0.0699 -0.1375 -0.007233 -0.1876 0.0387 0.0746 -0.0705
-0.02507 -0.1602 0.03622 0.1115 -0.1251 -0.09 -0.1874 -0.195
0.1815 0.084 -0.1416 -0.12305 0.1917 0.05975 -0.05447 0.0341
0.10626 0.02266 0.1267 0.1582 0.06415 0.0668 0.1472 -0.1345
-0.0735 -0.1294 0.1777 0.1602 0.10223 0.01512 -0.027 -0.10974
-0.1592 0.1514 -0.04944 -0.0398 -0.08575 0.1248 -0.0785 0.04425
-0.1707 -0.09973 0.1525 -0.1268 0.05835 -0.06137 -0.184 0.11676
-0.01732 0.073 0.01874 -0.2668 0.02507 0.00532 0.1779 0.03787
0.01084 0.04175 -0.1602 0.02438 0.0467 -0.1528 -0.1702 0.1141
0.0326 -0.04294 0.02835 -0.01251 0.1522 -0.106 -0.2106 0.1174
-0.16 -0.198 0.2006 -0.097 0.1852 0.1099 -0.07947 0.1195
-0.1737 0.1101 -0.07166 -0.1743 0.1395 -0.02498 -0.1376 -0.1366
00000000: eaae 8bac 8e2d ca32 7a30 6cb1 13a9 99b2
00000010: 0a30 b32d 82af a232 3028 25ae 82a8 0ab0
00000020: 9ba8 f7b0 05af 9c24 072e fa2d db2e 052e
00000030: 1a32 37aa deb1 8d30 0bb0 cdac f531 c023
00000040: 4eb2 632a cfa1 d22d 98ad 7eaf 10ab c223
00000050: 2a33 0bae cab1 9a1c 762e e02d 3420 be2b
00000060: 90ab d92d f329 8505 c3a4 7831 9029 e62c
00000070: a330 c9af fa30 8432 6fa9 89b2 96b2 7699
00000080: 282e edaa d32f 8baa b6b0 f21f 76b1 c3a4
00000090: 89a2 9ab0 8d23 7e2b 75ae d42c a8aa 39af
000000a0: 1e30 9fb2 d931 5f2f 509e f82d b72a 53af
000000b0: 70b1 8cae f62d d024 b522 7b26 94a7 c430
000000c0: f9a9 52b0 b6ab c531 cb2d d72d 702f c02e
000000d0: 81a9 fc2c d832 43af 762f f729 5a30 cfaa
000000e0: 1f29 c130 2cb1 a0b1 e92d 48a7 e831 13b1
000000f0: 1caa d4b0 6325 aab2 2ead d12b 7e33 69b0
00000100: 8030 9c12 2eb1 cfad 9930 899f a212 f5a7
00000110: 07a2 369f 72ad a3a8 ae2d 2cab d5ae 8125
00000120: 04b0 17ac b6ae c2a9 1bae bdac 19b0 102b
00000130: 40ab 0a28 f72e 4631 17b1 fdac ac1f ba28
00000140: 6aac 792c 66b0 689f 01b2 f428 c62c 83ac
00000150: 6ba6 20b1 a328 232f 01b0 c3ad ffb1 3db2
00000160: cf31 602d 88b0 e0af 2232 a62b f9aa 5d28
00000170: cd2e cd25 0e30 1031 1b2c 462c b630 4eb0
00000180: b4ac 24b0 b031 2031 8b2e be23 e9a6 06af
00000190: 18b1 d830 54aa 18a9 7dad fd2f 06ad aa29
000001a0: 76b1 62ae e130 0fb0 782b dbab e3b1 792f
000001b0: 6fa4 ac2c cc24 45b4 6b26 731d b131 d928
000001c0: 8d21 5829 20b1 3e26 fa29 e4b0 72b1 4d2f
000001d0: 2c28 7fa9 4227 68a2 df30 c9ae bdb2 832f
000001e0: 1fb1 56b2 6b32 35ae ed31 092f 16ad a62f
000001f0: 8fb1 0c2f 96ac 94b1 7730 65a6 67b0 5fb0

style_params/transformer/residual/residual1/conv1/StyleNorm/Conv/Conv2D_bias f2 [32]
0.01002 0.02533 0.03232 0.02763 0.044 0.0302 -0.011406 -0.010826
0.0485 0.02345 0.013664 0.01895 0.07275 0.1812 0.04892 0.0798
0.0695 -0.004383 0.01897 0.0596 0.002407 0.2942 0.056 0.0159
0.0198 0.02989 0.03528 0.02208 0.00926 0.0352 0.04538 0.02106
00000000: 2121 7c26 2328 1327 a229 bb27 d7a1 8ba1
00000010: 352a 0126 ff22 da24 a82c cc31 432a 1b2d
00000020: 732c 7d9c db24 a12b ee18 b534 2b2b 1224
00000030: 1225 a727 8428 a725 be20 8128 cf29 6425

style_params/transformer/residual/residual1/conv1/StyleNorm/Conv/weights f2 [32, 1, 1, 100]
0.1377 -0.0918 0.00806 -0.1617 -0.1589 0.07263 0.00505 -0.08716
-0.03775 0.05743 0.08777 0.001871 -0.013664 -0.122 0.1882 0.1833
-0.07874 0.12463 -0.1987 -0.06192 -0.201 -0.1023 -0.1298 -0.1559
0.1531 -0.10144 0.1781 -0.1954 0.0745 -0.04755 -0.1407 0.0899
-0.02304 0.0251 0.09186 -0.1423 0.003002 -0.0475 -0.2333 0.2202
-0.02403 0.11346 -0.1378 0.01802 0.04092 0.03238 -0.09174 0.03763
0.2673 -0.02419 -0.1576 0.1318 0.03674 0.107 0.0355 -0.09436
0.03104 -0.01336 0.08813 -0.0449 0.195 -0.1602 0.0009313 0.126
0.1142 0.00262 0.04764 -0.1531 0.0754 0.01889 0.07635 0.0746
-0.007404 0.05942 -0.1583 -0.0996 0.1251 -0.1869 -0.0773 0.0585
0.1647 -0.08997 -0.05746 0.12476 -0.09784 0.132 -0.1925 -0.0902
-0.03091 -0.02924 -0.1737 -0.10114 -0.011986 -0.04324 -0.02151 0.1761
-0.1991 0.1511 -0.1198 0.06174 0.0825 -0.1705 0.1013 -0.02348
-0.2465 0.08984 -0.0767 -0.01175 -0.0919 0.0577 0.09204 -0.1003
0.1118 -0.04193 0.0766 0.04254 -0.1786 -0.1127 0.1405 0.1643
-0.0611 -0.1736 0.2046 0.1322 -0.0868 0.0204 -0.0851 0.1594
0.205 -0.0632 0.02892 0.12195 0.1326 0.1276 -0.1823 -0.1007
0.151 0.17 0.1646 0.03937 0.1141 0.10443 0.08215 -0.03372
-0.10156 0.2812 0.1882 0.00515 0.003784 -0.2266 0.1018 0.001269
-0.2065 0.02112 -0.00614 -0.0517 0.1196 -0.00862 -0.06335 -0.1842
-0.1327 0.08264 -0.0712 -0.1432 0.1043 -0.00245 -0.12317 0.1434
-0.0629 0.1075 0.02354 0.2262 -0.1553 -0.0938 0.2136 -0.1135
0.1694 0.01318 -0.10156 0.09265 -0.06696 -0.08795 0.2296 -0.2622
-0.01052 0.003708 -0.137 -0.06207 0.1382 -0.0951 0.0344 -0.02927
0.1991 -0.00972 -0.195 -0.0753 -0.1373 0.1932 -0.1202 0.0354
0.1206 0.1687 0.1453 -0.04492 0.0086 -0.1333 0.05417 0.04083
-0.0987 0.02304 0.0794 -0.1097 0.008446 0.141 0.1356 0.1095
0.0808 0.08923 0.0463 0.2327 -0.2903 -0.1038 -0.003452 -0.2268
0.2123 0.1556 0.184 0.05637 0.0122 -0.1648 -0.227 0.002314
-0.05505 -0.2275 0.0553 0.002594 0.0844 -0.02689 0.00983 0.001558
0.2083 -0.0718 -0.1769 0.001953 0.11053 -0.02441 -0.2046 0.1107
0.2727 -0.1119 0.1434 -0.09753 0.1509 -0.0727 -0.1621 -0.07996
00000000: 6830 e0ad 2020 2db1 16b1 a62c 2c1d 94ad
00000010: d5a8 5a2b 9e2d aa17 ffa2 cfaf 0632 de31
00000020: 0aad fa2f 5cb2 edab 6fb2 8cae 27b0 fdb0
00000030: e630 7eae b331 41b2 c52c 16aa 81b0 c12d
00000040: e6a5 6d26 e12d 8eb0 261a 14aa 77b3 0c33
00000050: 27a6 432f 69b0 9d24 3d29 2528 dfad d128
00000060: 4734 31a6 0bb1 3830 b428 d92e 8b28 0aae
00000070: f227 d7a2 a42d bfa9 3d32 20b1 a113 0830
00000080: 4f2f 5e19 192a e6b0 d32c d624 e32c c62c
00000090: 959f 9b2b 11b1 60ae 0130 fbb1 f2ac 7d2b
000000a0: 4531 c2ad 5bab fc2f 43ae 3930 29b2 c6ad
000000b0: eaa7 7ca7 8fb1 79ae 23a2 89a9 82a5 a331
000000c0: 5fb2 d630 abaf e72b 482d 75b1 7c2e 03a6
000000d0: e3b3 c02d e9ac 04a2 e2ad 632b e42d 6bae
000000e0: 282f 5ea9 e72c 7229 b7b1 36af 7f30 4231
000000f0: d2ab 8eb1 8c32 3b30 8ead 3925 72ad 1a31
00000100: 8f32 0bac 6727 ce2f 3e30 1530 d5b1 72ae
00000110: d530 7131 4431 0a29 4d2f af2e 422d 51a8
00000120: 80ae 8034 0632 461d c01b 40b3 842e 3315
00000130: 9cb2 6825 4a9e 9eaa a82f 6aa0 0eac e5b1
00000140: 3fb0 4a2d 8fac 95b0 ad2e 0599 e2af 9730
00000150: 07ac e12e 0726 3d33 f8b0 01ae d632 44af
00000160: 6c31 c022 80ae ee2d 49ac a1ad 5933 32b4
00000170: 63a1 981b 62b0 f2ab 6c30 16ae 6728 7ea7
00000180: 5f32 faa0 3db2 d2ac 65b0 2f32 b1af 8828
00000190: b82f 6631 a630 c0a9 6720 44b0 ef2a 3a29
000001a0: 51ae e625 152d 05af 5320 8330 5730 022f
000001b0: 2c2d b62d ed29 7233 a5b4 a5ae 129b 42b3
000001c0: cb32 fb30 e331 372b 3f22 46b1 44b3 bd18
000001d0: 0cab 48b3 142b 5019 672d e2a6 0821 6216
000001e0: aa32 98ac a9b1 0018 132f 40a6 8cb2 162f
000001f0: 5d34 29af 9730 3eae d430 a7ac 30b1 1ead

style_params/transformer/residual/residual1/conv1/StyleNorm/Conv_1/Conv2D_bias f2 [32]
-0.0519 0.006695 0.01872 -0.00822 -0.01933 0.02974 -0.005398 -0.04456
-0.03268 0.01072 0.00236 0.01991 0.03262 -0.04117 0.02675 0.03503
-0.02324 0.02728 -0.002087 -0.013695 0.006927 0.02202 0.013084 -0.01617
0.02298 0.01959 0.01724 0.01898 -0.03638 0.014755 -0.02611 0.03873
00000000: a5aa db1e cb24 35a0 f3a4 9d27 879d b4a9
00000010: 2fa8 7d21 d518 1925 2d28 45a9 d926 7c28
00000020: f3a5 fc26 4698 03a3 181f a325 b322 24a4
00000030: e225 0425 6a24 dc24 a8a8 8e23 afa6 f528

style_params/transformer/residual/residual1/conv1/StyleNorm/Conv_1/weights f2 [32, 1, 1, 100]
0.0773 -0.1914 -0.2622 -0.05753 0.005543 -0.0681 -0.1284 0.02765
-0.00965 -0.11487 -0.1205 -0.212 0.02545 0.04184 -0.1757 0.01076
0.0918 -0.125 0.10754 -0.1792 0.1078 -0.01936 0.1103 0.01389
-0.235 -0.08044 0.04236 0.2343 0.1387 0.2079 0.247 0.03653
0.1377 -0.08813 -0.1287 0.125 -0.08496 0.0712 0.0584 0.00945
0.01608 -0.0478 -0.01865 -0.06683 0.2172 0.2124 0.1414 0.0463
-0.06055 0.07153 -0.14 0.1473 0.02621 0.071 -0.07855 0.10046
0.02103 0.11743 -0.0199 -0.03732 -0.1412 -0.0497 0.1294 -0.107
0.1299 -0.143 -0.1539 0.01228 0.0083 -0.1221 0.2188 0.1965
0.004276 -0.02306 0.009094 0.1238 0.02501 -0.03476 -0.10034 0.2288
-0.2096 -0.10095 -0.1362 -0.1019 0.0754 -0.1323 -0.1503 0.0673
-0.008545 0.0005193 -0.2222 0.02304 -0.02698 -0.12476 0.03714 0.1539
-0.1272 -0.0962 0.1028 -0.00871 0.01455 0.04205 0.1252 0.02533
-0.1826 0.2334 -0.095 0.1566 -0.1929 -0.1056 -0.0846 -0.003323
-0.1754 0.01485 0.2107 0.1442 -0.0735 -0.1724 0.2019 -0.2607
0.1702 -0.0362 0.02953 0.0405 -0.02519 0.09375 -0.1154 -0.06088
0.1864 0.1375 0.04498 0.08636 0.0744 0.1587 -0.05634 0.0788
-0.01901 0.1906 0.2358 -0.146 -0.198 -0.0522 0.06174 0.1951
-0.07666 0.1526 -0.1522 0.2045 0.0625 -0.01991 0.1787 0.0772
-0.0996 -0.1528 0.03677 -0.1711 0.1332 0.104 0.1396 0.1643
-0.00546 -0.1721 -0.003906 -0.2198 0.1696 0.1616 -0.0946 -0.11676
-0.01886 0.0936 0.0457 0.05634 0.0292 -0.0898 0.1653 0.1858
-0.0776 0.1342 0.1783 0.1115 0.00927 -0.1423 -0.0739 -0.1302
-0.1354 0.04376 -0.08124 0.2072 0.17 -0.1292 0.08856 0.01148
0.1416 -0.03992 -0.1865 -0.1578 -0.04004 0.09796 0.1405 0.04446
0.06476 -0.04 0.1533 0.1232 -0.1509 0.11896 -0.1313 0.2291
0.1887 -0.1843 0.1525 -0.1428 -0.2172 0.034 -0.1288 0.3042
-0.1683 0.0511 0.2045 0.1214 -0.1617 0.008545 -0.05685 0.03497
0.0977 0.05014 -0.1173 -0.06155 0.0527 -0.10986 0.0474 0.259
-0.1276 0.007095 0.1028 0.1719 -0.2712 0.03714 -0.2566 0.1226
-0.00475 -0.04486 -0.0646 0.1263 -0.137 -0.046 0.01154 -0.2473
0.0528 0.1954 0.01182 0.2184 0.11395 -0.1586 -0.1326 0.2014
00000000: f22c 20b2 32b4 5dab ad1d 5cac 1cb0 1427
00000010: f1a0 5aaf b6af c9b2 8426 5b29 9fb1 8221
00000020: e02d 00b0 e22e bcb1 e62e f5a4 0f2f 1d23
00000030: 85b3 26ad 6c29 7f33 7030 a732 e733 ad28
00000040: 6830 a4ad 1eb0 0030 70ad 8f2c 7a2b d720
00000050: 1e24 1eaa c6a4 47ac f332 cc32 8630 ed29
00000060: c0ab 942c 7bb0 b730 b626 8b2c 07ad 6e2e
00000070: 6225 842f 18a5 c7a8 85b0 5daa 2430 d9ae
00000080: 2830 93b0 edb0 4a22 4020 d0af 0033 4a32
00000090: 611c e7a5 a820 ec2f 6726 73a8 6cae 5233
000000a0: b5b2 76ae 5cb0 86ae d32c 3cb0 cfb0 4f2c
000000b0: 60a0 4110 1cb3 e625 e8a6 fcaf c128 ed30
000000c0: 12b0 28ae 942e 76a0 7323 6229 0230 7c26
000000d0: d8b1 7833 14ae 0331 2cb2 c2ae 6aad ce9a
000000e0: 9db1 9a23 be32 9d30 b4ac 84b1 7632 2cb4
000000f0: 7231 a2a8 8f27 2f29 73a6 002e 63af cbab
00000100: f731 6630 c229 872d c32c 1431 36ab 0b2d
00000110: dea4 1932 8c33 acb0 56b2 aeaa e72b 3e32
00000120: e8ac e230 dfb0 8b32 002c 19a5 b831 f12c
00000130: 60ae e4b0 b528 7ab1 4330 a82e 7830 4231
00000140: 979d 82b1 009c 09b3 6d31 2c31 0eae 79af
00000150: d4a4 fe2d d929 362b 7a27 bfad 4a31 f231
00000160: f7ac 4b30 b531 232f bf20 8eb0 bbac 2bb0
00000170: 55b0 9a29 33ad a132 7131 22b0 ab2d e121
00000180: 8830 1ca9 f8b1 0db1 20a9 452e 7f30 b129
00000190: 252c 1fa9 e830 e32f d4b0 9d2f 34b0 5533
000001a0: 0a32 e6b1 e130 92b0 f3b2 5a28 1fb0 de34
000001b0: 63b1 8a2a 8b32 c52f 2db1 6020 47ab 7a28
000001c0: 412e 6b2a 82af e1ab bf2a 08af 112a 2534
000001d0: 15b0 441f 942e 8031 57b4 c128 1bb4 d92f
000001e0: dd9c bea9 22ac 0b30 62b0 e3a9 e921 eab3
000001f0: c22a 4132 0d22 fd32 4b2f 13b1 3eb0 7232

style_params/transformer/residual/residual1/conv2/StyleNorm/Conv/Conv2D_bias f2 [32]
-0.009834 -0.03134 -0.01408 0.0008187 0.03625 0.01645 -0.00934 -0.01897
-0.010635 0.02066 -0.005035 -0.01952 -0.00937 0.01167 0.00326 0.02267
-0.01531 -0.01796 -0.02052 0.004215 0.0196 0.000703 -0.0005064 0.003551
0.001232 -0.0067 -0.02086 0.02611 -0.006092 -0.02176 -0.03004 0.01065
00000000: 09a1 03a8 35a3 b512 a428 3624 c8a0 dba4
00000010: 72a1 4a25 289d ffa4 cca0 fa21 ad1a ce25
00000020: d7a3 99a4 41a5 511c 0525 c211 2690 461b
00000030: 0c15 dc9e 57a5 af26 3d9e 92a5 b1a7 7421

style_params/transformer/residual/residual1/conv2/StyleNorm/Conv/weights f2 [32, 1, 1, 100]
0.006577 0.1729 0.003244 0.04562 0.2052 -0.09863 0.03314 0.1559
-0.05527 0.1833 0.06506 -0.11053 -0.1703 0.0717 -0.0632 -0.01506
-0.11633 -0.004116 -0.01839 -0.1015 -0.04745 0.154 0.0441 -0.03525
0.2035 -0.2136 -0.1462 -0.09247 -0.1034 0.137 -0.09955 0.1229
0.053 0.0827 0.1715 -0.04214 0.1512 -0.1001 -0.0179 0.2253
-0.1313 -0.0674 -0.04822 -0.014786 -0.1815 -0.0645 0.08514 0.03183
-0.1902 0.1035 -0.1122 0.1436 0.06052 0.04767 -0.171 0.0884
0.1675 -0.2167 -0.01614 0.02531 -0.03006 -0.0672 -0.06082 0.225
0.0838 -0.1114 0.0698 -0.03058 0.03018 0.1323 0.05493 0.04318
0.1455 -0.0963 -0.03177 -0.0988 0.0904 0.12274 0.03714 0.1307
0.04382 -0.2122 -0.0614 0.0465 0.0751 0.1931 0.1215 0.187
-0.1733 0.1521 0.02042 0.03134 -0.04605 0.1567 -0.07544 -0.0849
0.02522 -0.1131 0.1061 -0.0674 -0.1753 -0.00726 0.183 -0.1212
0.2269 -0.014656 -0.165 -0.07513 -0.06433 0.01678 -0.1405 0.1838
-0.0886 0.1952 0.03418 0.11896 0.04694 0.1594 -0.2335 0.1997
0.02553 -0.06464 -0.01874 -0.05038 0.1236 0.1436 -0.161 -0.1366
-0.04584 -0.079 -0.1057 0.06323 0.1661 -0.1846 0.1447 -0.1102
-0.09454 0.03302 0.0639 0.0955 -0.1128 -0.06506 -0.177 0.0507
-0.05502 0.154 0.1514 -0.2267 0.0532 0.1197 -0.00493 0.0653
0.07324 0.2314 -0.01526 -0.0267 0.10657 -0.193 -0.1464 -0.1804
0.08984 -0.03214 0.1265 -0.068 -0.177 -0.09705 -0.1271 0.03577
-0.1156 0.1044 -0.0643 -0.1917 -0.1177 0.1109 -0.165 -0.00897
0.06647 0.1802 0.01549 0.1978 -0.1589 -0.2356 0.2075 0.0944
0.1465 -0.1848 0.0766 -0.11774 0.1318 0.1444 -0.05353 0.09924
-0.09106 -0.1582 0.09766 -0.1611 -0.1299 0.012085 -0.02364 0.03735
-0.1827 -0.1626 -0.06866 0.0497 -0.1962 0.1627 0.0566 -0.1552
-0.1392 0.09485 -0.08417 -0.04303 -0.00731 -0.192 -0.01738 0.05594
-0.1356 0.0163 0.1217 0.1298 -0.006714 -0.1192 -0.06683 -0.02542
0.1698 -0.1957 -0.1725 -0.2183 -0.07214 0.086 -0.0436 0.1725
0.0392 -0.01121 0.1968 0.07556 -0.0652 -0.142 -0.0939 0.1877
0.003902 -0.0593 0.01398 0.1685 -0.04706 0.11414 -0.06305 -0.06946
-0.0586 0.1071 -0.08075 -0.0699 0.0813 -0.11383 0.0487 0.1609
00000000: bc1e 8831 a51a d729 9132 50ae 3e28 fd30
00000010: 13ab de31 2a2c 13af 73b1 972c 0bac b6a3
00000020: 72af 379c b5a4 7fae 13aa ee30 a529 83a8
00000030: 8332 d6b2 aeb0 ebad 9eae 6230 5fae de2f
00000040: c92a 4b2d 7d31 65a9 d730 68ae 95a4 3633
00000050: 34b0 50ac 2caa 92a3 cfb1 21ac 732d 1328
00000060: 16b2 a02e 2eaf 9830 bf2b 1a2a 79b1 a82d
00000070: 5c31 efb2 22a4 7b26 b2a7 4dac c9ab 3333
00000080: 5d2d 21af 782c d4a7 ba27 3c30 082b 8729
00000090: a830 2aae 11a8 53ae c92d db2f c128 2f30
000000a0: 9c29 cab2 dcab f429 ce2c 2e32 c72f fc31
000000b0: 8cb1 de30 3a25 0328 e5a9 0431 d4ac 6fad
000000c0: 7526 3daf ca2e 50ac 9cb1 6f9f db31 c2af
000000d0: 4333 81a3 48b1 cfac 1eac 4c24 7fb0 e231
000000e0: acad 3f32 6028 9d2f 022a 1a31 79b3 6432
000000f0: 8926 23ac cca4 73aa e92f 9830 27b1 5fb0
00000100: dea9 0ead c4ae 0c2c 5131 e8b1 a130 0eaf
00000110: 0dae 3a28 172c 1d2e 38af 2aac aab1 7d2a
00000120: 0bab ee30 d830 41b3 cf2a a92f 0c9d 2e2c
00000130: b02c 6833 d0a3 d6a6 d22e 2db2 afb0 c6b1
00000140: c02d 1da8 0c30 5aac aab1 36ae 11b0 9428
00000150: 66af ae2e 1dac 22b2 88af 192f 48b1 98a0
00000160: 412c c431 ee23 5432 16b1 8ab3 a432 0b2e
00000170: b030 eab1 e72c 89af 3830 9f30 daaa 5a2e
00000180: d4ad 10b1 402e 28b1 28b0 3022 0da6 c828
00000190: d9b1 34b1 65ac 5d2a 47b2 3531 3f2b f7b0
000001a0: 74b0 122e 63ad 82a9 7c9f 25b2 73a4 292b
000001b0: 57b0 2c24 ca2f 2730 e09e a1af 47ac 82a6
000001c0: 6f31 43b2 85b1 fcb2 9eac 812d 95a9 8531
000001d0: 0529 bda1 4c32 d62c 2cac 8bb0 02ae 0232
000001e0: fe1b 97ab 2823 6431 06aa 4e2f 09ac 72ac
000001f0: 80ab db2e 2bad 79ac 342d 49af 3c2a 2631

style_params/transformer/residual/residual1/conv2/StyleNorm/Conv_1/Conv2D_bias f2 [32]
0.0444 -0.00122 -0.0376 -0.0616 0.013275 0.02959 0.0107 -0.014114
-0.0248 0.00765 -0.0206 -0.0309 -0.009026 -0.02747 0.01587 -0.0166
-0.01865 -0.002232 0.01756 0.00883 -0.02426 -0.005463 0.00584 0.005135
0.000804 0.001855 -0.0332 0.0142 -0.004948 -0.04013 0.00596 -0.01794
00000000: af29 ff94 d0a8 e3ab cc22 9327 7a21 3aa3
00000010: 59a6 d51f 46a5 e9a7 9fa0 08a7 1024 40a4
00000020: c6a4 9298 7f24 8520 36a6 989d fb1d 421d
00000030: 9612 9917 40a8 4523 119d 23a9 1a1e 98a4

style_params/transformer/residual/residual1/conv2/StyleNorm/Conv_1/weights f2 [32, 1, 1, 100]
0.0639 -0.1802 0.1036 -0.1324 0.10455 -0.1434 -0.1998 0.06946
0.1605 0.1105 0.09064 -0.1967 -0.1522 0.1354 0.145 -0.0475
0.0487 0.08 0.2185 -0.0735 -0.0356 -0.1063 -0.1206 0.0165
-0.08655 -0.2 0.2042 -0.1676 0.1346 -0.207 0.0406 -0.0219
0.1986 -0.1946 -0.2252 0.1642 -0.00878 0.01985 -0.052 0.1703
0.0596 0.009285 0.0902 -0.219 0.03061 0.155 -0.0306 0.1376
0.2246 0.04736 0.1103 -0.218 0.04227 0.04825 -0.1031 0.2014
0.05267 0.2156 0.2375 0.27 -0.04465 -0.0993 0.08606 -0.1923
-0.098 -0.06168 0.05923 0.0429 -0.014694 -0.046 -0.1666 -0.1456
-0.0723 -0.1409 -0.075 0.0229 0.0674 -0.07825 -0.1158 -0.0862
0.02264 -0.02426 -0.001925 0.05585 -0.0815 0.07513 0.09454 0.0861
-0.1708 0.1565 0.06216 -0.1364 -0.0404 0.2418 -0.1963 0.0786
0.09906 0.1794 -0.1973 -0.1897 0.1427 -0.0504 0.1191 0.0772
0.1492 -0.039 -0.04477 -0.1294 -0.2052 -0.06805 -0.1584 -0.107
-0.2235 -0.02846 0.07434 -0.10956 0.1061 0.0377 -0.1642 -0.081
0.1505 -0.0594 -0.001841 -0.03375 -0.1869 0.06995 0.164 0.2
-0.0951 0.1549 -0.08606 0.07697 -0.1227 0.1576 -0.1467 0.1512
-0.2673 0.05646 0.02971 -0.1233 -0.04422 0.11835 -0.185 0.105
-0.171 0.1669 0.04822 0.1748 -0.03482 0.00647 -0.13 0.1049
-0.2876 0.1267 0.1444 0.10925 -0.222 -0.1315 -0.137 0.02292
-0.08777 -0.1736 -0.0803 -0.1587 -0.0875 -0.11005 0.006947 -0.02567
-0.1077 0.05823 0.08405 0.01988 -0.08417 -0.0848 0.05426 -0.02608
-0.07684 -0.09357 0.1727 -0.12256 -0.0761 0.02856 0.115 -0.1665
-0.1936 0.0974 0.1032 -0.0968 0.02925 0.05463 0.01604 0.04257
0.05173 0.0934 0.1794 0.1456 -0.0736 -0.1434 0.1104 0.1741
-0.07416 -0.1128 -0.0915 0.05795 0.03506 -0.07855 0.1569 0.09216
-0.1793 0.1786 -0.0995 -0.1556 0.04694 0.10144 -0.1022 -0.1498
0.131 -0.02115 -0.0964 0.11707 0.02477 -0.2744 -0.06586 -0.02214
-0.2437 -0.0777 0.01656 -0.1396 -0.1058 0.1827 0.0301 -0.007744
-0.1733 -0.0362 -0.006596 -0.183 -0.03111 0.0986 0.11194 0.11523
-0.00621 0.158 -0.04474 0.05643 -0.1901 -0.10284 0.009926 0.05777
-0.1246 0.1166 0.11084 -0.1377 -0.02916 0.1311 -0.0939 -0.0992
00000000: 172c c4b1 a12e 3db0 b12e 97b0 65b2 722c
00000010: 2331 122f cd2d 4bb2 dfb0 5530 a430 14aa
00000020: 3c2a 1f2d fe32 b4ac 8fa8 ceae b8af 3924
00000030: 8aad 66b2 8932 5db1 4f30 a0b2 3229 9ba5
00000040: 5b32 3ab2 35b3 4131 7fa0 1525 a8aa 7331
00000050: a12b c120 c62d 02b3 d627 f630 d5a7 6730
00000060: 3033 102a 0f2f fab2 6929 2d2a 99ae 7232
00000070: be2a e632 9a33 5234 b7a9 5bae 822d 27b2
00000080: 46ae e5ab 952b 7e29 86a3 e3a9 55b1 a9b0
00000090: a1ac 82b0 cdac dd25 502c 02ad 69af 84ad
000000a0: cc25 36a6 e397 262b 37ad cf2c 0d2e 832d
000000b0: 77b1 0231 f52b 5db0 2ca9 bd33 48b2 082d
000000c0: 572e be31 50b2 12b2 9130 74aa 9f2f f12c
000000d0: c630 fea8 bba9 24b0 91b2 5bac 12b1 d9ae
000000e0: 27b3 49a7 c22c 03af ca2e d328 41b1 2fad
000000f0: d130 9aab 8a97 52a8 fbb1 7a2c 3f31 6632
00000100: 16ae f530 82ad ed2c daaf 0b31 b2b0 d730
00000110: 47b4 3a2b 9b27 e4af a9a9 932f ecb1 b82e
00000120: 79b1 5731 2c2a 9831 75a8 a01e 29b0 b72e
00000130: 9ab4 0e30 9f30 fe2e 1bb3 35b0 62b0 de25
00000140: 9ead 8eb1 24ad 14b1 9aad 0baf 1d1f 92a6
00000150: e5ae 742b 612d 1725 63ad 6dad f22a ada6
00000160: ebac fdad 8731 d8af dfac 5027 5c2f 54b1
00000170: 32b2 3c2e 9b2e 32ae 7d27 fe2a 1b24 7329
00000180: 9f2a fa2d be31 a930 b6ac 97b0 112f 9231
00000190: bfac 38af dbad 6b2b 7d28 07ad 0531 e62d
000001a0: bdb1 b731 5eae fbb0 022a 7e2e 8aae cbb0
000001b0: 3130 6aa5 2bae 7e2f 5726 64b4 37ac aba5
000001c0: ccb3 f9ac 3d24 78b0 c5ae d931 b527 ee9f
000001d0: 8cb1 a2a8 c19e dbb1 f7a7 4f2e 2a2f 602f
000001e0: 5c9e 0e31 baa9 392b 15b2 95ae 1521 652b
000001f0: f9af 762f 182f 68b0 77a7 3230 02ae 59ae

style_params/transformer/residual/residual2/conv1/StyleNorm/Conv/Conv2D_bias f2 [32]
0.1039 0.03375 -0.0016985 0.02747 0.037 0.09106 0.02629 0.01663
-0.0205 0.05347 0.1547 0.02534 0.01432 0.1152 0.0112 0.03427
0.0415 0.0176 0.02374 0.0341 0.03958 0.02068 0.006893 0.0185
0.04657 0.02356 0.04364 0.0876 0.03555 0.014565 0.02196 0.01085
00000000: a62e 5228 f596 0827 bc28 d42d bb26 4224
00000010: 3fa5 d82a f330 7d26 5523 5f2f bc21 6328
00000020: 5029 8124 1426 5d28 1129 4b25 0f1f bc24
00000030: f629 0826 9629 9b2d 8d28 7523 9f25 8e21

style_params/transformer/residual/residual2/conv1/StyleNorm/Conv/weights f2 [32, 1, 1, 100]
0.2441 -0.0854 -0.1554 -0.0945 -0.2443 0.306 -0.02315 0.1925
0.2008 0.0973 -0.0648 -0.06366 -0.09143 -0.3809 0.1406 -0.1754
0.02081 0.2058 -0.02084 0.271 -0.0359 0.04617 0.0738 0.3193
-0.1558 -0.006695 -0.0951 0.06036 0.07715 -0.1885 0.0748 -0.1339
-0.1506 0.1753 -0.2173 -0.12085 0.129 0.01471 0.2605 -0.1116
0.0167 0.06287 -0.0145 0.12476 -0.04947 -0.3086 0.1733 -0.10596
-0.00202 -0.1165 -0.1458 0.1802 -0.2869 0.09314 0.10156 0.125
0.1514 0.005547 0.02725 0.0667 0.218 0.2478 -0.3323 -0.11145
-0.0651 -0.04102 0.0426 -0.1799 -0.08923 -0.2032 -0.2861 0.0559
-0.1022 -0.0798 -0.002617 0.01619 -0.1823 -0.1764 -0.1229 0.1353
0.0969 0.2058 -0.10956 0.02512 -0.1423 0.0839 0.0577 -0.0614
0.2415 0.07404 0.1686 -0.339 -0.06204 -0.0912 0.0878 -0.0389
0.1357 -0.01692 -0.1765 0.02654 0.05258 -0.1864 0.2078 0.1013
-0.1299 -0.04736 -0.02533 -0.2057 -0.1875 -0.08026 -0.1738 0.1015
0.0686 -0.1069 0.2317 -0.1361 0.1464 -0.06076 0.12054 0.04984
-0.001258 0.1448 0.04343 0.1534 -0.1995 0.1471 0.1755 0.04385
0.1515 0.04834 -0.1024 -0.182 0.2118 0.0628 -0.1057 -0.0367
0.1565 -0.0686 0.1306 -0.03772 -0.0683 0.1294 -0.1368 -0.09576
-0.2472 0.04697 0.0824 0.03415 0.10913 0.1277 0.147 0.1802
0.012634 -0.1036 0.01909 -0.1775 0.0254 0.1848 -0.0633 0.05765
-0.0529 0.154 -0.1613 -0.1244 0.1182 -0.0636 0.2448 -0.134
-0.07275 0.006634 -0.02757 -0.1698 -0.27 0.1311 -0.07996 -0.2361
0.1838 0.0947 -0.12256 -0.05984 -0.082 0.09705 0.02548 0.3198
-0.0644 0.1196 0.1102 0.2264 0.1564 -0.0231 -0.1423 0.003166
-0.0622 0.1487 -0.04327 -0.02263 -0.154 0.1344 0.1685 0.0948
-0.12335 0.005077 -0.03946 0.0384 0.10425 0.04672 -0.2142 -0.1573
-0.1794 -0.1088 0.1344 -0.1324 -0.0372 0.311 0.1409 0.2443
0.07135 -0.228 -0.1412 0.1273 0.0925 0.1882 0.0863 0.2114
-0.1515 -0.08466 0.1698 -0.0642 -0.03064 -0.03088 -0.06757 -0.0672
-0.1656 -0.0526 0.05524 0.1628 -0.10504 0.0661 -0.08716 -0.01143
0.01265 0.1765 -0.1234 -0.1852 0.00484 0.07837 0.01692 -0.2051
-0.02454 0.1445 -0.06586 -0.2593 0.04883 0.09204 0.1475 0.06012
00000000: d033 77ad f9b0 0cae d1b3 e534 eda5 2932
00000010: 6d32 3a2e 26ac 13ac daad 18b6 8030 9db1
00000020: 5425 9632 56a5 5634 98a8 e929 b92c 1c35
00000030: fcb0 db9e 16ae ba2b f02c 08b2 ca2c 49b0
00000040: d2b0 9c31 f4b2 bcaf 2130 8823 2b34 24af
00000050: 4624 062c 6da3 fc2f 55aa f0b4 8c31 c8ae
00000060: 2398 75af aab0 c431 97b4 f62d 802e 0030
00000070: d830 ae1d fa26 452c fa32 ee33 51b5 22af
00000080: 2bac 40a9 7429 c2b1 b6ad 81b2 94b4 282b
00000090: 8aae 1bad 5c99 2524 d5b1 a5b1 deaf 5430
000000a0: 342e 9632 03af 6e26 8eb0 5f2d 632b dcab
000000b0: ba33 bd2c 6531 6db5 f1ab d6ad 9f2d fba8
000000c0: 5830 55a4 a6b1 cb26 bb2a f7b1 a632 7c2e
000000d0: 28b0 10aa 7ca6 95b2 00b2 23ad 90b1 7f2e
000000e0: 642c d7ae 6a33 5bb0 af30 c7ab b72f 612a
000000f0: 2795 a230 8f29 e930 62b2 b530 9e31 9d29
00000100: d930 302a 8eae d3b1 c732 052c c4ae b3a8
00000110: 0231 64ac 2e30 d4a8 5fac 2430 61b0 21ae
00000120: e9b3 032a 462d 5f28 fc2e 1630 b430 c431
00000130: 7822 a1ae e324 aeb1 8126 ea31 0dac 612b
00000140: c5aa ee30 29b1 f6af 912f 12ac d533 4ab0
00000150: a8ac cb1e 0fa7 6fb1 52b4 3230 1ead 8eb3
00000160: e231 102e d8af a9ab 3fad 362e 8626 1e35
00000170: 1fac a82f 0e2f 3f33 0131 eaa5 8eb0 7c1a
00000180: f6ab c230 8aa9 cba5 eeb0 4d30 6431 112e
00000190: e5af 331d 0da9 ea28 ac2e fb29 dbb2 09b1
000001a0: beb1 f7ae 4d30 3db0 c3a8 fa34 8230 d133
000001b0: 912c 4cb3 85b0 1330 ec2d 0632 862d c432
000001c0: d9b0 6bad 6f31 1cac d8a7 e8a7 53ac 4dac
000001d0: 4db1 bcaa 122b 3631 b9ae 3b2c 94ad daa1
000001e0: 7a22 a631 e6af edb1 f51c 042d 5524 90b2
000001f0: 48a6 a030 37ac 26b4 402a e42d b830 b22b

style_params/transformer/residual/residual2/conv1/StyleNorm/Conv_1/Conv2D_bias f2 [32]
0.0284 0.02238 -0.0345 0.003712 0.003687 0.04047 -0.02487 -0.01431
-0.005943 0.01717 0.01332 0.04062 -0.03986 -0.02518 0.04 0.001416
-0.0237 0.03598 0.003407 -0.00874 -0.04507 0.014114 0.02567 0.02277
0.00912 -0.01226 -0.01921 0.02321 0.01987 0.0264 -0.01085 0.05228
00000000: 4527 bb25 6aa8 9a1b 8d1b 2e29 5ea6 54a3
00000010: 169e 6524 d222 3329 1aa9 72a6 1f29 cd15
00000020: 11a6 9b28 fa1a 7aa0 c5a9 3a23 9226 d425
00000030: ab20 47a2 eba4 f125 1625 c226 8ea1 b12a

style_params/transformer/residual/residual2/conv1/StyleNorm/Conv_1/weights f2 [32, 1, 1, 100]
0.03406 0.03812 0.1461 -0.04193 -0.10895 0.04846 -0.1582 -0.06076
0.006817 -0.1641 -0.06433 -0.1364 -0.009575 -0.0473 0.0464 -0.027
-0.0373 0.071 0.04272 0.02272 0.1489 0.1736 0.10406 -0.03198
-0.1897 0.01446 0.1385 -0.11163 0.02432 0.1272 0.01567 0.0553
0.0761 0.0247 0.04398 -0.1646 -0.0861 -0.0466 0.04858 0.06793
-0.09674 -0.11 0.07794 -0.02002 -0.02104 0.0619 0.2441 -0.01595
0.0668 -0.0561 0.1506 0.09814 -0.1534 0.07465 -0.0884 0.1642
0.1372 -0.0419 0.2263 0.1582 -0.0923 0.103 -0.138 -0.2019
0.1364 -0.011154 0.08734 -0.1539 0.05972 -0.1162 -0.1996 -0.005108
0.01545 0.04266 -0.03583 -0.19 -0.00879 0.1436 0.1241 -0.1256
-0.2096 -0.1404 -0.2343 -0.1471 -0.2046 -0.12463 -0.07635 -0.1423
0.0013 -0.1608 -0.1128 0.06824 0.10236 -0.188 -0.09485 -0.0712
-0.2876 -0.003937 -0.0574 -0.02522 -0.06384 0.0954 0.1453 0.05084
-0.1704 0.04474 -0.01694 0.1517 -0.1366 0.06018 0.0511 -0.1355
0.015076 0.01665 0.1959 -0.0474 -0.2333 -0.1194 0.1807 -0.09326
0.1526 -0.1904 -0.1462 0.0572 -0.1958 0.1266 0.1106 -0.01385
-0.0422 0.05502 -0.04663 -0.01122 0.148 0.1804 0.0964 0.0876
-0.0539 0.115 0.0716 -0.1383 0.1445 0.02736 -0.07434 0.1482
0.05652 0.1293 0.1189 0.1453 0.125 -0.08887 -0.2339 -0.1803
-0.04688 0.0779 0.2505 0.07697 0.02242 -0.02364 -0.07446 0.2307
0.02026 -0.1442 -0.1675 -0.01075 -0.1951 0.0745 0.123 -0.03622
-0.01324 0.0705 -0.1359 -0.003036 -0.1731 0.01364 -0.177 -0.06198
-0.03903 0.05548 0.1083 -0.007256 -0.1583 0.0794 0.159 -0.0976
0.0955 0.0678 -0.009056 0.1757 -0.02142 -0.0966 0.1355 0.0373
-0.132 0.0482 0.1422 0.01822 -0.0317 -0.06476 -0.02501 -0.07776
-0.1428 0.2406 -0.2015 -0.04828 -0.1255 0.1891 0.1112 -0.1519
0.007435 -0.05588 0.0851 -0.141 0.1489 -0.0549 0.002674 -0.1289
-0.08405 0.08417 -0.1263 -0.07764 0.1359 -0.05026 -0.08636 -0.2416
-0.1321 -0.1785 0.2013 0.1686 -0.142 0.1337 0.02751 -0.03848
-0.01596 0.2153 0.2053 0.0664 0.0682 0.09674 -0.10016 0.1177
-0.0817 0.10175 -0.1124 0.01211 0.08417 0.138 -0.02673 -0.07153
-0.09296 -0.0347 0.03111 0.1912 0.2507 0.06122 -0.12103 -0.004158
00000000: 5c28 e128 ad30 5ea9 f9ae 342a 10b1 c7ab
00000010: fb1e 40b1 1eac 5db0 e7a0 0eaa f029 e9a6
00000020: c6a8 8b2c 7829 d125 c430 8e31 a92e 18a8
00000030: 12b2 6723 6f30 25af 3a26 1230 0324 142b
00000040: df2c 5326 a129 44b1 83ad f7a9 382a 592c
00000050: 31ae 0aaf fd2c 20a5 63a5 ec2b d033 15a4
00000060: 462c 2eab d230 482e e9b0 c72c a8ad 4131
00000070: 6430 5da9 3e33 1031 e8ad 982e 6ab0 76b2
00000080: 5d30 b6a1 972d edb0 a52b 70af 63b2 3b9d
00000090: e923 7629 96a8 14b2 80a0 9830 f12f 05b0
000000a0: b5b2 7eb0 7fb3 b5b0 8cb2 faaf e3ac 8eb0
000000b0: 5315 25b1 38af 5e2c 8d2e 04b2 12ae 8fac
000000c0: 9ab4 089c 59ab 75a6 16ac 1b2e a630 822a
000000d0: 74b1 ba29 56a4 db30 5fb0 b42b 8a2a 56b0
000000e0: b823 4324 4532 11aa 77b3 a4af c831 f8ad
000000f0: e230 18b2 aeb0 522b 44b2 0d30 142f 17a3
00000100: 67a9 0b2b f8a9 bfa1 bc30 c631 2b2e 9b2d
00000110: e6aa 5c2f 952c 6db0 a030 0127 c2ac be30
00000120: 3c2b 2330 9c2f a630 0030 b0ad 7cb3 c5b1
00000130: 00aa fc2c 0234 ed2c bd25 0da6 c4ac 6233
00000140: 3025 9db0 5cb1 81a1 3eb2 c52c df2f a3a8
00000150: c7a2 832c 59b0 389a 8ab1 fc22 aab1 efab
00000160: ffa8 1a2b ee2e 6e9f 11b1 152d 1731 3fae
00000170: 1d2e 572c a3a0 9f31 7ca5 2fae 5630 c628
00000180: 39b0 2b2a 8d30 aa24 0fa8 25ac 67a6 faac
00000190: 92b0 b333 73b2 2eaa 04b0 0d32 1e2f dcb0
000001a0: 9d1f 27ab 722d 83b0 c430 07ab 7a19 20b0
000001b0: 61ad 632d 0bb0 f8ac 5930 6faa 87ad bbb3
000001c0: 3ab0 b6b1 7132 6531 8bb0 4730 0b27 eda8
000001d0: 16a4 e432 9232 402c 5d2c 312e 69ae 882f
000001e0: 3bad 832e 32af 3322 632d 6a30 d8a6 94ac
000001f0: f3ad 71a8 f727 1e32 0334 d62b bfaf 429c

style_params/transformer/residual/residual2/conv2/StyleNorm/Conv/Conv2D_bias f2 [32]
-0.01698 0.01686 0.007614 -0.02428 -0.01924 0.01259 -4.23e-06 -0.01359
0.002197 -0.01793 -0.012985 0.002163 -0.0099 0.04248 -0.01703 -0.0233
-0.013405 -0.001482 0.01086 0.02477 0.02527 0.008606 -0.001358 0.002867
-0.017 1.21e-05 0.003248 -0.006607 0.02321 0.01569 -0.01576 -0.007515
00000000: 59a4 5124 cc1f 37a6 eda4 7222 4780 f5a2
00000010: 8018 97a4 a6a2 6e18 12a1 7029 5ca4 f7a5
00000020: dda2 1296 8f21 5726 7826 6820 9095 df19
00000030: 5aa4 cb00 a71a c49e f125 0424 09a4 b29f
