Assets/StreamingAssets/style_transfer_quantized_dynamic.tflite (tflite, 244072 bytes, 75 tensors)

style_params/transformer/expand/conv1/conv/StyleNorm/Conv/Conv2D_bias f4 [16]
00000000: a841 b3bb d1f1 0f3d 6e8e 863c abbb d5b9
00000010: df0c a6bb 2fd2 fe3c 6c5f 04bc 8b32 52bc
00000020: 3e47 c5bc 2398 bcbc 9ac6 893c 6a92 193d
00000030: 33bd e9bb 07d6 bb3c 6713 06bc 9348 213d
-0.0054704733 0.035142723 0.016425338 -0.0004076635 -0.0050674523 0.031106083 -0.008079391 -0.012829433
-0.024081822 -0.023021763 0.016818333 0.037493147 -0.00713315 0.022929205 -0.008183337 0.039375853

style_params/transformer/expand/conv1/conv/StyleNorm/Conv/weights/read i1 [16, 1, 1, 100] scale=0.0031452281 zero_point=0
00000000: 43de c325 01f3 de28 d455 22f6 2b17 36fe
00000010: 15d1 3bd7 d505 f1d1 2a14 50cd d004 fd0a
00000020: 3eed f9c6 f703 fbc6 f937 d3e1 ea32 db18
00000030: fcfe fb44 0734 33e5 d039 e311 380c 35c3
00000040: eebe 05c7 ef10 3807 0ae5 bcd4 d1f1 11df
00000050: 05fb e42c dc0e def8 0603 34e7 1340 2f22
00000060: 28e3 13c8 02c5 5de8 255b 244b e2fc 01b9
00000070: cf26 26f2 35a4 263a 391a 4231 7518 3803
00000080: 1829 e122 df23 dec1 bf26 f215 1dbc aef9
00000090: f539 e1fd e347 4835 0f16 f7d5 2524 075a
000000a0: 2236 0cff d0ae c6ee ebd7 bc06 2513 e710
000000b0: 0fe1 d817 a412 0235 2548 c914 4f00 1e00
000000c0: 4144 2ae0 6f17 f3b4 bef2 f400 ddc5 a905
000000d0: bd07 1ec8 1205 01d9 ca1c c25a 23e1 fdc8
000000e0: 06ce f724 bec2 c41d 13d0 e4de bfcc 1430
000000f0: 2dc7 40ed 3dde d63e 5015 b52d e13c f5f1
0.21073028 -0.10693776 -0.19185892 0.11637344 0.0031452281 -0.040887967 -0.10693776 0.12580913
-0.13839003 0.2673444 0.10693776 -0.031452283 0.13524482 0.07234025 0.16984232 -0.0062904563
0.06604979 -0.14782572 0.18556847 -0.12895435 -0.13524482 0.015726142 -0.04717842 -0.14782572
0.13209958 0.06290457 0.25161827 -0.16040663 -0.15097095 0.012580913 -0.009435684 0.031452283
0.19500415 -0.059759334 -0.022016596 -0.18242323 -0.028307054 0.009435684 -0.015726142 -0.18242323
-0.022016596 0.17298755 -0.14153527 -0.097502075 -0.06919502 0.1572614 -0.11637344 0.075485475
-0.012580913 -0.0062904563 -0.015726142 0.21387552 0.022016596 0.16355187 0.16040663 -0.08492116
-0.15097095 0.179278 -0.09121162 0.05346888 0.17613277 0.037742738 0.16669708 -0.19185892
-0.05661411 -0.20758505 0.015726142 -0.179278 -0.05346888 0.05032365 0.17613277 0.022016596
0.031452283 -0.08492116 -0.21387552 -0.13839003 -0.14782572 -0.04717842 0.05346888 -0.103792526
0.015726142 -0.015726142 -0.088066384 0.13839003 -0.11322822 0.044033192 -0.10693776 -0.025161825
0.018871369 0.009435684 0.16355187 -0.0786307 0.059759334 0.2012946 0.14782572 0.10693776
0.12580913 -0.09121162 0.059759334 -0.17613277 0.0062904563 -0.18556847 0.29250622 -0.075485475
0.11637344 0.28621575 0.11322822 0.23589212 -0.09435684 -0.012580913 0.0031452281 -0.2233112
-0.15411618 0.11951867 0.11951867 -0.044033192 0.16669708 -0.289361 0.11951867 0.18242323
0.179278 0.08177593 0.20758505 0.15411618 0.3679917 0.075485475 0.17613277 0.009435684
0.075485475 0.12895435 -0.097502075 0.10693776 -0.103792526 0.110082984 -0.10693776 -0.19814937
-0.20443983 0.11951867 -0.044033192 0.06604979 0.09121162 -0.21387552 -0.2579087 -0.022016596
-0.03459751 0.179278 -0.097502075 -0.009435684 -0.09121162 0.2233112 0.22645643 0.16669708
0.04717842 0.06919502 -0.028307054 -0.13524482 0.11637344 0.11322822 0.022016596 0.28307053
0.10693776 0.16984232 0.037742738 -0.0031452281 -0.15097095 -0.2579087 -0.18242323 -0.05661411
-0.06604979 -0.12895435 -0.21387552 0.018871369 0.11637344 0.059759334 -0.0786307 0.05032365
0.04717842 -0.097502075 -0.12580913 0.07234025 -0.289361 0.05661411 0.0062904563 0.16669708
0.11637344 0.22645643 -0.17298755 0.06290457 0.24847302 0.0 0.09435684 0.0
0.20443983 0.21387552 0.13209958 -0.1006473 0.34912032 0.07234025 -0.040887967 -0.23903733
-0.20758505 -0.044033192 -0.037742738 0.0 -0.110082984 -0.18556847 -0.27363485 0.015726142
-0.21073028 0.022016596 0.09435684 -0.17613277 0.05661411 0.015726142 0.0031452281 -0.1226639
-0.16984232 0.088066384 -0.19500415 0.28307053 0.110082984 -0.097502075 -0.009435684 -0.17613277
0.018871369 -0.1572614 -0.028307054 0.11322822 -0.20758505 -0.19500415 -0.18871368 0.09121162
0.059759334 -0.15097095 -0.088066384 -0.10693776 -0.20443983 -0.16355187 0.06290457 0.15097095
0.14153527 -0.179278 0.2012946 -0.059759334 0.19185892 -0.10693776 -0.13209958 0.19500415
0.25161827 0.06604979 -0.23589212 0.14153527 -0.097502075 0.18871368 -0.03459751 -0.04717842

style_params/transformer/expand/conv1/conv/StyleNorm/Conv_1/Conv2D_bias f4 [16]
00000000: c5bd 01ba fca6 a8bb 2148 d4bc bd06 12bd
00000010: f54a e5bc c9f8 1d3c e385 d7bc c61d f83c
00000020: e681 ab3c df0a 403b b83c 7a3c e3db 43bd
00000030: fb53 b23c 3ae9 edbc 4b08 0f3c de35 7d3b
-0.00049492373 -0.005146859 -0.0259133 -0.035650957 -0.027989844 0.009641835 -0.02630896 0.030287635
0.020935964 0.0029303355 0.015273266 -0.047817122 0.02176856 -0.029041875 0.008730005 0.0038636844

style_params/transformer/expand/conv1/conv/StyleNorm/Conv_1/weights/read i1 [16, 1, 1, 100] scale=0.0026155533 zero_point=0
00000000: cd47 5715 ea58 36df 30de 402b 1df1 1a25
00000010: f21b b91d c428 d014 cb15 31df 5efb fb2d
00000020: 1641 2eef 19f0 c321 0232 e82b 20fe 1fe6
00000030: ade5 0e3e daaf d9e7 113c 5c2f 443d 1d53
00000040: 04ff 0341 32cc e1cf e3b3 3111 23fd 1bba
00000050: 1360 49a9 e5e0 443c 3b4a 3df4 ef4c 0d32
00000060: 22c7 b0bc ba51 43be 34c5 f118 4bf6 49dd
00000070: 343a b94d 26c0 19d5 cf34 e2b0 2a17 d4c1
00000080: e4bf b6c1 e0c3 b4c1 e516 441a b0c6 bcc7
00000090: e130 31a5 cdfb f638 0f2b 101b c1fa 0f24
000000a0: 123f 1443 13ee 00e8 28bf b5fa cdc0 01bd
000000b0: c1bf 1bc2 18fd fc1d e2c3 ea4e 3a03 07f4
000000c0: 0441 ef31 35f5 cde2 ccb0 c506 2c3b edd3
000000d0: b83b d0aa ee03 e4d2 1447 f5dc 001c e2f2
000000e0: e74d 561f b49d bac0 b1fa 6bf6 10ea 31e4
000000f0: e81c ccf8 e834 d2e3 c3a8 4127 e211 13e9
-0.13339321 0.18570429 0.22755314 0.05492662 -0.057542175 0.2301687 0.14123988 -0.08631326
0.12554656 -0.08892881 0.16739541 0.112468794 0.075851046 -0.0392333 0.068004385 0.09677547
-0.03661775 0.07061994 -0.18570429 0.075851046 -0.1569332 0.10462213 -0.12554656 0.052311067
-0.13862433 0.05492662 0.12816212 -0.08631326 0.245862 -0.013077767 -0.013077767 0.1176999
0.057542175 0.17001097 0.120315455 -0.044464406 0.065388836 -0.041848853 -0.15954876 0.08631326
0.0052311067 0.13077767 -0.06277328 0.112468794 0.08369771 -0.0052311067 0.08108215 -0.068004385
-0.21709092 -0.07061994 0.03661775 0.1621643 -0.09939103 -0.21185982 -0.10200658 -0.065388836
0.044464406 0.1569332 0.24063091 0.122931 0.17785762 0.15954876 0.075851046 0.21709092
0.010462213 -0.0026155533 0.00784666 0.17001097 0.13077767 -0.13600877 -0.08108215 -0.12816212
-0.075851046 -0.20139761 0.12816212 0.044464406 0.09154437 -0.00784666 0.07061994 -0.18308873
0.049695514 0.25109312 0.19093539 -0.22755314 -0.07061994 -0.08369771 0.17785762 0.1569332
0.15431765 0.19355094 0.15954876 -0.03138664 -0.044464406 0.19878206 0.034002192 0.13077767
0.08892881 -0.14908653 -0.20924427 -0.17785762 -0.18308873 0.21185982 0.17524207 -0.17262653
0.13600877 -0.15431765 -0.0392333 0.06277328 0.1961665 -0.026155533 0.19093539 -0.09154437
0.13600877 0.15170209 -0.18570429 0.20139761 0.09939103 -0.16739541 0.065388836 -0.112468794
-0.12816212 0.13600877 -0.0784666 -0.20924427 0.10985324 0.060157727 -0.11508435 -0.16477986
-0.0732355 -0.17001097 -0.19355094 -0.16477986 -0.08369771 -0.15954876 -0.19878206 -0.16477986
-0.07061994 0.057542175 0.17785762 0.068004385 -0.20924427 -0.15170209 -0.17785762 -0.14908653
-0.08108215 0.12554656 0.12816212 -0.23801535 -0.13339321 -0.013077767 -0.026155533 0.146471
0.0392333 0.112468794 0.041848853 0.07061994 -0.16477986 -0.01569332 0.0392333 0.094159916
0.047079958 0.16477986 0.052311067 0.17524207 0.049695514 -0.047079958 0.0 -0.06277328
0.10462213 -0.17001097 -0.1961665 -0.01569332 -0.13339321 -0.16739541 0.0026155533 -0.17524207
-0.16477986 -0.17001097 0.07061994 -0.1621643 0.06277328 -0.00784666 -0.010462213 0.075851046
-0.0784666 -0.15954876 -0.057542175 0.20401315 0.15170209 0.00784666 0.018308874 -0.03138664
0.010462213 0.17001097 -0.044464406 0.12816212 0.13862433 -0.028771088 -0.13339321 -0.0784666
-0.13600877 -0.20924427 -0.15431765 0.01569332 0.11508435 0.15431765 -0.049695514 -0.1176999
-0.18831983 0.15431765 -0.12554656 -0.22493759 -0.047079958 0.00784666 -0.0732355 -0.120315455
0.052311067 0.18570429 -0.028771088 -0.094159916 0.0 0.0732355 -0.0784666 -0.03661775
-0.065388836 0.20139761 0.22493759 0.08108215 -0.19878206 -0.25893977 -0.18308873 -0.16739541
-0.20662871 -0.01569332 0.2798642 -0.026155533 0.041848853 -0.057542175 0.12816212 -0.0732355
-0.06277328 0.0732355 -0.13600877 -0.020924427 -0.06277328 0.13600877 -0.120315455 -0.075851046
-0.15954876 -0.2301687 0.17001097 0.10200658 -0.0784666 0.044464406 0.049695514 -0.060157727

style_params/transformer/expand/conv2/conv/StyleNorm/Conv/Conv2D_bias f4 [8]
00000000: 6183 9c3d 3c59 fa3d db12 523d 2695 423c
00000010: c601 193c 807f 94bb fff5 833d 7f57 ac3d
0.07642246 0.12224051 0.051287513 0.01187638 0.009338802 -0.0045318007 0.064434044 0.08415126

style_params/transformer/expand/conv2/conv/StyleNorm/Conv/weights/read f4 [8, 1, 1, 100]
00000000: a726 8ebe 30fb 88bd 6ce0 48be ad4b 5e3e
00000010: 3acf ee3c 355a 173e 9c1e 33be af19 5dbc
00000020: 8f00 ff3d 4568 303e 162a 973c deb5 c8bd
00000030: 2c77 b53e 31e3 57be a0c3 6d3e a564 d53d
00000040: 5396 d4bd 7ebe 5c3e cdec 903d c26b cebd
00000050: 7d7f c73d f4eb c5bd fa76 903d b9e7 11be
00000060: 9b51 58be 8649 353e 4a01 81be 0d98 3abe
00000070: 9a49 763e 5d76 fdbd fe5a a6be 3d96 f63d
00000080: d0c4 98bc b64f 2b3e bf50 b2be 536a 0e3d
00000090: 87ca 003e 569a 233e 0e35 013e 95cf 06bd
000000a0: 9caa 2f3e 519c d9bd 8bf4 423e 5700 643e
000000b0: 24d9 d5bd 2335 12be d895 613e 95f5 5cbc
000000c0: 4ee7 83bd d245 9fbe b8f2 873d 1fc0 5bbb
000000d0: 1a15 163d 3238 7abe 6333 8d3e 08bc 063e
000000e0: 5c2b 3c3e 6a55 013e eaba 573c f17a 893e
000000f0: 9815 213a e9da 14bc a3fe 4cbe 6ce2 3f3e
00000100: 599c 76be 0c69 293e 39c7 b3bd 2b98 643e
00000110: 82ce 033e e52d 8bbd 9223 06be 0785 88be
00000120: 0b6c 88be 85f3 c1bc 2282 62bd a3e0 863e
00000130: 4516 853d 925a e0bd c7dd 9f3b c578 263e
00000140: 52fe 90bd c71e 823e 6110 10be 9a38 dbbd
00000150: df9e 43be 3f84 8f3d 2c9b 573e 1dde 01be
00000160: 6afd 2cbe 337b 0abd 3f65 823d a84e f63d
00000170: 007f 4d3e 4966 01be 9cdd 27be 988a b93d
00000180: d4c6 22be 083c 9ebd 32eb 0b3c 1369 0a3e
00000190: f33f 943e a574 5bbe 773c 603d c540 04be
000001a0: 3f4d 73be c6bf 45bd 4758 b83d 536c a43d
000001b0: b244 18be 0da9 7a3e 5707 c03e 49ca 84be
000001c0: 70ad 303e 4863 f03d a727 903d fa92 323e
000001d0: 8917 11bd fda6 5f3e f8e8 303e d4eb 29be
000001e0: e3cf bbbe 243f 8d3e 5409 043e ccbb f03c
000001f0: f047 37be b2e0 e33d 09cc 22be f97c d6bd
00000200: c09d 223e aef8 4d3c ed71 5c3d ff29 39bd
00000210: cd50 02be 1b75 9a3d 5c93 6bbe d888 a93d
00000220: 109f bcbd 74c9 4dbb c2ef d6bc 4d58 e43c
00000230: 9208 b33e 7863 28bd 1f04 c0bd 901b 463d
00000240: 206e 3cbc f5ac 09bd 06c2 813e 46e3 a73d
00000250: 764d b4bd fe2e 203d f18c 453e 28bb 7e3e
00000260: 6b7d 2d3e c0a6 693e 6ca1 2b3e 3199 2a3e
00000270: cff7 60bd 9bf6 013e e3b1 29be 89b6 8f3e
00000280: a2cf f7bd 873a 833e bb05 20bd dc3e 0a3e
00000290: 5547 56be bb22 7e3e a98f 12bd 20f8 033b
000002a0: c283 a43d b96a 67be 80ab 88be bfa0 a8be
000002b0: cf92 57be 064e e43c d50f adbd e9cc a53d
000002c0: 5636 193c b110 2a3c cf7c debc 8fae 1dbe
000002d0: c4f2 3b3d 8d9d 293e 9bdf 81be f9b9 a03d
000002e0: fb03 483d a5b7 c73d 289c 3e3e 9bc2 c0bd
000002f0: f48f ac3e f8b6 6dbe dead 263e 6342 fcbd
00000300: 6b87 253e 6931 943e 53a9 88be f572 83be
00000310: 9de2 b4bd d963 68be 15e8 1c3e 6ce5 42bc
00000320: f6ee 2d3e b9e4 edbe f609 2bbc 8b0b aa3d
00000330: 74b6 3cbe 3b44 6d3e 1c7c 273d 3c14 583e
00000340: 41db 863e f8a1 81be 6938 41bd 9aa5 aebc
00000350: 2a10 823e 0253 6ebe a46b 963d bfd8 133d
00000360: 1ae1 2fbe 7d81 ca3c 1403 543e b22d a5bd
00000370: eb3a 253e fb6f a63e 2faf 59be 9df1 a2bd
00000380: 8846 fabd 5723 00be 69f9 07be 4be2 b0bd
00000390: f45c 743e 2dc1 183e a46c ccbd ed23 393e
000003a0: b017 3dbe 7f01 ccbd 8f6d 20be 3bc0 213e
000003b0: b400 ee3d 9705 223e 53ff 843d 0ecf 463e
000003c0: e204 b73d c61d 97be 7259 73be 8e2e c03c
000003d0: 996e ebbd 5f01 febc 6ff7 cc3d ea64 9bbc
000003e0: 5fd5 87be ba5b 47be e76b 013e e388 85be
000003f0: 3316 8a3d ad2c 623d 5688 b63d a6ff eabd
-0.27763864 -0.06688535 -0.1961686 0.21708556 0.029151548 0.14780505 -0.17492145 -0.013494893
0.124512784 0.17227276 0.018452685 -0.098003134 0.35442483 -0.2108276 0.23219156 0.10419587
-0.103802346 0.21557042 0.07076416 -0.10079147 0.09741113 -0.09664145 0.07053943 -0.14248551
-0.2112488 0.17703828 -0.25196296 -0.18222065 0.24051514 -0.12376092 -0.32491297 0.120403744
-0.018648535 0.16729626 -0.3482723 0.034769367 0.12577258 0.15976843 0.12617895 -0.03291281
0.17154926 -0.10625518 0.19038598 0.22265755 -0.10441807 -0.14278083 0.22029817 -0.013486286
-0.06440602 -0.31107956 0.06638092 -0.003353126 0.036641218 -0.244355 0.27578267 0.13157666
0.18375915 0.12630239 0.013167122 0.2685161 0.00061448803 -0.009085395 -0.20019011 0.18738717
-0.2408308 0.16543978 -0.08778233 0.22323672 0.12871745 -0.06795863 -0.13099506 -0.26663992
-0.2664493 -0.02367569 -0.055299886 0.2634326 0.06498388 -0.10954775 0.004878733 0.16257007
-0.07079758 0.25414106 -0.14068748 -0.10704155 -0.19103573 0.07007646 0.21055287 -0.12682386
-0.16893545 -0.0338089 0.063669674 0.12026721 0.20067978 -0.12636675 -0.16393131 0.09059638
-0.1589616 -0.07726294 0.008539962 0.13516645 0.2895504 -0.21431215 0.054745164 -0.12915333
-0.23759936 -0.048278593 0.090012126 0.08028474 -0.14869955 0.2447855 0.375056 -0.2593558
0.17253661 0.117376864 0.07038813 0.1743888 -0.035422835 0.21841045 0.1727637 -0.16593868
-0.36682042 0.27587235 0.12894183 0.029386424 -0.17898536 0.111268416 -0.15898146 -0.104730554
0.1588049 0.012571497 0.053819586 -0.045206066 -0.12726136 0.07541867 -0.23005432 0.08278054
-0.09210026 -0.0031400593 -0.026237372 0.027874136 0.34967476 -0.041110486 -0.09375786 0.04836613
-0.011500865 -0.03361221 0.2534334 0.08197646 -0.08803837 0.039107315 0.19292046 0.24876082
0.16942374 0.22817516 0.16760796 0.1666 -0.05492383 0.12691729 -0.16571765 0.2806895
-0.1210015 0.2563059 -0.039067965 0.13500541 -0.20925649 0.24817936 -0.035781536 0.0020136908
0.08032943 -0.22599305 -0.26693344 -0.3293514 -0.21052097 0.027869236 -0.08450285 0.08095724
0.009351334 0.010379956 -0.027159123 -0.1539862 0.045885816 0.16564007 -0.2536591 0.078479715
0.04883192 0.09751824 0.18614256 -0.09412118 0.33703578 -0.23214328 0.16277263 -0.1231735
0.16164939 0.28943947 -0.26691684 -0.25673643 -0.088322856 -0.22694339 0.15322907 -0.011895519
0.16985688 -0.46463564 -0.010439387 0.08302983 -0.18428975 0.23170559 0.040889844 0.21101469
0.26339152 -0.25318885 -0.047172938 -0.0213192 0.25402957 -0.23273852 0.073447496 0.036095377
-0.17175713 0.024719948 0.20704299 -0.08065356 0.16135757 0.3250731 -0.21258233 -0.0795624
-0.12220484 -0.12513481 -0.13278736 -0.08636912 0.23863584 0.1491744 -0.09981659 0.18080111
-0.18466067 -0.09961223 -0.15666793 0.15795986 0.11621228 0.15822445 0.06494012 0.19414923
0.08936478 -0.29514903 -0.2376459 0.023459699 -0.11495704 -0.031006513 0.10008132 -0.018969018
-0.26529977 -0.19468585 0.12638818 -0.26081 0.067425154 0.055218387 0.08912723 -0.11474542

style_params/transformer/expand/conv2/conv/StyleNorm/Conv_1/Conv2D_bias f4 [8]
00000000: 7e19 bebc 6cf7 4c3c 128d fbbc cd30 fe3b
00000010: 0258 db3c ed4b 74bc 86cd ccbc 362f 713c
-0.023205515 0.012510162 -0.030706916 0.0077572824 0.026775364 -0.01491068 -0.025000345 0.014720729

style_params/transformer/expand/conv2/conv/StyleNorm/Conv_1/weights/read f4 [8, 1, 1, 100]
00000000: 154a 5a3e 651a 5a3d 5bec 0cbe 7895 c0bd
00000010: 9e21 323d 25df 203e 6f46 bbbd 28d4 803b
00000020: b242 5ebc cabf 34be 1100 213e b897 553e
00000030: 1bc2 4abc c7f3 2dbe 452d 3abe bf02 4abe
00000040: 3418 b63d 45ff 07be d04d 353d 0a52 e8bd
00000050: fc30 08be 1e64 21bd eb64 3dbe 1984 11bd
00000060: aacd 153c 7f2f 00be 6af0 07bd 2351 a0bc
00000070: 6bb4 153e f535 38bd fc5e 843c 8625 e3bd
00000080: 6c57 c7bc 12b9 913d 49eb af3d 17e6 143e
00000090: 8df8 0bbd 5385 9a3c 5156 1cbe bcdd 1c3e
000000a0: 0f0c cbbd 92b5 9b3d acaa 42be 360c 01be
000000b0: ba9e 133d 09ec 8b3d 06f6 c73d 043b 61be
000000c0: 23ab 0bbe 9408 2a3d 5cb3 3c3e a7c9 123e
000000d0: ece9 54bd 94b5 183e 730a 183d fb0e 0cbe
000000e0: e034 423e f70b 2d3d 602b ef3c 9469 b4bc
000000f0: 5e83 3dbe 5a2d 12bc b43a 65be 3839 1e3d
00000100: e5df 493e 45e0 883c 6c58 d1bd 7c66 80bd
00000110: 493d 2b3e b4bf 1fbe 8cf8 c83d 6d75 8fba
00000120: 082e 07be c5b0 26be f9fc 1dbd 353b 4a3e
00000130: c1c3 813c 76ef a83d ffe9 b4bc 143a 50be
00000140: daad 543e 292b 04be 842a 573e 6a74 293e
00000150: c242 f73d 0f5e f9bd 35ee 2dbe fff0 2f3d
00000160: e0f8 76be df37 ed3d ecae 193c cf5d 1b3e
00000170: 5d09 16be bd24 a93d c37c 5b3e 4783 31be
00000180: 12d4 503e 0dbd e33d 1ce7 73bd f595 b93d
00000190: 21cf 62bc c3ea 613e 2bf4 003e 2432 553e
000001a0: 134f 223e 2283 063e babf 4bbd 9fa2 60be
000001b0: 6cee 9b3d 533e 4d3e 1b34 bf3d 51cd 20be
000001c0: 9cf1 ebbb b78c 973d 09f0 12bd e2cd 9ebd
000001d0: 5cd0 4f3d 84c8 153d 4436 15bc 5758 fbbb
000001e0: 0633 69be 75f6 de3b 5d4a ec3b 7844 c23d
000001f0: e4a8 09be 2d0b fdbd df8e 0d3d 1826 863d
00000200: d7bf 48bc e01f 06be 22ad 843d 1a51 febd
00000210: a6a5 683e 1bbc 1dbe fc99 b53c 0261 15bb
00000220: 2f8b 0d3e c0df 35bd 53e8 603c 6579 453e
00000230: 2063 25be 4474 093d f679 903d 364f 733e
00000240: fcdd 953d 1c18 e5bd 31e0 79bd 20dd 053c
00000250: f31d d7bc 413b 2e3c 3943 2abe 2831 e53d
00000260: c1d3 313e d327 eabc 0236 513d ccfd 503e
00000270: 9641 12bd 2bcd 293e 65c0 2d3e f914 5bbd
00000280: f8f0 6bbd cd4a 643d caf1 033e 4c03 85be
00000290: 77f1 473d cbb6 713e 7b3d c9bd 00a5 843e
000002a0: 1405 233e 330f dd3d e954 63be 5121 a93d
000002b0: 18e4 69be 95f3 06be b4b2 0ebe 2176 09be
000002c0: b444 8cbd c941 f93d 13f8 f03d da1b 503e
000002d0: 210a 01be e4e5 c9bd bf74 dfbd 1f03 0f3e
000002e0: 1489 cd3c 50ea e73c a9cc a4bc 6bea f83c
000002f0: dc44 d63d fea2 29be a75a f43d 763d 003e
00000300: 1a69 85bc 7b4a 5937 78fa 09be 8e8a 6ebe
00000310: 6873 95bc 1c01 7ebe a1f6 6ebe 9dbf 323e
00000320: 4edf 77be c110 273e 49f2 853d 7e70 40be
00000330: b741 a0bd ef41 783c 7cfa 37be b537 013e
00000340: 9f17 cd3d 0335 883d 96f9 d8bd 4d1d f73d
00000350: 2950 263e aca8 6bbe 7ffc 233e f577 1b3e
00000360: d4b7 2d3e 334f d13d 65e4 253e ee1b c83b
00000370: 7872 15be 4ac2 4d3e c554 72be 64c8 75be
00000380: 4517 1fbe c3a2 71be 6c71 203e c4ce 453e
00000390: d308 35be 0fcc 00bd 9797 2a3d c815 dcbd
000003a0: db4c 863d 29f1 f33d 6ef2 f23d f8a9 063e
000003b0: 46c9 f53d 94b5 08be f602 15be 7210 203e
000003c0: de45 bdbd 7ead 4cbe 289e e63d 35d0 843d
000003d0: ace6 6f3d 13c1 e0bd ba78 a7bb b82e 8dbd
000003e0: 4dad 133e b5f9 2f3d 2734 47be c244 7f3d
000003f0: 889b bdbc a3f8 2abd 02b1 9f3d a4e0 343e
0.21317323 0.053247828 -0.13762037 -0.09403509 0.04348909 0.15710123 -0.091442935 0.003931541
-0.013565706 -0.17651287 0.15722682 0.20858657 -0.01237538 -0.16987525 -0.18181331 -0.1972761
0.08891335 -0.13280971 0.04426366 -0.11343773 -0.13299936 -0.03940212 -0.18495528 -0.03552637
0.009143272 -0.12518118 -0.03318826 -0.019569939 0.14619605 -0.044973332 0.016158573 -0.110911414
-0.024333678 0.071153775 0.08589799 0.14540897 -0.034172583 0.018862402 -0.15267302 0.1531896
-0.09914409 0.07602991 -0.19010419 -0.12602314 0.036040045 0.068321295 0.09763722 -0.21995169
-0.13639502 0.041512087 0.18427795 0.14334737 -0.051980898 0.14913017 0.03711934 -0.1367759
0.18965483 0.04224774 0.029195487 -0.022023 -0.18507144 -0.0089219455 -0.22385675 0.038628787
0.19714315 0.016708503 -0.10221943 -0.06269547 0.16722597 -0.15600473 0.098130316 -0.001094503
-0.13201153 -0.1627837 -0.03857133 0.19749148 0.015840413 0.082487985 -0.022084234 -0.20334655
0.20769444 -0.1290709 0.21012312 0.16548315 0.1207328 -0.121761434 -0.169854 0.04295444
-0.24118376 0.11582922 0.0093800835 0.15172504 -0.1465201 0.082589604 0.21434312 -0.17335235
0.20393398 0.11120043 -0.059546575 0.09061805 -0.013843329 0.2206221 0.12593143 0.20819908
0.15850477 0.1313596 -0.04974339 -0.21937035 0.07613835 0.20043306 0.0933611 -0.15703322
-0.007200433 0.07399886 -0.035873447 -0.07754113 0.050735816 0.03656818 -0.009107176 -0.007670443
-0.2277337 0.0068042823 0.007211013 0.09485716 -0.13443333 -0.12355647 0.03456008 0.065502346
-0.012252769 -0.13098097 0.06478335 -0.12417813 0.2271944 -0.15403788 0.022168152 -0.0022793417
0.13822626 -0.044402838 0.013727265 0.1928459 -0.16151094 0.033558145 0.07054512 0.23760685
0.07317731 -0.11186239 -0.06100482 0.008170396 -0.026259398 0.010634244 -0.16627206 0.111910164
0.17365934 -0.028583443 0.051076896 0.20409316 -0.03570708 0.16582172 0.16967924 -0.053486798
-0.057602853 0.055735398 0.12885204 -0.25979078 0.048814263 0.23604886 -0.098261796 0.25907135
0.15919906 0.10793915 -0.2220036 0.08258308 -0.22840917 -0.13178857 -0.13935357 -0.13423969
-0.068490416 0.12170751 0.117660664 0.20323125 -0.1260152 -0.09858301 -0.109109394 0.13966034
0.025089778 0.028309971 -0.02011712 0.030385217 0.10462353 -0.16566083 0.11931353 0.12523445
-0.016285468 1.2951549e-05 -0.13474452 -0.23295042 -0.018243507 -0.2480511 -0.23336269 0.17455907
-0.24206278 0.16314985 0.06540353 -0.18792912 -0.07825034 0.015152439 -0.17966646 0.12618907
0.10014271 0.06650736 -0.1059448 0.120661356 0.16241516 -0.23013562 0.16014288 0.15182479
0.16964656 0.10220184 0.16200407 0.006106845 -0.14594448 0.20093647 -0.2366515 -0.24002224
-0.1553622 -0.23597245 0.15668267 0.19317156 -0.17679147 -0.031444605 0.041648474 -0.10746342
0.06557628 0.11911232 0.11862646 0.13150775 0.120012805 -0.13350517 -0.14551911 0.15631273
-0.09241842 -0.19988057 0.11260635 0.06485025 0.058569595 -0.10974326 -0.0051108273 -0.068936765
0.14421578 0.04296275 -0.19453488 0.062321432 -0.023145452 -0.041741025 0.077974334 0.17663819

style_params/transformer/expand/conv3/conv/StyleNorm/Conv/Conv2D_bias f4 [3]
00000000: c030 a43b 65a7 9bbc 9d0d be3c
0.0050106943 -0.019000718 0.02319985

style_params/transformer/expand/conv3/conv/StyleNorm/Conv/weights/read f4 [3, 1, 1, 100]
00000000: 2f5f 28be 25be 0fbe 25bf 063e a872 653d
00000010: b117 3fbd 3e3b 103e bb7c 00bd 3f3f ad3d
00000020: 657b d9bd 1c1b 75bc 02fb d8bd aaca 7bbd
00000030: 7652 ab3d e6e1 39be 6466 4fbe 1881 a7bd
00000040: c5f2 47be 0a1b 8c3c 4ab4 ddbd 22e4 6f3d
00000050: e8ba 313d adf8 203d 907c ecbd 68ab 45be
00000060: 5d66 213e b8ff afbd ffdb 1ebe 9e4c af3d
00000070: d98c 583e 5410 88bd 4751 0abe d91c 2ebe
00000080: b767 503e 7486 953d 1639 5c3e 928f 363d
00000090: 0cf7 593e cbbb de3d 752b 30be f767 59be
000000a0: f5f0 31be 6772 f6bd e25d 41bd 4a87 2bbd
000000b0: 7dc2 193d 4452 a83d 3202 ec3d 5af8 15bd
000000c0: a07f 53be 7299 1f3d bb5f c23d 6869 16be
000000d0: 59ae febd f78f 513e d533 423c c01d 1fbe
000000e0: 06a3 5cbd 1a2f 2e3e 1962 5a3e 110c 50be
000000f0: bef1 113d 93ff 883d fa14 1b3e 495d e2bd
00000100: 7d99 d7bd cd95 bfbc b0db 60bd b667 523e
00000110: 6bfe 06bd 0256 0abc b372 e5bd 8bab b73c
00000120: 777d 55be f489 55be b624 00be b0df a6bd
00000130: c915 a23d 9e0a 6f3d 198d a5bd 2654 2fbe
00000140: 7e02 7c3c e4f8 79bd 9a24 1bbe dec1 28bd
00000150: 59b9 16be 9c1d 863c 0a47 ee3c c435 04be
00000160: 6d1d c83d e611 0dbe 4ae5 bfbd 8a24 b13d
00000170: 7423 45be 64d4 aebc 4446 39be c087 db3c
00000180: 305c d1bb 131a 963d 4514 ed3c 1fa9 06be
00000190: bd7c 40be 990e 8ebd 32bd b33d 6645 81bd
000001a0: f301 543e a8d3 afbd bf37 6a3d 4139 50be
000001b0: 7dd4 27be 920d 69bd 45db 323e 6f5f 37be
000001c0: 0489 24be 1045 1dbe 4384 31be a94a 41bc
000001d0: 21a7 853c ab5b 9d3d ba06 dcbd 260a 6a3d
000001e0: c558 643e 8786 6d3d 4eb9 313e 015a 0abe
000001f0: bb0d 2bbe d550 5a3d d20b f4bd 8f1c 233d
00000200: 6beb 3f3e 64cb 0b3e ca3d 1f3e cec4 443e
00000210: f15b 523e 2a0b 913d 8e53 683c 3c76 3b3d
00000220: ddf3 033e c727 35be 641e f7bd 6ff1 65be
00000230: 1b43 f7bd 3530 3ebd e9c6 dfbd 2dad 623c
00000240: d6df a83d 65f2 0a3e 2263 1dbe a3f6 05be
00000250: 6d1b 33be 5269 3f3d 51ed c83d 1bcc 40be
00000260: 0fbf 06be c6d2 8c3c 5331 a8bd 5947 59bb
00000270: 3c99 b9bd 4743 f8ba 6bad 1abd b2ce 44be
00000280: 6f53 4f3e 6a7a 263d 00cc 84bc 5704 a23d
00000290: 8408 34be 5342 4bbe 7347 fb3d ba7f 56bc
000002a0: b396 113e e082 a1bd ee03 25be 0f5a b63d
000002b0: ce2d 813d 391d 71be 25f2 68be e3ae 2cbe
000002c0: 5bb7 31be 1ca5 c93d 05e5 47be ea4a 62be
000002d0: ae52 163e 7590 16be 61a2 1abe 2fa4 68bd
000002e0: 78df f13c 0918 073e 432f a0bd 96da 3c3e
000002f0: 9dbf 5b3e 4ea1 fe3d 1649 49be 806b 543d
00000300: c323 adbd 0d5d 36bd 1dc3 46bc 1eeb 0dbe
00000310: 93cb 0c3e 12b3 d53c bcdb 803e e09d cebc
00000320: 093c c6bd ff62 e93d a52f 49be 3f75 27be
00000330: 113d a13d 8334 0cbe 1788 3fbe 2603 8fbd
00000340: 7afe 08be befd 303e e08e 3c3e 6c04 27be
00000350: dfe2 28be 2498 08be cbe8 f1bc 57f2 773d
00000360: f5b6 f73d 077e b6bc a7de 44be a896 5dbe
00000370: e135 62be 7832 55be 698d 6dbe f834 10be
00000380: ea2d 3ebe 5c8b 753e 1a2e 39be 1ef7 343e
00000390: dd02 5cbd e6e4 bc3d 0ca9 36be 1f59 ebbd
000003a0: a2be 3fbe f80f 313e b620 cf3d 054e b0bd
000003b0: c208 493d 55c2 a1bd 7fe9 18be f29e 7dbd
000003c0: cc87 cc3c 11a7 eabd fd7a 43bc a44d 30be
000003d0: e31d 7ebc da6a 88bc 4e82 b33d 4547 f43c
000003e0: 0c97 48be 4745 53be fa28 713e 87da 6fbc
000003f0: 2a90 193d a57c 48bc 0a21 f03d f0ba 0b3e
-0.1644256 -0.14037378 0.13158853 0.056017548 -0.046653453 0.14085099 -0.031368952 0.08459329
-0.10619239 -0.014960077 -0.10594751 -0.061472572 0.083653376 -0.1815258 -0.20253903 -0.081789196
-0.19526203 0.017102737 -0.10825403 0.058567174 0.04339114 0.039299656 -0.11547196 -0.19303668
0.15761705 -0.08593696 -0.1551361 0.085595354 0.21147479 -0.06643739 -0.13507567 -0.17003192
0.20352064 0.073010355 0.21506152 0.044570513 0.21285647 0.108756624 -0.17204078 -0.21231066
-0.17377074 -0.12033539 -0.047208674 -0.04187707 0.037538994 0.08218816 0.11523856 -0.0366138
-0.20654154 0.038964696 0.094909154 -0.14688647 -0.12435598 0.20465074 0.011853178 -0.15538692
-0.05386641 0.17010155 0.21326484 -0.20317103 0.035630934 0.06689372 0.1514472 -0.11052949
-0.105273224 -0.02338686 -0.05489701 0.20547375 -0.032957476 -0.008443357 -0.11203518 0.022420665
-0.20848642 -0.20853406 -0.12514004 -0.08148134 0.079143114 0.058359735 -0.08083553 -0.17121944
0.015381454 -0.061028376 -0.15150681 -0.04120051 -0.14719142 0.01637154 0.029086608 -0.12911135
0.097712375 -0.13776359 -0.09369905 0.086495474 -0.19251806 -0.02134151 -0.1809321 0.02679813
-0.0063891634 0.07329192 0.02894033 -0.13150452 -0.18797584 -0.06936378 0.087763205 -0.06312065
0.20703869 -0.08585292 0.05718207 -0.2033434 -0.16389652 -0.056897707 0.17466457 -0.17907499
-0.16067892 -0.15358377 -0.1733561 -0.0117975855 0.016315045 0.076835 -0.107434705 0.057138585
0.22299488 0.057989623 0.17355844 -0.13510896 -0.16704457 0.053299744 -0.11916317 0.039822157
0.18742149 0.13651806 0.15550914 0.192157 0.20542885 0.070822075 0.014180077 0.045767054
0.12885995 -0.17690955 -0.120663434 -0.22455381 -0.12073346 -0.046432693 -0.10926611 0.013835234
0.08245818 0.13569029 -0.15369847 -0.13082366 -0.17490931 0.0467313 0.098108895 -0.1882786
-0.1315882 0.017190348 -0.08212533 -0.0033154099 -0.0906243 -0.0018940949 -0.03776304 -0.19219473
0.20246671 0.040644087 -0.016210556 0.07910984 -0.17581373 -0.1984952 0.12269487 -0.013091976
0.14217643 -0.078862906 -0.1611478 0.08903896 0.06307565 -0.23546304 -0.22748621 -0.16863589
-0.17355101 0.09845945 -0.19520958 -0.2209889 0.14679977 -0.14703543 -0.15101005 -0.056797203
0.029525504 0.13192762 -0.078215145 0.18442759 0.21459813 0.1243311 -0.19656786 0.051860332
-0.08454087 -0.044522334 -0.01213148 -0.13859221 0.13749532 0.026086364 0.25167644 -0.025221765
-0.096794195 0.11395835 -0.19647081 -0.1635332 0.078729756 -0.13691907 -0.18704258 -0.069830224
-0.13378325 0.17284295 0.18413877 -0.1631028 -0.16492794 -0.13339287 -0.02952995 0.060533848
0.12095443 -0.022276891 -0.1922556 -0.21639502 -0.22090866 -0.20820034 -0.23198475 -0.14082706
-0.18572202 0.23978943 -0.18083993 0.17672393 -0.05371367 0.092233464 -0.17837924 -0.11491608
-0.18725064 0.17291248 0.10113661 -0.08608631 0.049080618 -0.07898394 -0.14932822 -0.06191916
0.024967097 -0.11457647 -0.011931178 -0.17217118 -0.015510055 -0.016652513 0.08765088 0.02981914
-0.1958887 -0.20631896 0.23550788 -0.014639503 0.037491 -0.012236749 0.11725052 0.1364553

style_params/transformer/expand/conv3/conv/StyleNorm/Conv_1/Conv2D_bias f4 [3]
00000000: 652c 9e37 f6c0 bb3b 320e 763b
1.885574e-05 0.00572979 0.0037545082

style_params/transformer/expand/conv3/conv/StyleNorm/Conv_1/weights/read f4 [3, 1, 1, 100]
00000000: a136 ddbd 7c63 91bd 35cd b13d e636 593e
00000010: 5542 0f3e d37d 2dbe dd5b 22bd bb2f 53be
00000020: 454e 013e 9d6a b63d 4932 f0bd be32 543e
00000030: 0ffa 053d faa8 c4bd b43b 10bd e048 01be
00000040: 866a 13bd 2cd1 1ebe ad9b e0bd cf75 933c
00000050: 14ee c03d 613e bf3d 7855 db3d 79ae c03d
00000060: 0537 433e f9e6 46bd 49bc 3bbe 69ac 113e
00000070: a66d 01be dba0 99bd 69ae 3e3e 2afe 773c
00000080: d1cc 49be 5557 4c3d ead1 39bc 4c46 ba3d
00000090: 07f3 b2bd f7b0 efbd 1ef1 61bd 4939 783c
000000a0: ef30 653e 0963 c1bd ca4e 39be 5b45 933b
000000b0: 0db9 ce3d 9b08 bc3d 9472 063c 41b9 773d
000000c0: f20d 72bd 7713 bb3d d55a 3e3d bb9d b038
000000d0: 3b64 98bc 3bf7 2e3e 58fa 313d 9dc9 9c3d
000000e0: c05f 143e 8521 f9bd 233a 1f3e 7984 503e
000000f0: 3edb 2dbd f224 51be 00b7 52be accf 2ebb
00000100: f1fa c43d d69b 5dbd da59 fa3d 4566 51bd
00000110: 7cbd 16be 1532 fe3b f3bc 2ebe e156 98bc
00000120: 1420 51bc f73a 13be 6aad 713c 78b5 6f3d
00000130: a6ab cebd 5189 9a3d 9f09 55bd a22c e7bd
00000140: 4cc2 033e 3adf 53be 551b 3b3e fbe7 eb3d
00000150: 080c cabb ca08 bf3d 03ef 563d e366 eabd
00000160: 6004 2ebe f77b d1bd 88b8 be3d e7f7 993c
00000170: 9d94 563c 656a cf3c b579 f2bc b78d 183e
00000180: b42f 3fbd 2f3e 0abe 46c2 76bd 4dac 383e
00000190: 076f b93d e9e9 ba3d 58fb ed3d d20f d83d
000001a0: 3b18 30bd 488b 9f3d 2101 5b3e b359 e8bd
000001b0: 92cd ee3d 47e5 3e3d 8a4b 0b3e 0ded 59bd
000001c0: fedf 233d 901f 183e 4983 25be 7a07 34be
000001d0: 8d27 bd3d 5ef2 e8bc 460c 3d3e 285f 22be
000001e0: 7887 43bd 4a7d 1abe 376a ac3c 554d 55be
000001f0: 37bf a5bd dc27 7a3d b3b1 6f3e 0d1f 0dbe
00000200: e3ff 0f3e c386 533a c3b3 25be 8bdb b9bd
00000210: 9512 133e e12f f1bb 7a31 543a 46ad febc
00000220: 70e9 40bc c1bb e6bb c23b aebd b46a 14bd
00000230: 52c7 b53d 2b7d 65bd e49b dabd 5d29 b03c
00000240: 628b 00be bcd0 82bd 5cb7 d6bd 0534 38bd
00000250: 5f51 c3bd b8a3 97bd 1426 03be 08ff 613d
00000260: eaff 67bd 2037 013d f2d3 de3d 6bc7 283e
00000270: 58ef 22be 4aa2 9fbd 2b72 f53b ea32 173d
00000280: 7e3a 8dbd 392d 8f3d ecc0 0cbe e40d edbb
00000290: ac22 40be e78b 1e3d f7cf 983d 065b 90bd
000002a0: 3f68 cdbc a5fd 23be 5162 143d 985e e43d
000002b0: 9e15 00be e465 b8bd d5e3 3fbe b09c 47be
000002c0: b8d0 393e e607 ac3d c60e 11be 2ef3 fbbd
000002d0: 1447 443e 14c5 743d 3b2f 5fbd 8b95 0b3d
000002e0: 6694 d93d a89c b93c fcc1 013e 340c 223e
000002f0: 7e61 833d a5c7 883d 05cc 163e fac4 09be
00000300: 968c 96bd 8c74 04be f905 363e bbfd 233e
00000310: c559 d13d 7cba 773c fd26 ddbc 7fbc e0bd
00000320: 2af1 22be 0ff8 1a3e 9484 4abd d704 23bd
00000330: 65a5 afbd 9aad ff3d 1cb5 a0bd 7548 353d
00000340: 87cd 2ebe 1447 ccbd fe16 1c3e 2dd0 01be
00000350: cb02 6f3d 6352 7bbd f755 3cbe 351a ef3d
00000360: 2eee 8dbc 048b 953d e28b 993c 4da9 88be
00000370: 3c6d cd3c de55 ae3b 381e 363e f52b 1b3d
00000380: d6a9 313c 00fb 2a3d 5ff1 23be 7eb4 c73c
00000390: 2b4a 3f3d 9782 1cbe 524f 2ebe 3397 e93d
000003a0: 1a74 053d e6e1 2fbd a24e e83c e709 4dbc
000003b0: 08e3 1b3e b919 d9bd 7c93 57be 9f5f f03d
000003c0: b9e5 23be 40b9 4abe 7f69 4d3e 1ba4 c6bd
000003d0: 5995 3d3e f026 e13d 1bc3 a2bd 57c4 f43d
000003e0: 53e1 31be 907d e13d d0cb 92bd bd86 32be
000003f0: 12eb 0e3e bc9c ccbc 22df 0cbe c5e2 0bbe
-0.10801435 -0.07099053 0.08681718 0.21212348 0.13990147 -0.1694253 -0.03963839 -0.20623676
0.12627514 0.089070536 -0.11728341 0.20722482 0.032709178 -0.09602542 -0.035213187 -0.12625456
-0.03599026 -0.1550948 -0.10967193 0.018000511 0.0942041 0.0933807 0.10709661 0.09408278
0.19063957 -0.048560116 -0.18333544 0.14225926 -0.12639484 -0.07501384 0.1862122 0.015136281
-0.19707038 0.049887974 -0.011341551 0.09095439 -0.0873776 -0.11703675 -0.055161588 0.015150377
0.22381948 -0.094427176 -0.18096462 0.004494352 0.100938894 0.09181329 0.0082060285 0.060479406
-0.05909533 0.09134572 0.046473343 8.4217136e-05 -0.018602481 0.17086498 0.043451637 0.07655642
0.1448965 -0.121645965 0.15549521 0.20363034 -0.042445414 -0.2042425 -0.20577621 -0.0026674075
0.09618176 -0.054103695 0.12224169 -0.051122922 -0.1472072 0.007757435 -0.17064266 -0.018596115
-0.012763996 -0.14377962 0.014750818 0.05852267 -0.10091333 0.07545722 -0.05201113 -0.1128781
0.12867087 -0.20690623 0.18272145 0.11518856 -0.006165985 0.09327848 0.052474033 -0.11445405
-0.16993856 -0.102287225 0.0931254 0.018794967 0.013096956 0.025319288 -0.02959905 0.1489781
-0.046676353 -0.13500284 -0.060243867 0.18034478 0.0905438 0.09126646 0.11620206 0.105498925
-0.042991858 0.07790238 0.2138715 -0.11345234 0.11660303 0.046605375 0.13603035 -0.053204585
0.040008537 0.1485579 -0.16163363 -0.17580977 0.09236059 -0.028435882 0.18461713 -0.15856612
-0.047736615 -0.15086856 0.021046741 -0.20830281 -0.08093112 0.06107317 0.2340763 -0.13781376
0.14062457 0.00080690923 -0.16181855 -0.090750776 0.14362557 -0.007360444 0.0008094531 -0.031088483
-0.011774406 -0.007041425 -0.08507492 -0.036234573 0.08875908 -0.056027573 -0.10674265 0.021504099
-0.1255317 -0.06387469 -0.10484192 -0.044971485 -0.09537005 -0.07404274 -0.12807494 0.055174857
-0.056640543 0.031546712 0.10880269 0.16482322 -0.15911615 -0.07794626 0.0074904165 0.03691379
-0.06895922 0.069910474 -0.13745469 -0.007234322 -0.18763226 0.03870764 0.07461541 -0.07048611
-0.025074122 -0.16014726 0.036226574 0.11150855 -0.12508246 -0.09003809 -0.18739255 -0.19493365
0.18146026 0.08399944 -0.14165792 -0.12302242 0.19167739 0.05975826 -0.0544884 0.034078162
0.10624008 0.022657707 0.12671655 0.15824968 0.064150795 0.06678704 0.14726265 -0.13454047
-0.073510334 -0.12935084 0.17775716 0.16014759 0.102222 0.015120145 -0.02699613 -0.10973453
-0.1591231 0.1513369 -0.049442843 -0.039799538 -0.085764684 0.12484284 -0.07847044 0.044258554
-0.1707059 -0.099744946 0.15243146 -0.12677069 0.058352273 -0.061357867 -0.18392168 0.116749205
-0.017325487 0.07301906 0.01874346 -0.26691666 0.025076501 0.0053202948 0.17784965 0.037883718
0.010843715 0.04174328 -0.16010045 0.024378058 0.04670159 -0.15284191 -0.17022446 0.11405792
0.032581426 -0.042940043 0.028357808 -0.012514568 0.15223324 -0.10600609 -0.21052355 0.11736988
-0.16005601 -0.1979723 0.20059775 -0.096992694 0.18514003 0.10993755 -0.0794737 0.11951511
-0.1737111 0.11010277 -0.071677804 -0.17434211 0.1395686 -0.02497708 -0.13756993 -0.13660724

style_params/transformer/residual/residual1/conv1/StyleNorm/Conv/Conv2D_bias f4 [32]
00000000: 7626 243c 7a7c cf3c 3464 043d 6c60 e23c
00000010: b43b 343d 2558 f73c d6d0 3abc f25f 31bc
00000020: f7af 463d a12c c03c b4dd 5f3c c43a 9b3c
00000030: a3f8 943d 6480 393e 5a5b 483d fe6c a33d
00000040: d860 8e3d db99 8fbb 9f5b 9b3c 9310 743d
00000050: 46c8 1d3b 11a2 963e 805f 653d c644 823c
00000060: 8136 a23c ede9 f43c 117d 103d b1dc b43c
00000070: 10be 173c e02f 103d 32d6 393d c68e ac3c
0.010018935 0.02532791 0.032322124 0.027633868 0.04400225 0.030193398 -0.011402329 -0.010826098
0.048507657 0.02345878 0.013663698 0.01894892 0.07273986 0.18115383 0.048915245 0.07979773
0.06952065 -0.0043823547 0.018964587 0.05958612 0.002407567 0.29420522 0.05599928 0.015901934
0.01980138 0.0298967 0.035275523 0.02207789 0.009261623 0.035201907 0.04537029 0.021064173

style_params/transformer/residual/residual1/conv1/StyleNorm/Conv/weights/read i1 [32, 1, 1, 100] scale=0.0039346484 zero_point=0
00000000: 23e9 02d7 d812 01ea f60f 1600 fde1 302f
00000010: ec20 cef0 cde6 dfd8 27e6 2dce 13f4 dc17
00000020: fa06 17dc 01f4 c538 fa1d dd05 0a08 e90a
00000030: 44fa d821 091b 09e8 08fd 16f5 32d7 0020
00000040: 1d01 0cd9 1305 1313 fe0f d8e7 20d1 ec0f
00000050: 2ae9 f120 e722 cfe9 f8f9 d4e6 fdf5 fb2d
00000060: cd26 e210 15d5 1afa c117 edfd e90f 17e7
00000070: 1cf5 130b d3e3 242a f0d4 3422 ea05 ea29
00000080: 34f0 071f 2220 d2e6 262b 2a0a 1d1b 15f7
00000090: e647 3001 01c6 1a00 cb05 fef3 1efe f0d1
000000a0: de15 eedc 1bff e124 f01b 0639 d9e8 36e3
000000b0: 2b03 e618 efea 3abd fd01 ddf0 23e8 09f9
000000c0: 33fe ceed dd31 e109 1f2b 25f5 02de 0e0a
000000d0: e706 14e4 0224 221c 1517 0c3b b6e6 ffc6
000000e0: 3628 2f0e 03d6 c601 f2c6 0e01 15f9 0200
000000f0: 35ee d300 1cfa cc1c 45e4 24e7 26ee d7ec
0.13771269 -0.09049691 0.007869297 -0.16132058 -0.15738593 0.07082367 0.0039346484 -0.08656226
-0.039346483 0.059019726 0.08656226 0.0 -0.0118039455 -0.121974096 0.18886313 0.18492848
-0.078692965 0.12590875 -0.19673242 -0.06295437 -0.20066707 -0.10230086 -0.1298434 -0.15738593
0.15345128 -0.10230086 0.17705917 -0.19673242 0.07475832 -0.047215782 -0.14164734 0.09049691
-0.023607891 0.023607891 0.09049691 -0.14164734 0.0039346484 -0.047215782 -0.23214425 0.22034031
-0.023607891 0.1141048 -0.13771269 0.019673241 0.039346483 0.031477187 -0.09049691 0.039346483
0.2675561 -0.023607891 -0.15738593 0.1298434 0.035411835 0.106235504 0.035411835 -0.094431564
0.031477187 -0.0118039455 0.08656226 -0.04328113 0.19673242 -0.16132058 0.0 0.12590875
0.1141048 0.0039346484 0.047215782 -0.15345128 0.07475832 0.019673241 0.07475832 0.07475832
-0.007869297 0.059019726 -0.15738593 -0.09836621 0.12590875 -0.18492848 -0.078692965 0.059019726
0.16525523 -0.09049691 -0.059019726 0.12590875 -0.09836621 0.13377805 -0.19279777 -0.09049691
-0.031477187 -0.027542539 -0.17312452 -0.10230086 -0.0118039455 -0.04328113 -0.019673241 0.17705917
-0.20066707 0.14951664 -0.11803945 0.06295437 0.08262762 -0.16918989 0.10230086 -0.023607891
-0.24788284 0.09049691 -0.07475832 -0.0118039455 -0.09049691 0.059019726 0.09049691 -0.09836621
0.110170156 -0.04328113 0.07475832 0.04328113 -0.17705917 -0.1141048 0.14164734 0.16525523
-0.06295437 -0.17312452 0.20460172 0.13377805 -0.08656226 0.019673241 -0.08656226 0.16132058
0.20460172 -0.06295437 0.027542539 0.121974096 0.13377805 0.12590875 -0.18099383 -0.10230086
0.14951664 0.16918989 0.16525523 0.039346483 0.1141048 0.106235504 0.08262762 -0.035411835
-0.10230086 0.27936003 0.18886313 0.0039346484 0.0039346484 -0.2282096 0.10230086 0.0
-0.20853636 0.019673241 -0.007869297 -0.05115043 0.11803945 -0.007869297 -0.06295437 -0.18492848
-0.13377805 0.08262762 -0.07082367 -0.14164734 0.106235504 -0.0039346484 -0.121974096 0.14164734
-0.06295437 0.106235504 0.023607891 0.22427496 -0.15345128 -0.094431564 0.21247101 -0.1141048
0.16918989 0.0118039455 -0.10230086 0.094431564 -0.066889025 -0.08656226 0.2282096 -0.26362145
-0.0118039455 0.0039346484 -0.13771269 -0.06295437 0.13771269 -0.094431564 0.035411835 -0.027542539
0.20066707 -0.007869297 -0.19673242 -0.07475832 -0.13771269 0.19279777 -0.121974096 0.035411835
0.121974096 0.16918989 0.14558199 -0.04328113 0.007869297 -0.13377805 0.055085078 0.039346483
-0.09836621 0.023607891 0.078692965 -0.110170156 0.007869297 0.14164734 0.13377805 0.110170156
0.08262762 0.09049691 0.047215782 0.23214425 -0.29116398 -0.10230086 -0.0039346484 -0.2282096
0.21247101 0.15738593 0.18492848 0.055085078 0.0118039455 -0.16525523 -0.2282096 0.0039346484
-0.055085078 -0.2282096 0.055085078 0.0039346484 0.08262762 -0.027542539 0.007869297 0.0
0.20853636 -0.07082367 -0.17705917 0.0 0.110170156 -0.023607891 -0.20460172 0.110170156
0.27149072 -0.110170156 0.14164734 -0.09836621 0.14951664 -0.07082367 -0.16132058 -0.078692965

style_params/transformer/residual/residual1/conv1/StyleNorm/Conv_1/Conv2D_bias f4 [32]
00000000: 4597 54bd ba67 db3b 385e 993c 36ac 06bc
00000010: 435a 9ebc 28a5 f33c 5fde b0bb d481 36bd
00000020: 74d1 05bd 9ca5 2f3c 2ead 1a3b 4e1a a33c
00000030: ac96 053d beae 28bd cd19 db3c 137d 0f3d
00000040: 9f59 bebc 5780 df3c 76c3 08bb 5a6f 60bc
00000050: 9802 e33b 2b63 b43c a55c 563c f37c 84bc
00000060: 4d36 bc3c 8284 a03c 504c 8d3c 0772 9b3c
00000070: dd0f 15bd e6be 713c e2ef d5bc f7ac 1e3d
-0.051902074 0.006695715 0.018721685 -0.008219769 -0.01933015 0.029741839 -0.0053976025 -0.044557407
-0.032670453 0.010720637 0.0023601758 0.019910004 0.032614395 -0.041182272 0.026745701 0.03503139
-0.023236094 0.027282877 -0.0020868457 -0.013698423 0.0069277994 0.022019943 0.013083612 -0.016172862
0.022975111 0.019594435 0.017248303 0.01897527 -0.03639208 0.014754986 -0.026115362 0.03873917

style_params/transformer/residual/residual1/conv1/StyleNorm/Conv_1/weights/read i1 [32, 1, 1, 100] scale=0.0038243844 zero_point=0
00000000: 14ce bbf1 01ee de07 fde2 e0c9 070b d203
00000010: 18df 1cd1 1cfb 1d04 c3eb 0b3d 2436 410a
00000020: 24e9 de21 ea13 0f02 04f4 fbef 3938 250c
00000030: f013 db27 0713 eb1a 051f fbf6 dbf3 22e4
00000040: 22db d803 02e0 3933 01fa 0220 07f7 e63c
00000050: c9e6 dce5 14dd d912 fe00 c606 f9df 0a28
00000060: dfe7 1bfe 040b 2107 d03d e729 cee4 eaff
00000070: d204 3726 edd3 35bc 2df7 080b f919 e2f0
00000080: 3124 0c17 1329 f115 fb32 3eda ccf2 1033
00000090: ec28 d835 10fb 2f14 e6d8 0ad3 231b 252b
000000a0: ffd3 ffc7 2c2a e7e1 fb18 0c0f 08e9 2b31
000000b0: ec23 2f1d 02db edde dd0b eb36 2cde 1703
000000c0: 25f6 cfd7 f61a 250c 11f6 2820 d91f de3c
000000d0: 31d0 28db c709 de50 d40d 3520 d602 f109
000000e0: 1a0d e1f0 0ee3 0c44 df02 1b2d b90a bd20
000000f0: fff4 ef21 dcf4 03bf 0e33 0339 1ed7 dd35
0.07648769 -0.19121923 -0.26388252 -0.057365768 0.0038243844 -0.06883892 -0.13002907 0.02677069
-0.011473153 -0.114731535 -0.1223803 -0.21034114 0.02677069 0.042068228 -0.17592168 0.011473153
0.09178522 -0.12620468 0.10708276 -0.17974606 0.10708276 -0.019121923 0.110907145 0.015297538
-0.23328745 -0.08031207 0.042068228 0.23328745 0.13767783 0.20651676 0.24858499 0.038243845
0.13767783 -0.08796084 -0.13002907 0.12620468 -0.084136456 0.07266331 0.057365768 0.007648769
0.015297538 -0.04589261 -0.019121923 -0.06501453 0.2179899 0.21416552 0.14150222 0.04589261
-0.06119015 0.07266331 -0.14150222 0.149151 0.02677069 0.07266331 -0.08031207 0.099433996
0.019121923 0.11855592 -0.019121923 -0.038243845 -0.14150222 -0.049716998 0.13002907 -0.10708276
0.13002907 -0.14150222 -0.15297538 0.011473153 0.007648769 -0.1223803 0.2179899 0.19504361
0.0038243844 -0.022946306 0.007648769 0.1223803 0.02677069 -0.03441946 -0.099433996 0.22946307
-0.21034114 -0.099433996 -0.13767783 -0.10325838 0.07648769 -0.13385345 -0.149151 0.06883892
-0.007648769 0.0 -0.22181429 0.022946306 -0.02677069 -0.12620468 0.038243845 0.15297538
-0.12620468 -0.09560961 0.10325838 -0.007648769 0.015297538 0.042068228 0.12620468 0.02677069
-0.18357044 0.23328745 -0.09560961 0.15679976 -0.19121923 -0.10708276 -0.084136456 -0.0038243844
-0.17592168 0.015297538 0.21034114 0.14532661 -0.07266331 -0.1720973 0.20269237 -0.26005813
0.1720973 -0.03441946 0.030595075 0.042068228 -0.02677069 0.09560961 -0.114731535 -0.06119015
0.18739484 0.13767783 0.04589261 0.08796084 0.07266331 0.15679976 -0.057365768 0.08031207
-0.019121923 0.19121923 0.23711184 -0.14532661 -0.19886799 -0.05354138 0.06119015 0.19504361
-0.07648769 0.15297538 -0.15297538 0.20269237 0.06119015 -0.019121923 0.17974606 0.07648769
-0.099433996 -0.15297538 0.038243845 -0.1720973 0.13385345 0.10325838 0.14150222 0.16444853
-0.0038243844 -0.1720973 -0.0038243844 -0.2179899 0.16827291 0.16062415 -0.09560961 -0.11855592
-0.019121923 0.09178522 0.04589261 0.057365768 0.030595075 -0.08796084 0.16444853 0.18739484
-0.07648769 0.13385345 0.17974606 0.110907145 0.007648769 -0.14150222 -0.07266331 -0.13002907
-0.13385345 0.042068228 -0.08031207 0.20651676 0.16827291 -0.13002907 0.08796084 0.011473153
0.14150222 -0.038243845 -0.18739484 -0.15679976 -0.038243845 0.099433996 0.14150222 0.04589261
0.06501453 -0.038243845 0.15297538 0.1223803 -0.149151 0.11855592 -0.13002907 0.22946307
0.18739484 -0.18357044 0.15297538 -0.14150222 -0.2179899 0.03441946 -0.13002907 0.30595076
-0.16827291 0.049716998 0.20269237 0.1223803 -0.16062415 0.007648769 -0.057365768 0.03441946
0.099433996 0.049716998 -0.11855592 -0.06119015 0.05354138 -0.110907145 0.04589261 0.26005813
-0.12620468 0.007648769 0.10325838 0.1720973 -0.27153128 0.038243845 -0.25623375 0.1223803
-0.0038243844 -0.04589261 -0.06501453 0.12620468 -0.13767783 -0.04589261 0.011473153 -0.24858499
0.05354138 0.19504361 0.011473153 0.2179899 0.114731535 -0.15679976 -0.13385345 0.20269237

style_params/transformer/residual/residual1/conv2/StyleNorm/Conv/Conv2D_bias f4 [32]
00000000: fa2e 21bc 456f 00bd ed90 66bc 49ad 563a
00000010: 597f 143d c2ce 863c c1fd 18bc 5351 9bbc
00000020: 8838 2ebc 2c48 a93c 2ff4 a4bb 4dde 9fbc
00000030: 078c 19bc b636 3f3c 4da6 553b 86c3 b93c
00000040: ebe9 7abc 6c28 93bc c71b a8bc 162b 8a3b
00000050: c1a7 a03c 324c 383a fec0 04ba 5fc3 683b
00000060: 4776 a13a 168c dbbb 36df aabc 56ef d53c
00000070: c09e c7bb 0949 b2bc 8a1a f6bc f379 2e3c
-0.00983786 -0.031356115 -0.014072639 0.00081892736 0.03625426 0.016456012 -0.009337843 -0.018959677
-0.010633595 0.020664297 -0.0050339918 -0.019515181 -0.009371764 0.011670759 0.0032600344 0.02267624
-0.015314559 -0.01796361 -0.020521058 0.004216562 0.019611241 0.0007030397 -0.00050641585 0.003551684
0.0012318575 -0.006700049 -0.020858388 0.0261151 -0.0060919225 -0.021763342 -0.030041952 0.010649192

style_params/transformer/residual/residual1/conv2/StyleNorm/Conv/weights/read i1 [32, 1, 1, 100] scale=0.0019133427 zero_point=0
00000000: 035a 0218 6bcc 1151 e360 22c6 a725 dff8
00000010: c3fe f6cb e751 17ee 6a90 b4d0 ca48 cc40
00000020: 1c2b 5aea 4fcc f776 bbdd e7f8 a1de 2c11
00000030: 9d36 c54b 2019 a72e 588f f80d f0dd e076
00000040: 2cc6 24f0 1045 1d17 4cce efcc 2f40 1344
00000050: 1791 e018 2765 4062 a550 0b10 e852 d9d4
00000060: 0dc5 37dd a4fc 60c1 77f8 aad9 de09 b760
00000070: d266 123e 1953 8668 0dde f6e6 414b acb9
00000080: e8d7 c921 57a0 4cc6 cf11 2132 c5de a31a
00000090: e351 4f8a 1c3f fd22 2679 f8f2 389b b3a2
000000a0: 2fef 42dc a4cd be13 c437 de9c c23a aafb
000000b0: 235e 0867 ad85 6c31 4d9f 28c2 454b e434
000000c0: d0ad 33ac bc06 f414 a0ab dc1a 9955 1eaf
000000d0: b732 d4ea fc9c f71d b909 4044 fcc2 ddf3
000000e0: 599a a68e da2d e95a 14fa 6727 deb6 cf62
000000f0: 02e1 0758 e73c dfdc e138 d6db 2bc4 1954
0.0057400283 0.17220084 0.0038266855 0.045920227 0.20472768 -0.099493824 0.03252683 0.15498076
-0.05548694 0.1836809 0.06505366 -0.11097388 -0.1702875 0.07079368 -0.06314031 -0.015306742
-0.116713904 -0.0038266855 -0.019133428 -0.10140716 -0.04783357 0.15498076 0.044006884 -0.03444017
0.20281433 -0.21429439 -0.14541405 -0.09184045 -0.10332051 0.13776068 -0.099493824 0.122453935
0.053573597 0.08227374 0.17220084 -0.04209354 0.15115407 -0.099493824 -0.017220085 0.22577444
-0.13202065 -0.066966996 -0.04783357 -0.015306742 -0.18176755 -0.06505366 0.08418708 0.03252683
-0.18942094 0.10332051 -0.11288722 0.1435007 0.061226968 0.04783357 -0.1702875 0.08801377
0.16837417 -0.21620773 -0.015306742 0.024873456 -0.030613484 -0.066966996 -0.061226968 0.22577444
0.08418708 -0.11097388 0.06888034 -0.030613484 0.030613484 0.13202065 0.05548694 0.044006884
0.14541405 -0.09566714 -0.03252683 -0.099493824 0.08992711 0.122453935 0.036353514 0.13010731
0.044006884 -0.21238105 -0.061226968 0.045920227 0.074620366 0.19324762 0.122453935 0.18750758
-0.17411418 0.15306742 0.02104677 0.030613484 -0.045920227 0.1568941 -0.074620366 -0.08418708
0.024873456 -0.11288722 0.10523385 -0.066966996 -0.17602754 -0.007653371 0.1836809 -0.12054059
0.22768779 -0.015306742 -0.16454747 -0.074620366 -0.06505366 0.017220085 -0.13967402 0.1836809
-0.08801377 0.19516096 0.03444017 0.11862725 0.04783357 0.15880744 -0.23342781 0.19898765
0.024873456 -0.06505366 -0.019133428 -0.049746912 0.12436728 0.1435007 -0.1607208 -0.13584733
-0.045920227 -0.07844705 -0.10523385 0.06314031 0.16646081 -0.1836809 0.14541405 -0.11097388
-0.09375379 0.03252683 0.06314031 0.09566714 -0.11288722 -0.06505366 -0.17794088 0.049746912
-0.05548694 0.15498076 0.15115407 -0.22577444 0.053573597 0.12054059 -0.0057400283 0.06505366
0.07270703 0.23151447 -0.015306742 -0.026786799 0.107147194 -0.19324762 -0.1473274 -0.17985421
0.08992711 -0.03252683 0.12628062 -0.06888034 -0.17602754 -0.09758048 -0.12628062 0.036353514
-0.114800565 0.10523385 -0.06505366 -0.19133428 -0.11862725 0.11097388 -0.16454747 -0.009566714
0.066966996 0.17985421 0.015306742 0.19707431 -0.15880744 -0.23534116 0.20664102 0.09375379
0.1473274 -0.18559425 0.07653371 -0.11862725 0.13202065 0.1435007 -0.053573597 0.099493824
-0.09184045 -0.15880744 0.09758048 -0.1607208 -0.13010731 0.011480057 -0.022960113 0.038266856
-0.1836809 -0.16263413 -0.06888034 0.049746912 -0.19707431 0.16263413 0.057400282 -0.15498076
-0.13967402 0.09566714 -0.08418708 -0.04209354 -0.007653371 -0.19133428 -0.017220085 0.05548694
-0.13584733 0.017220085 0.122453935 0.13010731 -0.007653371 -0.11862725 -0.066966996 -0.024873456
0.1702875 -0.19516096 -0.17220084 -0.21812107 -0.07270703 0.08610042 -0.044006884 0.17220084
0.038266856 -0.011480057 0.19707431 0.074620366 -0.06505366 -0.14158736 -0.09375379 0.18750758
0.0038266855 -0.059313625 0.013393399 0.16837417 -0.04783357 0.114800565 -0.06314031 -0.06888034
-0.059313625 0.107147194 -0.0803604 -0.07079368 0.08227374 -0.114800565 0.04783357 0.1607208

style_params/transformer/residual/residual1/conv2/StyleNorm/Conv_1/Conv2D_bias f4 [32]
00000000: 37e1 353d 19df 9fba 5701 1abd 2c5a 7cbd
00000010: 7584 593c f069 f23c 3146 2f3c 104a 67bc
00000020: a72b cbbc 9fa5 fa3b 2fca a8bc f417 fdbc
00000030: ddd5 13bc b506 e1bc f20e 823c a4f4 87bc
00000040: 6bcf 98bc 444e 12bb f3d7 8f3c 91af 103c
00000050: 40c3 c6bc c40d b3bb 7061 bf3b ce3d a83b
00000060: 2ab6 523a 0228 f33a d70c 08bd ad91 683c
00000070: fd2f a2bb 2064 24bd 6a44 c33b bf07 93bc
0.044404235 -0.0012197226 -0.037598934 -0.061609432 0.013276209 0.02959153 0.010697887 -0.014116779
-0.024801088 0.007649138 -0.020604221 -0.03089521 -0.009023157 -0.027469018 0.015876267 -0.016596146
-0.018653592 -0.0022324482 0.017559027 0.008830921 -0.024263024 -0.0054642875 0.005840473 0.005134321
0.0008038009 0.0018551352 -0.03321537 0.014194888 -0.0049495683 -0.04013455 0.0059590833 -0.01794803
