Assets/StreamingAssets/text_classification.tflite (tflite, 643036 bytes, 5 tensors)

dense/MatMul_bias f4 [16]
00000000: 1d0b 4f3e 5900 493e 50cc 48bc 77d7 0c3e
00000010: 5388 0cbc 1cc0 8b3e 2785 b6bc 1b85 403e
00000020: 338a 6d3e b9f0 49bc 231e 0d3e aaad 083e
00000030: ee39 2b3e 2718 3a3e 8129 363e 7f18 4c3e
0.20219083 0.19629039 -0.012255743 0.13754068 -0.008577424 0.27295005 -0.022280289 0.18800776
0.2319725 -0.012325459 0.13781027 0.13347498 0.16721317 0.18173276 0.1778927 0.1993122

dense/kernel/transpose f4 [16, 16]
00000000: 0760 42bf 3089 2fbf 327f 3abf 23fd 8bbf
00000010: 9c51 92be 081a 86bf 1a0f 403f a805 59bf
00000020: 2d71 58bf 968c c1be b559 7f3f 9f87 4abf
00000030: 2d74 543f 17e9 3b3f e42f 9bbe f0be aabe
00000040: f482 10bf 6938 8cbf 16d7 0dbf b500 0bbf
00000050: 2c44 90bf c87e 5abf fcdc fe3e f61b 79bf
00000060: 5fa5 e2be e869 89bf 9273 8e3f eca0 c6be
00000070: 059d aa3e c716 843f 5166 6ebf 816a 133d
00000080: f904 c43d 5390 04be ec7b 0bbf 8b5f 0ebf
00000090: a4a2 cfbd 5635 f8bd c38e 7f3e 95bb fb3c
000000a0: f050 1fbe a96d 92be 420e 5fbd c16b 2b3e
000000b0: b5de 2abe 3013 9a3e 9bb8 0cbf 219b a63e
000000c0: 0e4c 1f3f d64f 4b3f e002 213f 1ef5 273f
000000d0: 9b9e 5e3f bea0 f43e 1cf9 1fbf 3298 4e3f
000000e0: ea0d 803f 5dba 833f 46be 04bf 6ea7 523f
000000f0: 8079 8dbf 1529 83bf c113 793f a6e4 643f
00000100: d9e8 d23e 79d7 c53e d3e9 d7be 7613 80bd
00000110: 9df7 0d3e fad8 3a3e 51eb 54bc a7b3 98be
00000120: 1cba b83e 6456 3cbe d026 5d3e ccea 92be
00000130: ae48 c03e fa86 b1be 9c62 1ebe db4c bcbe
00000140: 00d3 0cbf cbf0 71bf 0f42 93bf 20bf 9dbf
00000150: c36e 83bf 7f01 95bf 59fe 933f bbec 4bbf
00000160: 3f64 87bf 8ee2 8bbf 47bb 203f 7c2b 57bf
00000170: 3d75 a03f 6b8e df3e cd48 62bf eb7c c8be
00000180: e187 8bbe a004 53be 3231 653e 244e a7be
00000190: 28c8 ad3e 2ef9 debe c0e1 94be b224 853e
000001a0: ffdc 1b3e 4b07 e0be 774a a4be 9a08 b03e
000001b0: 08fe 913d d510 b7be 383b a63d 936d 87be
000001c0: 7aa1 04bf e738 92bf cf34 0dbf 2647 22bf
000001d0: 155f 7dbf 407e 72bf 7c6a 963f eff1 6bbf
000001e0: 67e0 97bf 1132 82bf 61eb 253f bc1b 87bf
000001f0: c53f e03e aab2 9b3f 6535 02bf d941 90bc
00000200: 5583 873f 47ef be3e b2e7 863f e216 993f
00000210: c127 513f 9451 933f 9371 69bf db8b 253f
00000220: 506d 1e3f a058 993f 497f 59bf 20fa 3d3f
00000230: 8f1f 94bf 3bbd 73bf 21a2 013f 236c e73e
00000240: 3af3 1d3e bb1c 323e 8dfa 56be 406a f2bd
00000250: 35c0 91be c123 323e 4937 113e 871f e43e
00000260: 09ae d03d 4bd1 3ebd 4f2e 8b3e b1c2 15be
00000270: 85d1 b53d e6ed bd3c 42ed cf3d 0894 48be
00000280: f8a3 1e3f 7b52 683f 9d76 343f 30dc 653f
00000290: 1a76 8b3f 52fc 013f c0f5 97be 44e4 8c3f
000002a0: 0448 363f ec42 093f 0886 71bf 4699 533f
000002b0: 700a 2abf 996d 33bf 9df6 fc3e 5ab4 6d3f
000002c0: fec8 49bf 944c 82bf e379 4fbf b4ea 91bf
000002d0: eaf7 8ebf fac1 8ebf 43c9 873f d881 f2be
000002e0: 5095 41bf 025e d0be c708 223f 93b3 72bf
000002f0: 3cb1 fd3e a021 eb3e 86b3 9cbe e73c 70bd
00000300: a3c8 993f 4807 513f 067a 093f 9506 8e3f
00000310: 6091 543f 19a4 323f 90cb 7ebf 745c 8d3f
00000320: ee81 463f 44fb b93e c048 39bf 9ab7 553f
00000330: 7249 26bf 9908 5bbf 219e 373f 05a1 5a3f
00000340: 81cf 423f 209c 2e3f 072b 8c3f 1f1c 5c3f
00000350: 96f7 373f ff21 673f 420b 85bf cb3d 6f3f
00000360: 626c 873f 0a30 343f a886 89bf 365b 073f
00000370: 2028 eebe 6f38 03bf de3b 1c3f cb24 313f
00000380: c898 99bf 66dc e8be d0c2 71bf 53ed 18bf
00000390: a4d6 94bf 5ef3 75bf 507f 853f 9788 1dbf
000003a0: c6b9 65bf 111f 5cbf 34ac 2a3f 3fa3 9cbf
000003b0: 33eb 4b3f 3abd a83f 7ad2 61bf 42c9 0a3c
000003c0: bd56 82bf 15dd 60bf 2a2f 7bbf edc1 54bf
000003d0: 8cc8 68bf da0d 34bf e1f3 793f da72 47bf
000003e0: 17af 2ebf 4faa 40bf 1f73 423f 1d99 8ebf
000003f0: 4cf5 8c3f 6bd3 083f 42e0 1ebf bb49 0bbd
-0.75927776 -0.68568707 -0.72850335 -1.0936626 -0.28577888 -1.0476694 0.75023043 -0.84774256
-0.8454769 -0.3780257 0.9974626 -0.7911319 0.8298977 0.7340254 -0.30309975 -0.333488
-0.5644982 -1.0954715 -0.5540632 -0.54297954 -1.1270804 -0.853497 0.49777973 -0.9730829
-0.44266793 -1.0735445 1.1129019 -0.3879465 0.3332292 1.0319451 -0.9312487 0.035990242
0.09571261 -0.1294568 -0.54485965 -0.55614537 -0.10138443 -0.12119548 0.24956803 0.030729095
-0.15558219 -0.2859929 -0.054456957 0.16740324 -0.16686518 0.30092764 -0.54969186 0.3254023
0.62225425 0.79418695 0.6289501 0.65608394 0.8696076 0.47778887 -0.62489486 0.8070098
1.0004246 1.0291249 -0.51852834 0.8228673 -1.1052704 -1.0246912 0.9729577 0.8941139
0.41193274 0.38640955 -0.4217058 -0.06253712 0.13863988 0.18246832 -0.012995557 -0.29824564
0.3607949 -0.1839233 0.21596837 -0.2869476 0.3755545 -0.3467329 -0.15467304 -0.36777386
-0.5500946 -0.94508046 -1.1504534 -1.2323952 -1.0268177 -1.1641082 1.1561996 -0.796581
-1.0577468 -1.0928514 0.6278576 -0.84050727 1.2535778 0.43663344 -0.88392335 -0.39157805
-0.27252105 -0.20607233 0.22382048 -0.32676804 0.3394177 -0.43549484 -0.29078484 0.2600456
0.15221022 -0.43755564 -0.32088062 0.34381562 0.07128531 -0.3575503 0.08116764 -0.26450786
-0.51808894 -1.1423615 -0.55158705 -0.63389814 -0.9897321 -0.9472389 1.1751246 -0.92166036
-1.1865357 -1.0171529 0.64812285 -1.0555339 0.43798652 1.2163899 -0.50862724 -0.017609524
1.0586954 0.3729193 1.0539458 1.1960108 0.81701285 1.1509271 -0.91188926 0.6466653
0.6188555 1.1980171 -0.84959847 0.74209785 -1.1572131 -0.9521062 0.50638014 0.4519969
0.15424815 0.17393772 -0.20994015 -0.11836672 -0.28466955 0.17396452 0.14181246 0.44555303
0.101894446 -0.046586316 0.27183768 -0.1462505 0.08877853 0.023184728 0.10152675 -0.1958772
0.61968946 0.90750855 0.7049349 0.89789104 1.0895417 0.50775635 -0.2967968 1.1007161
0.7120364 0.5361774 -0.9434514 0.8265575 -0.66422176 -0.7008911 0.494069 0.9285332
-0.78822315 -1.017962 -0.8104536 -1.1399751 -1.1169407 -1.1152947 1.0608295 -0.47364688
-0.7561846 -0.40696722 0.63294643 -0.9480526 0.49549282 0.4592409 -0.30605716 -0.05865183
1.2014354 0.81651735 0.5370182 1.1095759 0.83034325 0.69781643 -0.9952936 1.104384
0.77542007 0.36324513 -0.7237663 0.8348328 -0.6495582 -0.85559994 0.7172566 0.85401946
0.76097876 0.6820698 1.0950631 0.8598041 0.7186216 0.9028625 -1.0394061 0.93453664
1.0579951 0.703858 -1.0744219 0.5287355 -0.46514988 -0.51257986 0.6102885 0.69196767
-1.199975 -0.4548065 -0.94437885 -0.5973713 -1.1628003 -0.96074474 1.0429478 -0.61536545
-0.8973659 -0.85984904 0.6666901 -1.2237319 0.7965576 1.3182747 -0.88211787 0.008470835
-1.018272 -0.87837344 -0.9811884 -0.8310841 -0.9093101 -0.70333636 0.97637755 -0.77909625
-0.68235916 -0.7525987 0.7595691 -1.1140476 1.1012359 0.534476 -0.6206094 -0.03400586

dense_1/MatMul_bias f4 [2]
00000000: 8401 93bb 8201 933b
-0.0044862647 0.0044862637

dense_1/kernel/transpose f4 [2, 16]
00000000: 68ba 903f 3a66 963f 8ddd 35be 1e9d 99bf
00000010: 6e9d 043f d7f8 bf3e ad96 89bb 21d8 9f3f
00000020: 1582 9abf c32a 3abd f567 1fbf 123a 8e3f
00000030: 2e9c 37bf 76b4 51bf 10fc 8e3f 09db a33f
00000040: 8892 4dbf b0d6 42bf 565c dfbe 9675 953f
00000050: 06a6 953e 8261 8cbf cb5a fdbd 6166 87be
00000060: 492a d23e 5510 9c3e 7494 ad3f fe78 25bf
00000070: e612 813f f578 943f 1a3a 56bf 34bb 1abf
1.1306887 1.1749947 -0.17760296 -1.2001073 0.5180272 0.37494537 -0.00419887 1.2487832
-1.2070948 -0.045450937 -0.62268 1.1111472 -0.71722686 -0.81915987 1.1170673 1.2801219
-0.80301714 -0.7610884 -0.43625134 1.1676509 0.29228228 -1.0967257 -0.12370833 -0.26445296
0.41047886 0.3048121 1.3560929 -0.64637744 1.0083892 1.1599413 -0.83682406 -0.604419

embedding/embeddings f4 [10000, 16]
00000000: e2dc db3c c80d 01bd e52c 34bd 6a25 96b9
00000010: 4ed2 00ba caef c1bc b0c9 a43b 515c 58bb
00000020: e2de 4c3c 4bf0 0b3d 345a cbbc 5591 0bbd
00000030: 82d1 6ebb 84fc da3a f297 d93c d6ae 1a3e
00000040: 0f51 41be 418e 99be bee5 72be b668 7bbe
00000050: 2de5 89be 3cea 8fbe 2e7e 5d3e 3456 54be
00000060: 36a4 2fbe 00b0 44be 89b1 7d3e 04f6 87be
00000070: 6196 803e a56d 3f3e 86ea 1ebe 329d 3c3c
00000080: e42c cdbb 0dfc f6bd 9a73 15bc 10d0 f0bc
00000090: bd48 2a3c 99fb 10be 974f f43d f939 323d
000000a0: 6d27 cd3c f86a e93a 447c 8438 e541 4cbd
000000b0: dfc7 533d f2e2 a83c 3029 023d a344 673e
000000c0: 148f 83bc 1a0f ad3c 73d0 d6bc 860c dd3c
000000d0: cde4 45bd a687 10bd e75b aabc c9e5 133d
000000e0: 1955 0a3d c691 be3c 4c92 463c dde1 193d
000000f0: 182d 463c c7fe e8bc f9cf 3f3d c384 1f3d
00000100: f064 a93c d657 f5bc 98c7 b8bb b95d 913c
00000110: ff5f 4e3d 61fd 93bd 620e 26bb 81c7 d03d
00000120: 5eec 013e bac6 0a3d d840 0fbd 0cc2 cd3b
00000130: 1cff d2bc 4518 30bd 4bec ee3d 2142 9e3e
00000140: 9ef2 0a3e a084 403c c266 d23d 1f3f 1d3d
00000150: b207 423d 8874 01bc b40d b2bb 3c57 693d
00000160: 619b 9d3d 0e72 943d 95a0 f5bd e101 bc3d
00000170: 029e b3bd 8838 59bd 974c 063e 5294 703e
00000180: 005b 913c 8bea 15bd 54ee 003d 5581 fb3c
00000190: b064 90bc 5ae7 92bd ff3b 8a3d df60 563d
000001a0: d15c 9d3d 5ef4 de3b bc10 f03c 531b febc
000001b0: 765e 183d 56a5 13bd cc63 743d df2b 8d3e
000001c0: 4b2f 9dbd a250 83bd 7943 c43b d6f3 88bc
000001d0: 8d25 493c bd18 0cbe 4cf5 913d 86a9 dcbc
000001e0: bda6 443d c6eb 67bd ee53 423d 763c aebd
000001f0: 79d9 1b3d f8f8 6e3b 3e49 56bc d1d7 823e
00000200: e27c a03c fe29 02be e3a8 69bd 6b32 4bbc
00000210: a3f1 85bd b748 a2bd 38e6 503d 791f ab3c
00000220: f104 373c d163 1e3d f459 02bb 22d9 f6bd
00000230: 21b2 073d c53a 79bc 82d5 0e3e fd09 a43e
00000240: 26e1 c43c 9211 5dbc fc5d b73d bc06 0ebb
00000250: ab6a d53c cb00 0dbd b1e7 0bbd e66e e33d
00000260: e3ce cf3d e91a cc3c 426b 33bd 931d a73b
00000270: e832 febc 12b3 d0bc 721d a33d a0d3 6b3e
00000280: 3bcb 3dbd 623c 97bd 5657 9b3c 3c81 6bbd
00000290: 9695 68bd c98e dbbd 4437 b33d 3ea2 6abb
000002a0: d2a7 a2bc 1e04 d43c 0ef6 2d3d 38ef 82bd
000002b0: 8e07 fdbc 3912 e03c 3e57 3a3e 6e66 a73e
000002c0: c63b bc3c d7e7 5abd 3931 2a3b 6fe9 f7bb
000002d0: 56fe 1abc 1e7b 8fbc 4eca 9c3d b486 833d
000002e0: 7bb2 bf3d dcf8 893d bd2b b83c ae46 85bc
000002f0: 505e 13bd d438 60bd 0044 fc3b 376b 523e
00000300: c52b f23d ddff 313d f2c4 ba3d 3028 be3d
00000310: 3ed3 c13d 088e a03b 9a18 b0bd 2cbd 293d
00000320: 3da5 b03d 1fd6 5e3d 5868 c1bd d16b e13b
00000330: 8cfd 03be 353f d8bd 93ec 483e 2b69 713e
00000340: 1f11 643d b85d adbd 0cee 3a3d 6679 9bbc
00000350: 5d03 193d 8ef8 85bd 809e adbc 217e cfbc
00000360: f125 a23d 525b 623d 4c0a 433d d214 9ebc
00000370: 3bf4 29bd d4c7 5cbd 2fd4 3f3e ba65 803e
00000380: 0bbd 13bd c70d 57bd f130 49bd d940 1cbd
00000390: 90b4 40bd 7f40 03be dcc5 e33d e227 09bd
000003a0: 5f36 80bb 1d92 92bc 0a30 ee3c 989f 5bbd
000003b0: 4f5c 623c 5fed a83c 5467 f13d d553 ac3e
000003c0: bb8f b03b e747 eebc 40fc c6bb ea1c 55bb
000003d0: 2873 023c e193 5abd 1911 eb3c b7d7 9a3d
000003e0: 96f9 8d3d a67c f33c 806b 37bc a5bb 1cbd
000003f0: f8ad cbbc 35e9 47bc 8b88 0a3e 635f a33e
0.026838724 -0.031507283 -0.043988127 -0.00028638105 -0.00049141503 -0.02367391 0.005028926 -0.003301401
0.012504311 0.034164708 -0.024823286 -0.034074146 -0.0036440794 0.0016707336 0.026561711 0.15105757
-0.18878578 -0.29991344 -0.23720452 -0.24551663 -0.2693266 -0.28108394 0.21630165 -0.20736009
-0.17152485 -0.19207764 0.24774756 -0.26554883 0.2511473 0.1869417 -0.15519151 0.011512088
-0.006261455 -0.120597936 -0.0091218 -0.029396087 0.010393319 -0.14158477 0.11929243 0.04351232
0.025043214 0.0017808368 6.317397e-05 -0.04986753 0.051704284 0.020616028 0.03177756 0.22584777
-0.016059436 0.021125365 -0.026222443 0.02698351 -0.048313905 -0.035285614 -0.020795776 0.036107812
0.03377256 0.02326287 0.012119841 0.037568916 0.012095712 -0.0284418 0.046829198 0.03894497
0.020678014 -0.02994911 -0.005639028 0.017744886 0.050384518 -0.072260626 -0.0025338163 0.10194302
0.12687823 0.033880927 -0.03497395 0.0062792357 -0.025756411 -0.042991895 0.11666163 0.30909827
0.13569114 0.01175037 0.10273506 0.038390275 0.04737062 -0.007901318 -0.0054337624 0.05696796
0.07695652 0.07248317 -0.11993519 0.09180046 -0.08770372 -0.053032428 0.13115154 0.2349408
0.017743587 -0.03660063 0.031477287 0.030701319 -0.017626137 -0.07173033 0.067497246 0.052338477
0.07683719 0.006804033 0.029304855 -0.031018889 0.03719946 -0.03604635 0.059665486 0.27572533
-0.07675036 -0.06411864 0.0059894887 -0.016717833 0.012277019 -0.13681312 0.07126865 -0.026936304
0.048010577 -0.056621335 0.047443323 -0.08507626 0.038049195 0.0036464315 -0.013078986 0.2555528
0.019590799 -0.12711331 -0.05704583 -0.012402157 -0.06540229 -0.079240255 0.051000804 0.02088903
0.011170612 0.03866941 -0.0019890042 -0.120531335 0.03312886 -0.015211766 0.13948634 0.3203887
0.02403314 -0.013492959 0.08953473 -0.0021671494 0.02605184 -0.034424584 -0.034156505 0.111051366
0.101468824 0.024915176 -0.04380346 0.005099961 -0.031030133 -0.025476012 0.079646006 0.23029947
-0.046336394 -0.07384564 0.018962543 -0.057496294 -0.05678328 -0.107205935 0.087507755 -0.003580227
-0.019855414 0.02588087 0.042470984 -0.063932836 -0.030887391 0.02735244 0.18197343 0.32695335
0.022977721 -0.053443756 0.002596928 -0.0075656692 -0.0094600525 -0.017514762 0.07655774 0.06422177
0.09360214 0.06736919 0.022481794 -0.016269054 -0.035978615 -0.054741696 0.007698536 0.20548712
0.118247546 0.0434569 0.091195956 0.09285009 0.094641194 0.004899744 -0.085984424 0.041440174
0.08625267 0.05440342 -0.0944373 0.006879308 -0.12889689 -0.10558931 0.19621496 0.23575275
0.05568039 -0.08465141 0.045637175 -0.018978786 0.037356723 -0.06541549 -0.021193743 -0.025328698
0.07917393 0.05526287 0.04761724 -0.019297037 -0.041492682 -0.05390151 0.18733285 0.2507761
-0.036068957 -0.052503373 -0.04911894 -0.03814778 -0.047047198 -0.12817572 0.11121723 -0.0334853
-0.0039127315 -0.017891938 0.029075641 -0.053618997 0.013815953 0.020621 0.117872864 0.3365771
0.0053882278 -0.02908702 -0.006072551 -0.0032518455 0.007962026 -0.053363685 0.028694676 0.075606756
0.0693237 0.029722523 -0.011195064 -0.03826489 -0.024863228 -0.012201597 0.1352865 0.31908712
